<?xml version="1.0"?>
<net name="torch-jit-export" version="11">
	<layers>
		<layer id="50" name="input" type="Parameter" version="opset1">
			<data shape="1,2048" element_type="f32" />
			<rt_info>
				<attribute name="old_api_map_element_type" version="0" value="f16" />
			</rt_info>
			<output>
				<port id="0" precision="FP32" names="input">
					<dim>1</dim>
					<dim>2048</dim>
					<rt_info>
						<attribute name="layout" version="0" layout="[N,C]" />
					</rt_info>
				</port>
			</output>
		</layer>
		<layer id="49" name="inp_state_000" type="Parameter" version="opset1">
			<data shape="1,128" element_type="f32" />
			<rt_info>
				<attribute name="old_api_map_element_type" version="0" value="f16" />
			</rt_info>
			<output>
				<port id="0" precision="FP32" names="inp_state_000">
					<dim>1</dim>
					<dim>128</dim>
					<rt_info>
						<attribute name="layout" version="0" layout="[N,C]" />
					</rt_info>
				</port>
			</output>
		</layer>
		<layer id="48" name="inp_state_001" type="Parameter" version="opset1">
			<data shape="1,2,129,2" element_type="f32" />
			<rt_info>
				<attribute name="old_api_map_element_type" version="0" value="f16" />
			</rt_info>
			<output>
				<port id="0" precision="FP32" names="inp_state_001">
					<dim>1</dim>
					<dim>2</dim>
					<dim>129</dim>
					<dim>2</dim>
					<rt_info>
						<attribute name="layout" version="0" layout="[N,C,H,W]" />
					</rt_info>
				</port>
			</output>
		</layer>
		<layer id="47" name="inp_state_002" type="Parameter" version="opset1">
			<data shape="1,18,129,2" element_type="f32" />
			<rt_info>
				<attribute name="old_api_map_element_type" version="0" value="f16" />
			</rt_info>
			<output>
				<port id="0" precision="FP32" names="inp_state_002">
					<dim>1</dim>
					<dim>18</dim>
					<dim>129</dim>
					<dim>2</dim>
					<rt_info>
						<attribute name="layout" version="0" layout="[N,C,H,W]" />
					</rt_info>
				</port>
			</output>
		</layer>
		<layer id="46" name="inp_state_003" type="Parameter" version="opset1">
			<data shape="1,34,129,2" element_type="f32" />
			<rt_info>
				<attribute name="old_api_map_element_type" version="0" value="f16" />
			</rt_info>
			<output>
				<port id="0" precision="FP32" names="inp_state_003">
					<dim>1</dim>
					<dim>34</dim>
					<dim>129</dim>
					<dim>2</dim>
					<rt_info>
						<attribute name="layout" version="0" layout="[N,C,H,W]" />
					</rt_info>
				</port>
			</output>
		</layer>
		<layer id="45" name="inp_state_004" type="Parameter" version="opset1">
			<data shape="1,129,32,32" element_type="f32" />
			<rt_info>
				<attribute name="old_api_map_element_type" version="0" value="f16" />
			</rt_info>
			<output>
				<port id="0" precision="FP32" names="inp_state_004">
					<dim>1</dim>
					<dim>129</dim>
					<dim>32</dim>
					<dim>32</dim>
					<rt_info>
						<attribute name="layout" version="0" layout="[N,C,H,W]" />
					</rt_info>
				</port>
			</output>
		</layer>
		<layer id="44" name="inp_state_005" type="Parameter" version="opset1">
			<data shape="1,129,32,32" element_type="f32" />
			<rt_info>
				<attribute name="old_api_map_element_type" version="0" value="f16" />
			</rt_info>
			<output>
				<port id="0" precision="FP32" names="inp_state_005">
					<dim>1</dim>
					<dim>129</dim>
					<dim>32</dim>
					<dim>32</dim>
					<rt_info>
						<attribute name="layout" version="0" layout="[N,C,H,W]" />
					</rt_info>
				</port>
			</output>
		</layer>
		<layer id="43" name="inp_state_006" type="Parameter" version="opset1">
			<data shape="1,32,64,2" element_type="f32" />
			<rt_info>
				<attribute name="old_api_map_element_type" version="0" value="f16" />
			</rt_info>
			<output>
				<port id="0" precision="FP32" names="inp_state_006">
					<dim>1</dim>
					<dim>32</dim>
					<dim>64</dim>
					<dim>2</dim>
					<rt_info>
						<attribute name="layout" version="0" layout="[N,C,H,W]" />
					</rt_info>
				</port>
			</output>
		</layer>
		<layer id="42" name="inp_state_007" type="Parameter" version="opset1">
			<data shape="1,48,64,2" element_type="f32" />
			<rt_info>
				<attribute name="old_api_map_element_type" version="0" value="f16" />
			</rt_info>
			<output>
				<port id="0" precision="FP32" names="inp_state_007">
					<dim>1</dim>
					<dim>48</dim>
					<dim>64</dim>
					<dim>2</dim>
					<rt_info>
						<attribute name="layout" version="0" layout="[N,C,H,W]" />
					</rt_info>
				</port>
			</output>
		</layer>
		<layer id="41" name="inp_state_008" type="Parameter" version="opset1">
			<data shape="1,64,64,2" element_type="f32" />
			<rt_info>
				<attribute name="old_api_map_element_type" version="0" value="f16" />
			</rt_info>
			<output>
				<port id="0" precision="FP32" names="inp_state_008">
					<dim>1</dim>
					<dim>64</dim>
					<dim>64</dim>
					<dim>2</dim>
					<rt_info>
						<attribute name="layout" version="0" layout="[N,C,H,W]" />
					</rt_info>
				</port>
			</output>
		</layer>
		<layer id="40" name="inp_state_009" type="Parameter" version="opset1">
			<data shape="1,64,64,22" element_type="f32" />
			<rt_info>
				<attribute name="old_api_map_element_type" version="0" value="f16" />
			</rt_info>
			<output>
				<port id="0" precision="FP32" names="inp_state_009">
					<dim>1</dim>
					<dim>64</dim>
					<dim>64</dim>
					<dim>22</dim>
					<rt_info>
						<attribute name="layout" version="0" layout="[N,C,H,W]" />
					</rt_info>
				</port>
			</output>
		</layer>
		<layer id="39" name="inp_state_010" type="Parameter" version="opset1">
			<data shape="1,64,64,22" element_type="f32" />
			<rt_info>
				<attribute name="old_api_map_element_type" version="0" value="f16" />
			</rt_info>
			<output>
				<port id="0" precision="FP32" names="inp_state_010">
					<dim>1</dim>
					<dim>64</dim>
					<dim>64</dim>
					<dim>22</dim>
					<rt_info>
						<attribute name="layout" version="0" layout="[N,C,H,W]" />
					</rt_info>
				</port>
			</output>
		</layer>
		<layer id="38" name="inp_state_011" type="Parameter" version="opset1">
			<data shape="1,64,32,2" element_type="f32" />
			<rt_info>
				<attribute name="old_api_map_element_type" version="0" value="f16" />
			</rt_info>
			<output>
				<port id="0" precision="FP32" names="inp_state_011">
					<dim>1</dim>
					<dim>64</dim>
					<dim>32</dim>
					<dim>2</dim>
					<rt_info>
						<attribute name="layout" version="0" layout="[N,C,H,W]" />
					</rt_info>
				</port>
			</output>
		</layer>
		<layer id="37" name="inp_state_012" type="Parameter" version="opset1">
			<data shape="1,96,32,2" element_type="f32" />
			<rt_info>
				<attribute name="old_api_map_element_type" version="0" value="f16" />
			</rt_info>
			<output>
				<port id="0" precision="FP32" names="inp_state_012">
					<dim>1</dim>
					<dim>96</dim>
					<dim>32</dim>
					<dim>2</dim>
					<rt_info>
						<attribute name="layout" version="0" layout="[N,C,H,W]" />
					</rt_info>
				</port>
			</output>
		</layer>
		<layer id="36" name="inp_state_013" type="Parameter" version="opset1">
			<data shape="1,128,32,2" element_type="f32" />
			<rt_info>
				<attribute name="old_api_map_element_type" version="0" value="f16" />
			</rt_info>
			<output>
				<port id="0" precision="FP32" names="inp_state_013">
					<dim>1</dim>
					<dim>128</dim>
					<dim>32</dim>
					<dim>2</dim>
					<rt_info>
						<attribute name="layout" version="0" layout="[N,C,H,W]" />
					</rt_info>
				</port>
			</output>
		</layer>
		<layer id="35" name="inp_state_014" type="Parameter" version="opset1">
			<data shape="1,32,128,16" element_type="f32" />
			<rt_info>
				<attribute name="old_api_map_element_type" version="0" value="f16" />
			</rt_info>
			<output>
				<port id="0" precision="FP32" names="inp_state_014">
					<dim>1</dim>
					<dim>32</dim>
					<dim>128</dim>
					<dim>16</dim>
					<rt_info>
						<attribute name="layout" version="0" layout="[N,C,H,W]" />
					</rt_info>
				</port>
			</output>
		</layer>
		<layer id="34" name="inp_state_015" type="Parameter" version="opset1">
			<data shape="1,32,128,16" element_type="f32" />
			<rt_info>
				<attribute name="old_api_map_element_type" version="0" value="f16" />
			</rt_info>
			<output>
				<port id="0" precision="FP32" names="inp_state_015">
					<dim>1</dim>
					<dim>32</dim>
					<dim>128</dim>
					<dim>16</dim>
					<rt_info>
						<attribute name="layout" version="0" layout="[N,C,H,W]" />
					</rt_info>
				</port>
			</output>
		</layer>
		<layer id="33" name="inp_state_016" type="Parameter" version="opset1">
			<data shape="1,128,16,2" element_type="f32" />
			<rt_info>
				<attribute name="old_api_map_element_type" version="0" value="f16" />
			</rt_info>
			<output>
				<port id="0" precision="FP32" names="inp_state_016">
					<dim>1</dim>
					<dim>128</dim>
					<dim>16</dim>
					<dim>2</dim>
					<rt_info>
						<attribute name="layout" version="0" layout="[N,C,H,W]" />
					</rt_info>
				</port>
			</output>
		</layer>
		<layer id="32" name="inp_state_017" type="Parameter" version="opset1">
			<data shape="1,192,16,2" element_type="f32" />
			<rt_info>
				<attribute name="old_api_map_element_type" version="0" value="f16" />
			</rt_info>
			<output>
				<port id="0" precision="FP32" names="inp_state_017">
					<dim>1</dim>
					<dim>192</dim>
					<dim>16</dim>
					<dim>2</dim>
					<rt_info>
						<attribute name="layout" version="0" layout="[N,C,H,W]" />
					</rt_info>
				</port>
			</output>
		</layer>
		<layer id="31" name="inp_state_018" type="Parameter" version="opset1">
			<data shape="1,256,16,2" element_type="f32" />
			<rt_info>
				<attribute name="old_api_map_element_type" version="0" value="f16" />
			</rt_info>
			<output>
				<port id="0" precision="FP32" names="inp_state_018">
					<dim>1</dim>
					<dim>256</dim>
					<dim>16</dim>
					<dim>2</dim>
					<rt_info>
						<attribute name="layout" version="0" layout="[N,C,H,W]" />
					</rt_info>
				</port>
			</output>
		</layer>
		<layer id="30" name="inp_state_019" type="Parameter" version="opset1">
			<data shape="1,16,256,11" element_type="f32" />
			<rt_info>
				<attribute name="old_api_map_element_type" version="0" value="f16" />
			</rt_info>
			<output>
				<port id="0" precision="FP32" names="inp_state_019">
					<dim>1</dim>
					<dim>16</dim>
					<dim>256</dim>
					<dim>11</dim>
					<rt_info>
						<attribute name="layout" version="0" layout="[N,C,H,W]" />
					</rt_info>
				</port>
			</output>
		</layer>
		<layer id="29" name="inp_state_020" type="Parameter" version="opset1">
			<data shape="1,16,256,11" element_type="f32" />
			<rt_info>
				<attribute name="old_api_map_element_type" version="0" value="f16" />
			</rt_info>
			<output>
				<port id="0" precision="FP32" names="inp_state_020">
					<dim>1</dim>
					<dim>16</dim>
					<dim>256</dim>
					<dim>11</dim>
					<rt_info>
						<attribute name="layout" version="0" layout="[N,C,H,W]" />
					</rt_info>
				</port>
			</output>
		</layer>
		<layer id="28" name="inp_state_021" type="Parameter" version="opset1">
			<data shape="1,256,8,2" element_type="f32" />
			<rt_info>
				<attribute name="old_api_map_element_type" version="0" value="f16" />
			</rt_info>
			<output>
				<port id="0" precision="FP32" names="inp_state_021">
					<dim>1</dim>
					<dim>256</dim>
					<dim>8</dim>
					<dim>2</dim>
					<rt_info>
						<attribute name="layout" version="0" layout="[N,C,H,W]" />
					</rt_info>
				</port>
			</output>
		</layer>
		<layer id="27" name="inp_state_022" type="Parameter" version="opset1">
			<data shape="1,384,8,2" element_type="f32" />
			<rt_info>
				<attribute name="old_api_map_element_type" version="0" value="f16" />
			</rt_info>
			<output>
				<port id="0" precision="FP32" names="inp_state_022">
					<dim>1</dim>
					<dim>384</dim>
					<dim>8</dim>
					<dim>2</dim>
					<rt_info>
						<attribute name="layout" version="0" layout="[N,C,H,W]" />
					</rt_info>
				</port>
			</output>
		</layer>
		<layer id="26" name="inp_state_023" type="Parameter" version="opset1">
			<data shape="1,512,8,2" element_type="f32" />
			<rt_info>
				<attribute name="old_api_map_element_type" version="0" value="f16" />
			</rt_info>
			<output>
				<port id="0" precision="FP32" names="inp_state_023">
					<dim>1</dim>
					<dim>512</dim>
					<dim>8</dim>
					<dim>2</dim>
					<rt_info>
						<attribute name="layout" version="0" layout="[N,C,H,W]" />
					</rt_info>
				</port>
			</output>
		</layer>
		<layer id="25" name="inp_state_024" type="Parameter" version="opset1">
			<data shape="1,8,256,8" element_type="f32" />
			<rt_info>
				<attribute name="old_api_map_element_type" version="0" value="f16" />
			</rt_info>
			<output>
				<port id="0" precision="FP32" names="inp_state_024">
					<dim>1</dim>
					<dim>8</dim>
					<dim>256</dim>
					<dim>8</dim>
					<rt_info>
						<attribute name="layout" version="0" layout="[N,C,H,W]" />
					</rt_info>
				</port>
			</output>
		</layer>
		<layer id="24" name="inp_state_025" type="Parameter" version="opset1">
			<data shape="1,8,256,8" element_type="f32" />
			<rt_info>
				<attribute name="old_api_map_element_type" version="0" value="f16" />
			</rt_info>
			<output>
				<port id="0" precision="FP32" names="inp_state_025">
					<dim>1</dim>
					<dim>8</dim>
					<dim>256</dim>
					<dim>8</dim>
					<rt_info>
						<attribute name="layout" version="0" layout="[N,C,H,W]" />
					</rt_info>
				</port>
			</output>
		</layer>
		<layer id="23" name="inp_state_026" type="Parameter" version="opset1">
			<data shape="1,512,16,2" element_type="f32" />
			<rt_info>
				<attribute name="old_api_map_element_type" version="0" value="f16" />
			</rt_info>
			<output>
				<port id="0" precision="FP32" names="inp_state_026">
					<dim>1</dim>
					<dim>512</dim>
					<dim>16</dim>
					<dim>2</dim>
					<rt_info>
						<attribute name="layout" version="0" layout="[N,C,H,W]" />
					</rt_info>
				</port>
			</output>
		</layer>
		<layer id="22" name="inp_state_027" type="Parameter" version="opset1">
			<data shape="1,256,16,2" element_type="f32" />
			<rt_info>
				<attribute name="old_api_map_element_type" version="0" value="f16" />
			</rt_info>
			<output>
				<port id="0" precision="FP32" names="inp_state_027">
					<dim>1</dim>
					<dim>256</dim>
					<dim>16</dim>
					<dim>2</dim>
					<rt_info>
						<attribute name="layout" version="0" layout="[N,C,H,W]" />
					</rt_info>
				</port>
			</output>
		</layer>
		<layer id="21" name="inp_state_028" type="Parameter" version="opset1">
			<data shape="1,384,16,2" element_type="f32" />
			<rt_info>
				<attribute name="old_api_map_element_type" version="0" value="f16" />
			</rt_info>
			<output>
				<port id="0" precision="FP32" names="inp_state_028">
					<dim>1</dim>
					<dim>384</dim>
					<dim>16</dim>
					<dim>2</dim>
					<rt_info>
						<attribute name="layout" version="0" layout="[N,C,H,W]" />
					</rt_info>
				</port>
			</output>
		</layer>
		<layer id="20" name="inp_state_029" type="Parameter" version="opset1">
			<data shape="1,512,16,2" element_type="f32" />
			<rt_info>
				<attribute name="old_api_map_element_type" version="0" value="f16" />
			</rt_info>
			<output>
				<port id="0" precision="FP32" names="inp_state_029">
					<dim>1</dim>
					<dim>512</dim>
					<dim>16</dim>
					<dim>2</dim>
					<rt_info>
						<attribute name="layout" version="0" layout="[N,C,H,W]" />
					</rt_info>
				</port>
			</output>
		</layer>
		<layer id="19" name="inp_state_030" type="Parameter" version="opset1">
			<data shape="1,16,128,11" element_type="f32" />
			<rt_info>
				<attribute name="old_api_map_element_type" version="0" value="f16" />
			</rt_info>
			<output>
				<port id="0" precision="FP32" names="inp_state_030">
					<dim>1</dim>
					<dim>16</dim>
					<dim>128</dim>
					<dim>11</dim>
					<rt_info>
						<attribute name="layout" version="0" layout="[N,C,H,W]" />
					</rt_info>
				</port>
			</output>
		</layer>
		<layer id="18" name="inp_state_031" type="Parameter" version="opset1">
			<data shape="1,16,128,11" element_type="f32" />
			<rt_info>
				<attribute name="old_api_map_element_type" version="0" value="f16" />
			</rt_info>
			<output>
				<port id="0" precision="FP32" names="inp_state_031">
					<dim>1</dim>
					<dim>16</dim>
					<dim>128</dim>
					<dim>11</dim>
					<rt_info>
						<attribute name="layout" version="0" layout="[N,C,H,W]" />
					</rt_info>
				</port>
			</output>
		</layer>
		<layer id="17" name="inp_state_032" type="Parameter" version="opset1">
			<data shape="1,256,32,2" element_type="f32" />
			<rt_info>
				<attribute name="old_api_map_element_type" version="0" value="f16" />
			</rt_info>
			<output>
				<port id="0" precision="FP32" names="inp_state_032">
					<dim>1</dim>
					<dim>256</dim>
					<dim>32</dim>
					<dim>2</dim>
					<rt_info>
						<attribute name="layout" version="0" layout="[N,C,H,W]" />
					</rt_info>
				</port>
			</output>
		</layer>
		<layer id="16" name="inp_state_033" type="Parameter" version="opset1">
			<data shape="1,128,32,2" element_type="f32" />
			<rt_info>
				<attribute name="old_api_map_element_type" version="0" value="f16" />
			</rt_info>
			<output>
				<port id="0" precision="FP32" names="inp_state_033">
					<dim>1</dim>
					<dim>128</dim>
					<dim>32</dim>
					<dim>2</dim>
					<rt_info>
						<attribute name="layout" version="0" layout="[N,C,H,W]" />
					</rt_info>
				</port>
			</output>
		</layer>
		<layer id="15" name="inp_state_034" type="Parameter" version="opset1">
			<data shape="1,192,32,2" element_type="f32" />
			<rt_info>
				<attribute name="old_api_map_element_type" version="0" value="f16" />
			</rt_info>
			<output>
				<port id="0" precision="FP32" names="inp_state_034">
					<dim>1</dim>
					<dim>192</dim>
					<dim>32</dim>
					<dim>2</dim>
					<rt_info>
						<attribute name="layout" version="0" layout="[N,C,H,W]" />
					</rt_info>
				</port>
			</output>
		</layer>
		<layer id="14" name="inp_state_035" type="Parameter" version="opset1">
			<data shape="1,256,32,2" element_type="f32" />
			<rt_info>
				<attribute name="old_api_map_element_type" version="0" value="f16" />
			</rt_info>
			<output>
				<port id="0" precision="FP32" names="inp_state_035">
					<dim>1</dim>
					<dim>256</dim>
					<dim>32</dim>
					<dim>2</dim>
					<rt_info>
						<attribute name="layout" version="0" layout="[N,C,H,W]" />
					</rt_info>
				</port>
			</output>
		</layer>
		<layer id="13" name="inp_state_036" type="Parameter" version="opset1">
			<data shape="1,32,64,16" element_type="f32" />
			<rt_info>
				<attribute name="old_api_map_element_type" version="0" value="f16" />
			</rt_info>
			<output>
				<port id="0" precision="FP32" names="inp_state_036">
					<dim>1</dim>
					<dim>32</dim>
					<dim>64</dim>
					<dim>16</dim>
					<rt_info>
						<attribute name="layout" version="0" layout="[N,C,H,W]" />
					</rt_info>
				</port>
			</output>
		</layer>
		<layer id="12" name="inp_state_037" type="Parameter" version="opset1">
			<data shape="1,32,64,16" element_type="f32" />
			<rt_info>
				<attribute name="old_api_map_element_type" version="0" value="f16" />
			</rt_info>
			<output>
				<port id="0" precision="FP32" names="inp_state_037">
					<dim>1</dim>
					<dim>32</dim>
					<dim>64</dim>
					<dim>16</dim>
					<rt_info>
						<attribute name="layout" version="0" layout="[N,C,H,W]" />
					</rt_info>
				</port>
			</output>
		</layer>
		<layer id="11" name="inp_state_038" type="Parameter" version="opset1">
			<data shape="1,128,64,2" element_type="f32" />
			<rt_info>
				<attribute name="old_api_map_element_type" version="0" value="f16" />
			</rt_info>
			<output>
				<port id="0" precision="FP32" names="inp_state_038">
					<dim>1</dim>
					<dim>128</dim>
					<dim>64</dim>
					<dim>2</dim>
					<rt_info>
						<attribute name="layout" version="0" layout="[N,C,H,W]" />
					</rt_info>
				</port>
			</output>
		</layer>
		<layer id="10" name="inp_state_039" type="Parameter" version="opset1">
			<data shape="1,64,64,2" element_type="f32" />
			<rt_info>
				<attribute name="old_api_map_element_type" version="0" value="f16" />
			</rt_info>
			<output>
				<port id="0" precision="FP32" names="inp_state_039">
					<dim>1</dim>
					<dim>64</dim>
					<dim>64</dim>
					<dim>2</dim>
					<rt_info>
						<attribute name="layout" version="0" layout="[N,C,H,W]" />
					</rt_info>
				</port>
			</output>
		</layer>
		<layer id="9" name="inp_state_040" type="Parameter" version="opset1">
			<data shape="1,96,64,2" element_type="f32" />
			<rt_info>
				<attribute name="old_api_map_element_type" version="0" value="f16" />
			</rt_info>
			<output>
				<port id="0" precision="FP32" names="inp_state_040">
					<dim>1</dim>
					<dim>96</dim>
					<dim>64</dim>
					<dim>2</dim>
					<rt_info>
						<attribute name="layout" version="0" layout="[N,C,H,W]" />
					</rt_info>
				</port>
			</output>
		</layer>
		<layer id="8" name="inp_state_041" type="Parameter" version="opset1">
			<data shape="1,128,64,2" element_type="f32" />
			<rt_info>
				<attribute name="old_api_map_element_type" version="0" value="f16" />
			</rt_info>
			<output>
				<port id="0" precision="FP32" names="inp_state_041">
					<dim>1</dim>
					<dim>128</dim>
					<dim>64</dim>
					<dim>2</dim>
					<rt_info>
						<attribute name="layout" version="0" layout="[N,C,H,W]" />
					</rt_info>
				</port>
			</output>
		</layer>
		<layer id="7" name="inp_state_042" type="Parameter" version="opset1">
			<data shape="1,64,32,22" element_type="f32" />
			<rt_info>
				<attribute name="old_api_map_element_type" version="0" value="f16" />
			</rt_info>
			<output>
				<port id="0" precision="FP32" names="inp_state_042">
					<dim>1</dim>
					<dim>64</dim>
					<dim>32</dim>
					<dim>22</dim>
					<rt_info>
						<attribute name="layout" version="0" layout="[N,C,H,W]" />
					</rt_info>
				</port>
			</output>
		</layer>
		<layer id="6" name="inp_state_043" type="Parameter" version="opset1">
			<data shape="1,64,32,22" element_type="f32" />
			<rt_info>
				<attribute name="old_api_map_element_type" version="0" value="f16" />
			</rt_info>
			<output>
				<port id="0" precision="FP32" names="inp_state_043">
					<dim>1</dim>
					<dim>64</dim>
					<dim>32</dim>
					<dim>22</dim>
					<rt_info>
						<attribute name="layout" version="0" layout="[N,C,H,W]" />
					</rt_info>
				</port>
			</output>
		</layer>
		<layer id="5" name="inp_state_044" type="Parameter" version="opset1">
			<data shape="1,64,129,2" element_type="f32" />
			<rt_info>
				<attribute name="old_api_map_element_type" version="0" value="f16" />
			</rt_info>
			<output>
				<port id="0" precision="FP32" names="inp_state_044">
					<dim>1</dim>
					<dim>64</dim>
					<dim>129</dim>
					<dim>2</dim>
					<rt_info>
						<attribute name="layout" version="0" layout="[N,C,H,W]" />
					</rt_info>
				</port>
			</output>
		</layer>
		<layer id="4" name="inp_state_045" type="Parameter" version="opset1">
			<data shape="1,32,129,2" element_type="f32" />
			<rt_info>
				<attribute name="old_api_map_element_type" version="0" value="f16" />
			</rt_info>
			<output>
				<port id="0" precision="FP32" names="inp_state_045">
					<dim>1</dim>
					<dim>32</dim>
					<dim>129</dim>
					<dim>2</dim>
					<rt_info>
						<attribute name="layout" version="0" layout="[N,C,H,W]" />
					</rt_info>
				</port>
			</output>
		</layer>
		<layer id="3" name="inp_state_046" type="Parameter" version="opset1">
			<data shape="1,48,129,2" element_type="f32" />
			<rt_info>
				<attribute name="old_api_map_element_type" version="0" value="f16" />
			</rt_info>
			<output>
				<port id="0" precision="FP32" names="inp_state_046">
					<dim>1</dim>
					<dim>48</dim>
					<dim>129</dim>
					<dim>2</dim>
					<rt_info>
						<attribute name="layout" version="0" layout="[N,C,H,W]" />
					</rt_info>
				</port>
			</output>
		</layer>
		<layer id="2" name="inp_state_047" type="Parameter" version="opset1">
			<data shape="1,64,129,2" element_type="f32" />
			<rt_info>
				<attribute name="old_api_map_element_type" version="0" value="f16" />
			</rt_info>
			<output>
				<port id="0" precision="FP32" names="inp_state_047">
					<dim>1</dim>
					<dim>64</dim>
					<dim>129</dim>
					<dim>2</dim>
					<rt_info>
						<attribute name="layout" version="0" layout="[N,C,H,W]" />
					</rt_info>
				</port>
			</output>
		</layer>
		<layer id="1" name="inp_state_048" type="Parameter" version="opset1">
			<data shape="1,2,129,4" element_type="f32" />
			<rt_info>
				<attribute name="old_api_map_element_type" version="0" value="f16" />
			</rt_info>
			<output>
				<port id="0" precision="FP32" names="inp_state_048">
					<dim>1</dim>
					<dim>2</dim>
					<dim>129</dim>
					<dim>4</dim>
					<rt_info>
						<attribute name="layout" version="0" layout="[N,C,H,W]" />
					</rt_info>
				</port>
			</output>
		</layer>
		<layer id="0" name="inp_state_049" type="Parameter" version="opset1">
			<data shape="1,2,129,1" element_type="f32" />
			<rt_info>
				<attribute name="old_api_map_element_type" version="0" value="f16" />
			</rt_info>
			<output>
				<port id="0" precision="FP32" names="inp_state_049">
					<dim>1</dim>
					<dim>2</dim>
					<dim>129</dim>
					<dim>1</dim>
					<rt_info>
						<attribute name="layout" version="0" layout="[N,C,H,W]" />
					</rt_info>
				</port>
			</output>
		</layer>
		<layer id="51" name="Concat_0" type="Concat" version="opset1">
			<data axis="1" />
			<input>
				<port id="0" precision="FP32">
					<dim>1</dim>
					<dim>128</dim>
				</port>
				<port id="1" precision="FP32">
					<dim>1</dim>
					<dim>2048</dim>
				</port>
			</input>
			<output>
				<port id="2" precision="FP32" names="337">
					<dim>1</dim>
					<dim>2176</dim>
				</port>
			</output>
		</layer>
		<layer id="52" name="Constant_559" type="Const" version="opset1">
			<data element_type="i64" shape="1" offset="0" size="8" />
			<output>
				<port id="0" precision="I64">
					<dim>1</dim>
				</port>
			</output>
		</layer>
		<layer id="53" name="Unsqueeze_12" type="Unsqueeze" version="opset1">
			<input>
				<port id="0" precision="FP32">
					<dim>1</dim>
					<dim>2176</dim>
				</port>
				<port id="1" precision="I64">
					<dim>1</dim>
				</port>
			</input>
			<output>
				<port id="2" precision="FP32" names="351">
					<dim>1</dim>
					<dim>1</dim>
					<dim>2176</dim>
				</port>
			</output>
		</layer>
		<layer id="54" name="Constant_561" type="Const" version="opset1">
			<data element_type="i64" shape="1" offset="8" size="8" />
			<output>
				<port id="0" precision="I64">
					<dim>1</dim>
				</port>
			</output>
		</layer>
		<layer id="55" name="Unsqueeze_13" type="Unsqueeze" version="opset1">
			<input>
				<port id="0" precision="FP32">
					<dim>1</dim>
					<dim>1</dim>
					<dim>2176</dim>
				</port>
				<port id="1" precision="I64">
					<dim>1</dim>
				</port>
			</input>
			<output>
				<port id="2" precision="FP32" names="352">
					<dim>1</dim>
					<dim>1</dim>
					<dim>1</dim>
					<dim>2176</dim>
				</port>
			</output>
		</layer>
		<layer id="56" name="_encdec_matrix_compressed" type="Const" version="opset1">
			<data element_type="f16" shape="258, 1, 1, 256" offset="16" size="132096" />
			<output>
				<port id="0" precision="FP16">
					<dim>258</dim>
					<dim>1</dim>
					<dim>1</dim>
					<dim>256</dim>
				</port>
			</output>
		</layer>
		<layer id="57" name="_encdec_matrix" type="Convert" version="opset1">
			<data destination_type="f32" />
			<rt_info>
				<attribute name="decompression" version="0" />
			</rt_info>
			<input>
				<port id="0" precision="FP16">
					<dim>258</dim>
					<dim>1</dim>
					<dim>1</dim>
					<dim>256</dim>
				</port>
			</input>
			<output>
				<port id="1" precision="FP32" names="_encdec_matrix">
					<dim>258</dim>
					<dim>1</dim>
					<dim>1</dim>
					<dim>256</dim>
				</port>
			</output>
		</layer>
		<layer id="58" name="Conv_14" type="Convolution" version="opset1">
			<data strides="128, 128" dilations="1, 1" pads_begin="0, 0" pads_end="0, 0" auto_pad="explicit" />
			<input>
				<port id="0" precision="FP32">
					<dim>1</dim>
					<dim>1</dim>
					<dim>1</dim>
					<dim>2176</dim>
				</port>
				<port id="1" precision="FP32">
					<dim>258</dim>
					<dim>1</dim>
					<dim>1</dim>
					<dim>256</dim>
				</port>
			</input>
			<output>
				<port id="2" precision="FP32" names="353">
					<dim>1</dim>
					<dim>258</dim>
					<dim>1</dim>
					<dim>16</dim>
				</port>
			</output>
		</layer>
		<layer id="59" name="Constant_80996" type="Const" version="opset1">
			<data element_type="i64" shape="1" offset="132112" size="8" />
			<output>
				<port id="0" precision="I64">
					<dim>1</dim>
				</port>
			</output>
		</layer>
		<layer id="60" name="3174" type="Const" version="opset1">
			<data element_type="i64" shape="1" offset="8" size="8" />
			<output>
				<port id="0" precision="I64" names="3174">
					<dim>1</dim>
				</port>
			</output>
		</layer>
		<layer id="61" name="Shape_15" type="ShapeOf" version="opset3">
			<data output_type="i64" />
			<input>
				<port id="0" precision="FP32">
					<dim>1</dim>
					<dim>258</dim>
					<dim>1</dim>
					<dim>16</dim>
				</port>
			</input>
			<output>
				<port id="1" precision="I64" names="354,357,360">
					<dim>4</dim>
				</port>
			</output>
		</layer>
		<layer id="62" name="Constant_19" type="Const" version="opset1">
			<data element_type="i64" shape="" offset="0" size="8" />
			<output>
				<port id="0" precision="I64" names="358" />
			</output>
		</layer>
		<layer id="63" name="Constant_571" type="Const" version="opset1">
			<data element_type="i64" shape="" offset="132112" size="8" />
			<output>
				<port id="0" precision="I64" />
			</output>
		</layer>
		<layer id="64" name="Gather_20" type="Gather" version="opset8">
			<data batch_dims="0" />
			<input>
				<port id="0" precision="I64">
					<dim>4</dim>
				</port>
				<port id="1" precision="I64" />
				<port id="2" precision="I64" />
			</input>
			<output>
				<port id="3" precision="I64" names="359" />
			</output>
		</layer>
		<layer id="65" name="Constant_24" type="Const" version="opset1">
			<data element_type="i64" shape="" offset="8" size="8" />
			<output>
				<port id="0" precision="I64" names="363" />
			</output>
		</layer>
		<layer id="66" name="Div_25" type="Divide" version="opset1">
			<data auto_broadcast="numpy" m_pythondiv="true" />
			<input>
				<port id="0" precision="I64" />
				<port id="1" precision="I64" />
			</input>
			<output>
				<port id="2" precision="I64" names="364,365,366" />
			</output>
		</layer>
		<layer id="67" name="Constant_583" type="Const" version="opset1">
			<data element_type="i64" shape="1" offset="132112" size="8" />
			<output>
				<port id="0" precision="I64">
					<dim>1</dim>
				</port>
			</output>
		</layer>
		<layer id="68" name="Unsqueeze_29" type="Unsqueeze" version="opset1">
			<input>
				<port id="0" precision="I64" />
				<port id="1" precision="I64">
					<dim>1</dim>
				</port>
			</input>
			<output>
				<port id="2" precision="I64" names="370">
					<dim>1</dim>
				</port>
			</output>
		</layer>
		<layer id="69" name="Constant_80997" type="Const" version="opset1">
			<data element_type="i64" shape="1" offset="132112" size="8" />
			<output>
				<port id="0" precision="I64">
					<dim>1</dim>
				</port>
			</output>
		</layer>
		<layer id="70" name="Concat_31" type="Concat" version="opset1">
			<data axis="0" />
			<input>
				<port id="0" precision="I64">
					<dim>1</dim>
				</port>
				<port id="1" precision="I64">
					<dim>1</dim>
				</port>
				<port id="2" precision="I64">
					<dim>1</dim>
				</port>
				<port id="3" precision="I64">
					<dim>1</dim>
				</port>
			</input>
			<output>
				<port id="4" precision="I64">
					<dim>4</dim>
				</port>
			</output>
		</layer>
		<layer id="71" name="Reshape_32" type="Reshape" version="opset1">
			<data special_zero="true" />
			<input>
				<port id="0" precision="FP32">
					<dim>1</dim>
					<dim>258</dim>
					<dim>1</dim>
					<dim>16</dim>
				</port>
				<port id="1" precision="I64">
					<dim>4</dim>
				</port>
			</input>
			<output>
				<port id="2" precision="FP32" names="373">
					<dim>1</dim>
					<dim>2</dim>
					<dim>129</dim>
					<dim>16</dim>
				</port>
			</output>
		</layer>
		<layer id="72" name="Concat_2123" type="Concat" version="opset1">
			<data axis="3" />
			<input>
				<port id="0" precision="FP32">
					<dim>1</dim>
					<dim>2</dim>
					<dim>129</dim>
					<dim>4</dim>
				</port>
				<port id="1" precision="FP32">
					<dim>1</dim>
					<dim>2</dim>
					<dim>129</dim>
					<dim>16</dim>
				</port>
			</input>
			<output>
				<port id="2" precision="FP32" names="3098">
					<dim>1</dim>
					<dim>2</dim>
					<dim>129</dim>
					<dim>20</dim>
				</port>
			</output>
		</layer>
		<layer id="73" name="Constant_103751" type="Const" version="opset1">
			<data element_type="i64" shape="4" offset="132120" size="32" />
			<output>
				<port id="0" precision="I64">
					<dim>4</dim>
				</port>
			</output>
		</layer>
		<layer id="74" name="Constant_103752" type="Const" version="opset1">
			<data element_type="i64" shape="4" offset="132120" size="32" />
			<output>
				<port id="0" precision="I64">
					<dim>4</dim>
				</port>
			</output>
		</layer>
		<layer id="75" name="Constant_103748" type="Const" version="opset1">
			<data element_type="i64" shape="1" offset="132152" size="8" />
			<output>
				<port id="0" precision="I64">
					<dim>1</dim>
				</port>
			</output>
		</layer>
		<layer id="76" name="Shape_2124" type="ShapeOf" version="opset3">
			<data output_type="i64" />
			<input>
				<port id="0" precision="FP32">
					<dim>1</dim>
					<dim>2</dim>
					<dim>129</dim>
					<dim>20</dim>
				</port>
			</input>
			<output>
				<port id="1" precision="I64" names="3099">
					<dim>4</dim>
				</port>
			</output>
		</layer>
		<layer id="77" name="Constant_2125" type="Const" version="opset1">
			<data element_type="i64" shape="" offset="132152" size="8" />
			<output>
				<port id="0" precision="I64" names="3100" />
			</output>
		</layer>
		<layer id="78" name="Constant_5440" type="Const" version="opset1">
			<data element_type="i64" shape="" offset="132112" size="8" />
			<output>
				<port id="0" precision="I64" />
			</output>
		</layer>
		<layer id="79" name="Gather_2126" type="Gather" version="opset8">
			<data batch_dims="0" />
			<input>
				<port id="0" precision="I64">
					<dim>4</dim>
				</port>
				<port id="1" precision="I64" />
				<port id="2" precision="I64" />
			</input>
			<output>
				<port id="3" precision="I64" names="3101" />
			</output>
		</layer>
		<layer id="80" name="Constant_2127" type="Const" version="opset1">
			<data element_type="i64" shape="" offset="132160" size="8" />
			<output>
				<port id="0" precision="I64" names="3102" />
			</output>
		</layer>
		<layer id="81" name="Sub_2128" type="Subtract" version="opset1">
			<data auto_broadcast="numpy" />
			<input>
				<port id="0" precision="I64" />
				<port id="1" precision="I64" />
			</input>
			<output>
				<port id="2" precision="I64" names="3103" />
			</output>
		</layer>
		<layer id="82" name="Constant_5444" type="Const" version="opset1">
			<data element_type="i64" shape="1" offset="132112" size="8" />
			<output>
				<port id="0" precision="I64">
					<dim>1</dim>
				</port>
			</output>
		</layer>
		<layer id="83" name="Unsqueeze_2129" type="Unsqueeze" version="opset1">
			<input>
				<port id="0" precision="I64" />
				<port id="1" precision="I64">
					<dim>1</dim>
				</port>
			</input>
			<output>
				<port id="2" precision="I64" names="3105,3110">
					<dim>1</dim>
				</port>
			</output>
		</layer>
		<layer id="84" name="Constant_103747" type="Const" version="opset1">
			<data element_type="i32" shape="1" offset="132168" size="4" />
			<output>
				<port id="0" precision="I32">
					<dim>1</dim>
				</port>
			</output>
		</layer>
		<layer id="85" name="ScatterUpdate_103753" type="ScatterUpdate" version="opset3">
			<input>
				<port id="0" precision="I64">
					<dim>4</dim>
				</port>
				<port id="1" precision="I64">
					<dim>1</dim>
				</port>
				<port id="2" precision="I64">
					<dim>1</dim>
				</port>
				<port id="3" precision="I32">
					<dim>1</dim>
				</port>
			</input>
			<output>
				<port id="4" precision="I64">
					<dim>4</dim>
				</port>
			</output>
		</layer>
		<layer id="86" name="Constant_103756" type="Const" version="opset1">
			<data element_type="i64" shape="4" offset="132172" size="32" />
			<output>
				<port id="0" precision="I64">
					<dim>4</dim>
				</port>
			</output>
		</layer>
		<layer id="87" name="Slice_2134" type="StridedSlice" version="opset1">
			<data begin_mask="1, 1, 1, 0" end_mask="1, 1, 1, 0" new_axis_mask="" shrink_axis_mask="" ellipsis_mask="" />
			<input>
				<port id="0" precision="FP32">
					<dim>1</dim>
					<dim>2</dim>
					<dim>129</dim>
					<dim>20</dim>
				</port>
				<port id="1" precision="I64">
					<dim>4</dim>
				</port>
				<port id="2" precision="I64">
					<dim>4</dim>
				</port>
				<port id="3" precision="I64">
					<dim>4</dim>
				</port>
			</input>
			<output>
				<port id="4" precision="FP32" names="3111">
					<dim>1</dim>
					<dim>2</dim>
					<dim>129</dim>
					<dim>16</dim>
				</port>
			</output>
		</layer>
		<layer id="88" name="Constant_2141" type="Const" version="opset1">
			<data element_type="i64" shape="" offset="132112" size="8" />
			<output>
				<port id="0" precision="I64" names="3118" />
			</output>
		</layer>
		<layer id="89" name="Constant_5478" type="Const" version="opset1">
			<data element_type="i64" shape="" offset="0" size="8" />
			<output>
				<port id="0" precision="I64" />
			</output>
		</layer>
		<layer id="90" name="Gather_2142" type="Gather" version="opset8">
			<data batch_dims="0" />
			<input>
				<port id="0" precision="FP32">
					<dim>1</dim>
					<dim>2</dim>
					<dim>129</dim>
					<dim>16</dim>
				</port>
				<port id="1" precision="I64" />
				<port id="2" precision="I64" />
			</input>
			<output>
				<port id="3" precision="FP32" names="3119">
					<dim>1</dim>
					<dim>129</dim>
					<dim>16</dim>
				</port>
			</output>
		</layer>
		<layer id="91" name="Constant_142856_compressed" type="Const" version="opset1">
			<data element_type="f16" shape="1, 2, 1, 1" offset="132204" size="4" />
			<output>
				<port id="0" precision="FP16">
					<dim>1</dim>
					<dim>2</dim>
					<dim>1</dim>
					<dim>1</dim>
				</port>
			</output>
		</layer>
		<layer id="92" name="Constant_142856" type="Convert" version="opset1">
			<data destination_type="f32" />
			<rt_info>
				<attribute name="decompression" version="0" />
			</rt_info>
			<input>
				<port id="0" precision="FP16">
					<dim>1</dim>
					<dim>2</dim>
					<dim>1</dim>
					<dim>1</dim>
				</port>
			</input>
			<output>
				<port id="1" precision="FP32">
					<dim>1</dim>
					<dim>2</dim>
					<dim>1</dim>
					<dim>1</dim>
				</port>
			</output>
		</layer>
		<layer id="93" name="Multiply_145136" type="Multiply" version="opset1">
			<data auto_broadcast="numpy" />
			<input>
				<port id="0" precision="FP32">
					<dim>1</dim>
					<dim>2</dim>
					<dim>129</dim>
					<dim>16</dim>
				</port>
				<port id="1" precision="FP32">
					<dim>1</dim>
					<dim>2</dim>
					<dim>1</dim>
					<dim>1</dim>
				</port>
			</input>
			<output>
				<port id="2" precision="FP32">
					<dim>1</dim>
					<dim>2</dim>
					<dim>129</dim>
					<dim>16</dim>
				</port>
			</output>
		</layer>
		<layer id="94" name="Constant_145141_compressed" type="Const" version="opset1">
			<data element_type="f16" shape="1, 2, 1, 1" offset="132208" size="4" />
			<output>
				<port id="0" precision="FP16">
					<dim>1</dim>
					<dim>2</dim>
					<dim>1</dim>
					<dim>1</dim>
				</port>
			</output>
		</layer>
		<layer id="95" name="Constant_145141" type="Convert" version="opset1">
			<data destination_type="f32" />
			<rt_info>
				<attribute name="decompression" version="0" />
			</rt_info>
			<input>
				<port id="0" precision="FP16">
					<dim>1</dim>
					<dim>2</dim>
					<dim>1</dim>
					<dim>1</dim>
				</port>
			</input>
			<output>
				<port id="1" precision="FP32">
					<dim>1</dim>
					<dim>2</dim>
					<dim>1</dim>
					<dim>1</dim>
				</port>
			</output>
		</layer>
		<layer id="96" name="BatchNormalization_33" type="Add" version="opset1">
			<data auto_broadcast="numpy" />
			<input>
				<port id="0" precision="FP32">
					<dim>1</dim>
					<dim>2</dim>
					<dim>129</dim>
					<dim>16</dim>
				</port>
				<port id="1" precision="FP32">
					<dim>1</dim>
					<dim>2</dim>
					<dim>1</dim>
					<dim>1</dim>
				</port>
			</input>
			<output>
				<port id="2" precision="FP32" names="374">
					<dim>1</dim>
					<dim>2</dim>
					<dim>129</dim>
					<dim>16</dim>
				</port>
			</output>
		</layer>
		<layer id="97" name="Constant_646_compressed" type="Const" version="opset1">
			<data element_type="f16" shape="1" offset="132212" size="2" />
			<output>
				<port id="0" precision="FP16">
					<dim>1</dim>
				</port>
			</output>
		</layer>
		<layer id="98" name="Constant_646" type="Convert" version="opset1">
			<data destination_type="f32" />
			<rt_info>
				<attribute name="decompression" version="0" />
			</rt_info>
			<input>
				<port id="0" precision="FP16">
					<dim>1</dim>
				</port>
			</input>
			<output>
				<port id="1" precision="FP32">
					<dim>1</dim>
				</port>
			</output>
		</layer>
		<layer id="99" name="LeakyRelu_34" type="PReLU" version="opset1">
			<input>
				<port id="0" precision="FP32">
					<dim>1</dim>
					<dim>2</dim>
					<dim>129</dim>
					<dim>16</dim>
				</port>
				<port id="1" precision="FP32">
					<dim>1</dim>
				</port>
			</input>
			<output>
				<port id="2" precision="FP32" names="375">
					<dim>1</dim>
					<dim>2</dim>
					<dim>129</dim>
					<dim>16</dim>
				</port>
			</output>
		</layer>
		<layer id="100" name="Concat_35" type="Concat" version="opset1">
			<data axis="3" />
			<input>
				<port id="0" precision="FP32">
					<dim>1</dim>
					<dim>2</dim>
					<dim>129</dim>
					<dim>2</dim>
				</port>
				<port id="1" precision="FP32">
					<dim>1</dim>
					<dim>2</dim>
					<dim>129</dim>
					<dim>16</dim>
				</port>
			</input>
			<output>
				<port id="2" precision="FP32" names="376">
					<dim>1</dim>
					<dim>2</dim>
					<dim>129</dim>
					<dim>18</dim>
				</port>
			</output>
		</layer>
		<layer id="101" name="blocks_down.0.bd.0.conv.weight_compressed" type="Const" version="opset1">
			<data element_type="f16" shape="16, 2, 3, 3" offset="132214" size="576" />
			<output>
				<port id="0" precision="FP16">
					<dim>16</dim>
					<dim>2</dim>
					<dim>3</dim>
					<dim>3</dim>
				</port>
			</output>
		</layer>
		<layer id="102" name="blocks_down.0.bd.0.conv.weight" type="Convert" version="opset1">
			<data destination_type="f32" />
			<rt_info>
				<attribute name="decompression" version="0" />
			</rt_info>
			<input>
				<port id="0" precision="FP16">
					<dim>16</dim>
					<dim>2</dim>
					<dim>3</dim>
					<dim>3</dim>
				</port>
			</input>
			<output>
				<port id="1" precision="FP32" names="blocks_down.0.bd.0.conv.weight">
					<dim>16</dim>
					<dim>2</dim>
					<dim>3</dim>
					<dim>3</dim>
				</port>
			</output>
		</layer>
		<layer id="103" name="Conv_62/WithoutBiases" type="Convolution" version="opset1">
			<data strides="1, 1" dilations="1, 1" pads_begin="1, 0" pads_end="1, 0" auto_pad="explicit" />
			<input>
				<port id="0" precision="FP32">
					<dim>1</dim>
					<dim>2</dim>
					<dim>129</dim>
					<dim>18</dim>
				</port>
				<port id="1" precision="FP32">
					<dim>16</dim>
					<dim>2</dim>
					<dim>3</dim>
					<dim>3</dim>
				</port>
			</input>
			<output>
				<port id="2" precision="FP32">
					<dim>1</dim>
					<dim>16</dim>
					<dim>129</dim>
					<dim>16</dim>
				</port>
			</output>
		</layer>
		<layer id="104" name="Reshape_719_compressed" type="Const" version="opset1">
			<data element_type="f16" shape="1, 16, 1, 1" offset="132790" size="32" />
			<output>
				<port id="0" precision="FP16">
					<dim>1</dim>
					<dim>16</dim>
					<dim>1</dim>
					<dim>1</dim>
				</port>
			</output>
		</layer>
		<layer id="105" name="Reshape_719" type="Convert" version="opset1">
			<data destination_type="f32" />
			<rt_info>
				<attribute name="decompression" version="0" />
			</rt_info>
			<input>
				<port id="0" precision="FP16">
					<dim>1</dim>
					<dim>16</dim>
					<dim>1</dim>
					<dim>1</dim>
				</port>
			</input>
			<output>
				<port id="1" precision="FP32">
					<dim>1</dim>
					<dim>16</dim>
					<dim>1</dim>
					<dim>1</dim>
				</port>
			</output>
		</layer>
		<layer id="106" name="Conv_62" type="Add" version="opset1">
			<data auto_broadcast="numpy" />
			<input>
				<port id="0" precision="FP32">
					<dim>1</dim>
					<dim>16</dim>
					<dim>129</dim>
					<dim>16</dim>
				</port>
				<port id="1" precision="FP32">
					<dim>1</dim>
					<dim>16</dim>
					<dim>1</dim>
					<dim>1</dim>
				</port>
			</input>
			<output>
				<port id="2" precision="FP32" names="414">
					<dim>1</dim>
					<dim>16</dim>
					<dim>129</dim>
					<dim>16</dim>
				</port>
			</output>
		</layer>
		<layer id="107" name="Concat_63" type="Concat" version="opset1">
			<data axis="1" />
			<input>
				<port id="0" precision="FP32">
					<dim>1</dim>
					<dim>2</dim>
					<dim>129</dim>
					<dim>16</dim>
				</port>
				<port id="1" precision="FP32">
					<dim>1</dim>
					<dim>16</dim>
					<dim>129</dim>
					<dim>16</dim>
				</port>
			</input>
			<output>
				<port id="2" precision="FP32" names="415">
					<dim>1</dim>
					<dim>18</dim>
					<dim>129</dim>
					<dim>16</dim>
				</port>
			</output>
		</layer>
		<layer id="108" name="Constant_142922_compressed" type="Const" version="opset1">
			<data element_type="f16" shape="1, 18, 1, 1" offset="132822" size="36" />
			<output>
				<port id="0" precision="FP16">
					<dim>1</dim>
					<dim>18</dim>
					<dim>1</dim>
					<dim>1</dim>
				</port>
			</output>
		</layer>
		<layer id="109" name="Constant_142922" type="Convert" version="opset1">
			<data destination_type="f32" />
			<rt_info>
				<attribute name="decompression" version="0" />
			</rt_info>
			<input>
				<port id="0" precision="FP16">
					<dim>1</dim>
					<dim>18</dim>
					<dim>1</dim>
					<dim>1</dim>
				</port>
			</input>
			<output>
				<port id="1" precision="FP32">
					<dim>1</dim>
					<dim>18</dim>
					<dim>1</dim>
					<dim>1</dim>
				</port>
			</output>
		</layer>
		<layer id="110" name="Multiply_145143" type="Multiply" version="opset1">
			<data auto_broadcast="numpy" />
			<input>
				<port id="0" precision="FP32">
					<dim>1</dim>
					<dim>18</dim>
					<dim>129</dim>
					<dim>16</dim>
				</port>
				<port id="1" precision="FP32">
					<dim>1</dim>
					<dim>18</dim>
					<dim>1</dim>
					<dim>1</dim>
				</port>
			</input>
			<output>
				<port id="2" precision="FP32">
					<dim>1</dim>
					<dim>18</dim>
					<dim>129</dim>
					<dim>16</dim>
				</port>
			</output>
		</layer>
		<layer id="111" name="Constant_145148_compressed" type="Const" version="opset1">
			<data element_type="f16" shape="1, 18, 1, 1" offset="132858" size="36" />
			<output>
				<port id="0" precision="FP16">
					<dim>1</dim>
					<dim>18</dim>
					<dim>1</dim>
					<dim>1</dim>
				</port>
			</output>
		</layer>
		<layer id="112" name="Constant_145148" type="Convert" version="opset1">
			<data destination_type="f32" />
			<rt_info>
				<attribute name="decompression" version="0" />
			</rt_info>
			<input>
				<port id="0" precision="FP16">
					<dim>1</dim>
					<dim>18</dim>
					<dim>1</dim>
					<dim>1</dim>
				</port>
			</input>
			<output>
				<port id="1" precision="FP32">
					<dim>1</dim>
					<dim>18</dim>
					<dim>1</dim>
					<dim>1</dim>
				</port>
			</output>
		</layer>
		<layer id="113" name="BatchNormalization_64" type="Add" version="opset1">
			<data auto_broadcast="numpy" />
			<input>
				<port id="0" precision="FP32">
					<dim>1</dim>
					<dim>18</dim>
					<dim>129</dim>
					<dim>16</dim>
				</port>
				<port id="1" precision="FP32">
					<dim>1</dim>
					<dim>18</dim>
					<dim>1</dim>
					<dim>1</dim>
				</port>
			</input>
			<output>
				<port id="2" precision="FP32" names="416">
					<dim>1</dim>
					<dim>18</dim>
					<dim>129</dim>
					<dim>16</dim>
				</port>
			</output>
		</layer>
		<layer id="114" name="Constant_725_compressed" type="Const" version="opset1">
			<data element_type="f16" shape="1" offset="132212" size="2" />
			<output>
				<port id="0" precision="FP16">
					<dim>1</dim>
				</port>
			</output>
		</layer>
		<layer id="115" name="Constant_725" type="Convert" version="opset1">
			<data destination_type="f32" />
			<rt_info>
				<attribute name="decompression" version="0" />
			</rt_info>
			<input>
				<port id="0" precision="FP16">
					<dim>1</dim>
				</port>
			</input>
			<output>
				<port id="1" precision="FP32">
					<dim>1</dim>
				</port>
			</output>
		</layer>
		<layer id="116" name="LeakyRelu_65" type="PReLU" version="opset1">
			<input>
				<port id="0" precision="FP32">
					<dim>1</dim>
					<dim>18</dim>
					<dim>129</dim>
					<dim>16</dim>
				</port>
				<port id="1" precision="FP32">
					<dim>1</dim>
				</port>
			</input>
			<output>
				<port id="2" precision="FP32" names="417">
					<dim>1</dim>
					<dim>18</dim>
					<dim>129</dim>
					<dim>16</dim>
				</port>
			</output>
		</layer>
		<layer id="117" name="Concat_66" type="Concat" version="opset1">
			<data axis="3" />
			<input>
				<port id="0" precision="FP32">
					<dim>1</dim>
					<dim>18</dim>
					<dim>129</dim>
					<dim>2</dim>
				</port>
				<port id="1" precision="FP32">
					<dim>1</dim>
					<dim>18</dim>
					<dim>129</dim>
					<dim>16</dim>
				</port>
			</input>
			<output>
				<port id="2" precision="FP32" names="418">
					<dim>1</dim>
					<dim>18</dim>
					<dim>129</dim>
					<dim>18</dim>
				</port>
			</output>
		</layer>
		<layer id="118" name="blocks_down.0.bd.1.conv.weight_compressed" type="Const" version="opset1">
			<data element_type="f16" shape="16, 18, 3, 3" offset="132894" size="5184" />
			<output>
				<port id="0" precision="FP16">
					<dim>16</dim>
					<dim>18</dim>
					<dim>3</dim>
					<dim>3</dim>
				</port>
			</output>
		</layer>
		<layer id="119" name="blocks_down.0.bd.1.conv.weight" type="Convert" version="opset1">
			<data destination_type="f32" />
			<rt_info>
				<attribute name="decompression" version="0" />
			</rt_info>
			<input>
				<port id="0" precision="FP16">
					<dim>16</dim>
					<dim>18</dim>
					<dim>3</dim>
					<dim>3</dim>
				</port>
			</input>
			<output>
				<port id="1" precision="FP32" names="blocks_down.0.bd.1.conv.weight">
					<dim>16</dim>
					<dim>18</dim>
					<dim>3</dim>
					<dim>3</dim>
				</port>
			</output>
		</layer>
		<layer id="120" name="Conv_93/WithoutBiases" type="Convolution" version="opset1">
			<data strides="1, 1" dilations="1, 1" pads_begin="1, 0" pads_end="1, 0" auto_pad="explicit" />
			<input>
				<port id="0" precision="FP32">
					<dim>1</dim>
					<dim>18</dim>
					<dim>129</dim>
					<dim>18</dim>
				</port>
				<port id="1" precision="FP32">
					<dim>16</dim>
					<dim>18</dim>
					<dim>3</dim>
					<dim>3</dim>
				</port>
			</input>
			<output>
				<port id="2" precision="FP32">
					<dim>1</dim>
					<dim>16</dim>
					<dim>129</dim>
					<dim>16</dim>
				</port>
			</output>
		</layer>
		<layer id="121" name="Reshape_798_compressed" type="Const" version="opset1">
			<data element_type="f16" shape="1, 16, 1, 1" offset="138078" size="32" />
			<output>
				<port id="0" precision="FP16">
					<dim>1</dim>
					<dim>16</dim>
					<dim>1</dim>
					<dim>1</dim>
				</port>
			</output>
		</layer>
		<layer id="122" name="Reshape_798" type="Convert" version="opset1">
			<data destination_type="f32" />
			<rt_info>
				<attribute name="decompression" version="0" />
			</rt_info>
			<input>
				<port id="0" precision="FP16">
					<dim>1</dim>
					<dim>16</dim>
					<dim>1</dim>
					<dim>1</dim>
				</port>
			</input>
			<output>
				<port id="1" precision="FP32">
					<dim>1</dim>
					<dim>16</dim>
					<dim>1</dim>
					<dim>1</dim>
				</port>
			</output>
		</layer>
		<layer id="123" name="Conv_93" type="Add" version="opset1">
			<data auto_broadcast="numpy" />
			<input>
				<port id="0" precision="FP32">
					<dim>1</dim>
					<dim>16</dim>
					<dim>129</dim>
					<dim>16</dim>
				</port>
				<port id="1" precision="FP32">
					<dim>1</dim>
					<dim>16</dim>
					<dim>1</dim>
					<dim>1</dim>
				</port>
			</input>
			<output>
				<port id="2" precision="FP32" names="456">
					<dim>1</dim>
					<dim>16</dim>
					<dim>129</dim>
					<dim>16</dim>
				</port>
			</output>
		</layer>
		<layer id="124" name="Concat_94" type="Concat" version="opset1">
			<data axis="1" />
			<input>
				<port id="0" precision="FP32">
					<dim>1</dim>
					<dim>18</dim>
					<dim>129</dim>
					<dim>16</dim>
				</port>
				<port id="1" precision="FP32">
					<dim>1</dim>
					<dim>16</dim>
					<dim>129</dim>
					<dim>16</dim>
				</port>
			</input>
			<output>
				<port id="2" precision="FP32" names="457">
					<dim>1</dim>
					<dim>34</dim>
					<dim>129</dim>
					<dim>16</dim>
				</port>
			</output>
		</layer>
		<layer id="125" name="Constant_142988_compressed" type="Const" version="opset1">
			<data element_type="f16" shape="1, 34, 1, 1" offset="138110" size="68" />
			<output>
				<port id="0" precision="FP16">
					<dim>1</dim>
					<dim>34</dim>
					<dim>1</dim>
					<dim>1</dim>
				</port>
			</output>
		</layer>
		<layer id="126" name="Constant_142988" type="Convert" version="opset1">
			<data destination_type="f32" />
			<rt_info>
				<attribute name="decompression" version="0" />
			</rt_info>
			<input>
				<port id="0" precision="FP16">
					<dim>1</dim>
					<dim>34</dim>
					<dim>1</dim>
					<dim>1</dim>
				</port>
			</input>
			<output>
				<port id="1" precision="FP32">
					<dim>1</dim>
					<dim>34</dim>
					<dim>1</dim>
					<dim>1</dim>
				</port>
			</output>
		</layer>
		<layer id="127" name="Multiply_145150" type="Multiply" version="opset1">
			<data auto_broadcast="numpy" />
			<input>
				<port id="0" precision="FP32">
					<dim>1</dim>
					<dim>34</dim>
					<dim>129</dim>
					<dim>16</dim>
				</port>
				<port id="1" precision="FP32">
					<dim>1</dim>
					<dim>34</dim>
					<dim>1</dim>
					<dim>1</dim>
				</port>
			</input>
			<output>
				<port id="2" precision="FP32">
					<dim>1</dim>
					<dim>34</dim>
					<dim>129</dim>
					<dim>16</dim>
				</port>
			</output>
		</layer>
		<layer id="128" name="Constant_145155_compressed" type="Const" version="opset1">
			<data element_type="f16" shape="1, 34, 1, 1" offset="138178" size="68" />
			<output>
				<port id="0" precision="FP16">
					<dim>1</dim>
					<dim>34</dim>
					<dim>1</dim>
					<dim>1</dim>
				</port>
			</output>
		</layer>
		<layer id="129" name="Constant_145155" type="Convert" version="opset1">
			<data destination_type="f32" />
			<rt_info>
				<attribute name="decompression" version="0" />
			</rt_info>
			<input>
				<port id="0" precision="FP16">
					<dim>1</dim>
					<dim>34</dim>
					<dim>1</dim>
					<dim>1</dim>
				</port>
			</input>
			<output>
				<port id="1" precision="FP32">
					<dim>1</dim>
					<dim>34</dim>
					<dim>1</dim>
					<dim>1</dim>
				</port>
			</output>
		</layer>
		<layer id="130" name="BatchNormalization_95" type="Add" version="opset1">
			<data auto_broadcast="numpy" />
			<input>
				<port id="0" precision="FP32">
					<dim>1</dim>
					<dim>34</dim>
					<dim>129</dim>
					<dim>16</dim>
				</port>
				<port id="1" precision="FP32">
					<dim>1</dim>
					<dim>34</dim>
					<dim>1</dim>
					<dim>1</dim>
				</port>
			</input>
			<output>
				<port id="2" precision="FP32" names="458">
					<dim>1</dim>
					<dim>34</dim>
					<dim>129</dim>
					<dim>16</dim>
				</port>
			</output>
		</layer>
		<layer id="131" name="Constant_804_compressed" type="Const" version="opset1">
			<data element_type="f16" shape="1" offset="132212" size="2" />
			<output>
				<port id="0" precision="FP16">
					<dim>1</dim>
				</port>
			</output>
		</layer>
		<layer id="132" name="Constant_804" type="Convert" version="opset1">
			<data destination_type="f32" />
			<rt_info>
				<attribute name="decompression" version="0" />
			</rt_info>
			<input>
				<port id="0" precision="FP16">
					<dim>1</dim>
				</port>
			</input>
			<output>
				<port id="1" precision="FP32">
					<dim>1</dim>
				</port>
			</output>
		</layer>
		<layer id="133" name="LeakyRelu_96" type="PReLU" version="opset1">
			<input>
				<port id="0" precision="FP32">
					<dim>1</dim>
					<dim>34</dim>
					<dim>129</dim>
					<dim>16</dim>
				</port>
				<port id="1" precision="FP32">
					<dim>1</dim>
				</port>
			</input>
			<output>
				<port id="2" precision="FP32" names="459">
					<dim>1</dim>
					<dim>34</dim>
					<dim>129</dim>
					<dim>16</dim>
				</port>
			</output>
		</layer>
		<layer id="134" name="Concat_97" type="Concat" version="opset1">
			<data axis="3" />
			<input>
				<port id="0" precision="FP32">
					<dim>1</dim>
					<dim>34</dim>
					<dim>129</dim>
					<dim>2</dim>
				</port>
				<port id="1" precision="FP32">
					<dim>1</dim>
					<dim>34</dim>
					<dim>129</dim>
					<dim>16</dim>
				</port>
			</input>
			<output>
				<port id="2" precision="FP32" names="460">
					<dim>1</dim>
					<dim>34</dim>
					<dim>129</dim>
					<dim>18</dim>
				</port>
			</output>
		</layer>
		<layer id="135" name="blocks_down.0.bd_out.conv.weight_compressed" type="Const" version="opset1">
			<data element_type="f16" shape="32, 34, 3, 3" offset="138246" size="19584" />
			<output>
				<port id="0" precision="FP16">
					<dim>32</dim>
					<dim>34</dim>
					<dim>3</dim>
					<dim>3</dim>
				</port>
			</output>
		</layer>
		<layer id="136" name="blocks_down.0.bd_out.conv.weight" type="Convert" version="opset1">
			<data destination_type="f32" />
			<rt_info>
				<attribute name="decompression" version="0" />
			</rt_info>
			<input>
				<port id="0" precision="FP16">
					<dim>32</dim>
					<dim>34</dim>
					<dim>3</dim>
					<dim>3</dim>
				</port>
			</input>
			<output>
				<port id="1" precision="FP32" names="blocks_down.0.bd_out.conv.weight">
					<dim>32</dim>
					<dim>34</dim>
					<dim>3</dim>
					<dim>3</dim>
				</port>
			</output>
		</layer>
		<layer id="137" name="Conv_124/WithoutBiases" type="Convolution" version="opset1">
			<data strides="1, 1" dilations="1, 1" pads_begin="1, 0" pads_end="1, 0" auto_pad="explicit" />
			<input>
				<port id="0" precision="FP32">
					<dim>1</dim>
					<dim>34</dim>
					<dim>129</dim>
					<dim>18</dim>
				</port>
				<port id="1" precision="FP32">
					<dim>32</dim>
					<dim>34</dim>
					<dim>3</dim>
					<dim>3</dim>
				</port>
			</input>
			<output>
				<port id="2" precision="FP32">
					<dim>1</dim>
					<dim>32</dim>
					<dim>129</dim>
					<dim>16</dim>
				</port>
			</output>
		</layer>
		<layer id="138" name="Reshape_877_compressed" type="Const" version="opset1">
			<data element_type="f16" shape="1, 32, 1, 1" offset="157830" size="64" />
			<output>
				<port id="0" precision="FP16">
					<dim>1</dim>
					<dim>32</dim>
					<dim>1</dim>
					<dim>1</dim>
				</port>
			</output>
		</layer>
		<layer id="139" name="Reshape_877" type="Convert" version="opset1">
			<data destination_type="f32" />
			<rt_info>
				<attribute name="decompression" version="0" />
			</rt_info>
			<input>
				<port id="0" precision="FP16">
					<dim>1</dim>
					<dim>32</dim>
					<dim>1</dim>
					<dim>1</dim>
				</port>
			</input>
			<output>
				<port id="1" precision="FP32">
					<dim>1</dim>
					<dim>32</dim>
					<dim>1</dim>
					<dim>1</dim>
				</port>
			</output>
		</layer>
		<layer id="140" name="Conv_124" type="Add" version="opset1">
			<data auto_broadcast="numpy" />
			<input>
				<port id="0" precision="FP32">
					<dim>1</dim>
					<dim>32</dim>
					<dim>129</dim>
					<dim>16</dim>
				</port>
				<port id="1" precision="FP32">
					<dim>1</dim>
					<dim>32</dim>
					<dim>1</dim>
					<dim>1</dim>
				</port>
			</input>
			<output>
				<port id="2" precision="FP32" names="498">
					<dim>1</dim>
					<dim>32</dim>
					<dim>129</dim>
					<dim>16</dim>
				</port>
			</output>
		</layer>
		<layer id="141" name="blocks_down.0.sa.linear_qkv.weight_compressed" type="Const" version="opset1">
			<data element_type="f16" shape="96, 32, 1, 1" offset="157894" size="6144" />
			<output>
				<port id="0" precision="FP16">
					<dim>96</dim>
					<dim>32</dim>
					<dim>1</dim>
					<dim>1</dim>
				</port>
			</output>
		</layer>
		<layer id="142" name="blocks_down.0.sa.linear_qkv.weight" type="Convert" version="opset1">
			<data destination_type="f32" />
			<rt_info>
				<attribute name="decompression" version="0" />
			</rt_info>
			<input>
				<port id="0" precision="FP16">
					<dim>96</dim>
					<dim>32</dim>
					<dim>1</dim>
					<dim>1</dim>
				</port>
			</input>
			<output>
				<port id="1" precision="FP32" names="blocks_down.0.sa.linear_qkv.weight">
					<dim>96</dim>
					<dim>32</dim>
					<dim>1</dim>
					<dim>1</dim>
				</port>
			</output>
		</layer>
		<layer id="143" name="Conv_134/WithoutBiases" type="Convolution" version="opset1">
			<data strides="1, 1" dilations="1, 1" pads_begin="0, 0" pads_end="0, 0" auto_pad="explicit" />
			<input>
				<port id="0" precision="FP32">
					<dim>1</dim>
					<dim>32</dim>
					<dim>129</dim>
					<dim>16</dim>
				</port>
				<port id="1" precision="FP32">
					<dim>96</dim>
					<dim>32</dim>
					<dim>1</dim>
					<dim>1</dim>
				</port>
			</input>
			<output>
				<port id="2" precision="FP32">
					<dim>1</dim>
					<dim>96</dim>
					<dim>129</dim>
					<dim>16</dim>
				</port>
			</output>
		</layer>
		<layer id="144" name="Reshape_904_compressed" type="Const" version="opset1">
			<data element_type="f16" shape="1, 96, 1, 1" offset="164038" size="192" />
			<output>
				<port id="0" precision="FP16">
					<dim>1</dim>
					<dim>96</dim>
					<dim>1</dim>
					<dim>1</dim>
				</port>
			</output>
		</layer>
		<layer id="145" name="Reshape_904" type="Convert" version="opset1">
			<data destination_type="f32" />
			<rt_info>
				<attribute name="decompression" version="0" />
			</rt_info>
			<input>
				<port id="0" precision="FP16">
					<dim>1</dim>
					<dim>96</dim>
					<dim>1</dim>
					<dim>1</dim>
				</port>
			</input>
			<output>
				<port id="1" precision="FP32">
					<dim>1</dim>
					<dim>96</dim>
					<dim>1</dim>
					<dim>1</dim>
				</port>
			</output>
		</layer>
		<layer id="146" name="Conv_134" type="Add" version="opset1">
			<data auto_broadcast="numpy" />
			<input>
				<port id="0" precision="FP32">
					<dim>1</dim>
					<dim>96</dim>
					<dim>129</dim>
					<dim>16</dim>
				</port>
				<port id="1" precision="FP32">
					<dim>1</dim>
					<dim>96</dim>
					<dim>1</dim>
					<dim>1</dim>
				</port>
			</input>
			<output>
				<port id="2" precision="FP32" names="508">
					<dim>1</dim>
					<dim>96</dim>
					<dim>129</dim>
					<dim>16</dim>
				</port>
			</output>
		</layer>
		<layer id="147" name="Constant_908" type="Const" version="opset1">
			<data element_type="i64" shape="4" offset="164230" size="32" />
			<output>
				<port id="0" precision="I64">
					<dim>4</dim>
				</port>
			</output>
		</layer>
		<layer id="148" name="Transpose_135" type="Transpose" version="opset1">
			<input>
				<port id="0" precision="FP32">
					<dim>1</dim>
					<dim>96</dim>
					<dim>129</dim>
					<dim>16</dim>
				</port>
				<port id="1" precision="I64">
					<dim>4</dim>
				</port>
			</input>
			<output>
				<port id="2" precision="FP32" names="509">
					<dim>1</dim>
					<dim>129</dim>
					<dim>96</dim>
					<dim>16</dim>
				</port>
			</output>
		</layer>
		<layer id="149" name="Constant_910" type="Const" version="opset1">
			<data element_type="i64" shape="" offset="8" size="8" />
			<output>
				<port id="0" precision="I64" />
			</output>
		</layer>
		<layer id="150" name="Constant_911" type="Const" version="opset1">
			<data element_type="i64" shape="3" offset="164262" size="24" />
			<output>
				<port id="0" precision="I64">
					<dim>3</dim>
				</port>
			</output>
		</layer>
		<layer id="151" name="Split_136" type="VariadicSplit" version="opset1">
			<input>
				<port id="0" precision="FP32">
					<dim>1</dim>
					<dim>129</dim>
					<dim>96</dim>
					<dim>16</dim>
				</port>
				<port id="1" precision="I64" />
				<port id="2" precision="I64">
					<dim>3</dim>
				</port>
			</input>
			<output>
				<port id="3" precision="FP32" names="510">
					<dim>1</dim>
					<dim>129</dim>
					<dim>32</dim>
					<dim>16</dim>
				</port>
				<port id="4" precision="FP32" names="511">
					<dim>1</dim>
					<dim>129</dim>
					<dim>32</dim>
					<dim>16</dim>
				</port>
				<port id="5" precision="FP32" names="512">
					<dim>1</dim>
					<dim>129</dim>
					<dim>32</dim>
					<dim>16</dim>
				</port>
			</output>
		</layer>
		<layer id="152" name="Shape_125" type="ShapeOf" version="opset3">
			<data output_type="i64" />
			<input>
				<port id="0" precision="FP32">
					<dim>1</dim>
					<dim>32</dim>
					<dim>129</dim>
					<dim>16</dim>
				</port>
			</input>
			<output>
				<port id="1" precision="I64" names="499,502,505">
					<dim>4</dim>
				</port>
			</output>
		</layer>
		<layer id="153" name="Constant_126" type="Const" version="opset1">
			<data element_type="i64" shape="" offset="132112" size="8" />
			<output>
				<port id="0" precision="I64" names="500" />
			</output>
		</layer>
		<layer id="154" name="Constant_883" type="Const" version="opset1">
			<data element_type="i64" shape="" offset="132112" size="8" />
			<output>
				<port id="0" precision="I64" />
			</output>
		</layer>
		<layer id="155" name="Gather_127" type="Gather" version="opset8">
			<data batch_dims="0" />
			<input>
				<port id="0" precision="I64">
					<dim>4</dim>
				</port>
				<port id="1" precision="I64" />
				<port id="2" precision="I64" />
			</input>
			<output>
				<port id="3" precision="I64" names="501" />
			</output>
		</layer>
		<layer id="156" name="Constant_132" type="Const" version="opset1">
			<data element_type="i64" shape="" offset="8" size="8" />
			<output>
				<port id="0" precision="I64" names="506" />
			</output>
		</layer>
		<layer id="157" name="Constant_891" type="Const" version="opset1">
			<data element_type="i64" shape="" offset="132112" size="8" />
			<output>
				<port id="0" precision="I64" />
			</output>
		</layer>
		<layer id="158" name="Gather_133" type="Gather" version="opset8">
			<data batch_dims="0" />
			<input>
				<port id="0" precision="I64">
					<dim>4</dim>
				</port>
				<port id="1" precision="I64" />
				<port id="2" precision="I64" />
			</input>
			<output>
				<port id="3" precision="I64" names="507" />
			</output>
		</layer>
		<layer id="159" name="Mul_167" type="Multiply" version="opset1">
			<data auto_broadcast="numpy" />
			<input>
				<port id="0" precision="I64" />
				<port id="1" precision="I64" />
			</input>
			<output>
				<port id="2" precision="I64" names="547" />
			</output>
		</layer>
		<layer id="160" name="Constant_970" type="Const" version="opset1">
			<data element_type="i64" shape="1" offset="132112" size="8" />
			<output>
				<port id="0" precision="I64">
					<dim>1</dim>
				</port>
			</output>
		</layer>
		<layer id="161" name="Unsqueeze_168" type="Unsqueeze" version="opset1">
			<input>
				<port id="0" precision="I64" />
				<port id="1" precision="I64">
					<dim>1</dim>
				</port>
			</input>
			<output>
				<port id="2" precision="I64" names="550">
					<dim>1</dim>
				</port>
			</output>
		</layer>
		<layer id="162" name="3195" type="Const" version="opset1">
			<data element_type="i64" shape="1" offset="0" size="8" />
			<output>
				<port id="0" precision="I64" names="3195">
					<dim>1</dim>
				</port>
			</output>
		</layer>
		<layer id="163" name="3196" type="Const" version="opset1">
			<data element_type="i64" shape="1" offset="164286" size="8" />
			<output>
				<port id="0" precision="I64" names="3196">
					<dim>1</dim>
				</port>
			</output>
		</layer>
		<layer id="164" name="Constant_81060" type="Const" version="opset1">
			<data element_type="i64" shape="1" offset="132112" size="8" />
			<output>
				<port id="0" precision="I64">
					<dim>1</dim>
				</port>
			</output>
		</layer>
		<layer id="165" name="Concat_170" type="Concat" version="opset1">
			<data axis="0" />
			<input>
				<port id="0" precision="I64">
					<dim>1</dim>
				</port>
				<port id="1" precision="I64">
					<dim>1</dim>
				</port>
				<port id="2" precision="I64">
					<dim>1</dim>
				</port>
				<port id="3" precision="I64">
					<dim>1</dim>
				</port>
			</input>
			<output>
				<port id="4" precision="I64">
					<dim>4</dim>
				</port>
			</output>
		</layer>
		<layer id="166" name="Reshape_171" type="Reshape" version="opset1">
			<data special_zero="true" />
			<input>
				<port id="0" precision="FP32">
					<dim>1</dim>
					<dim>129</dim>
					<dim>32</dim>
					<dim>16</dim>
				</port>
				<port id="1" precision="I64">
					<dim>4</dim>
				</port>
			</input>
			<output>
				<port id="2" precision="FP32" names="555">
					<dim>129</dim>
					<dim>1</dim>
					<dim>32</dim>
					<dim>16</dim>
				</port>
			</output>
		</layer>
		<layer id="167" name="Concat_137" type="Concat" version="opset1">
			<data axis="3" />
			<input>
				<port id="0" precision="FP32">
					<dim>1</dim>
					<dim>129</dim>
					<dim>32</dim>
					<dim>32</dim>
				</port>
				<port id="1" precision="FP32">
					<dim>1</dim>
					<dim>129</dim>
					<dim>32</dim>
					<dim>16</dim>
				</port>
			</input>
			<output>
				<port id="2" precision="FP32" names="513">
					<dim>1</dim>
					<dim>129</dim>
					<dim>32</dim>
					<dim>48</dim>
				</port>
			</output>
		</layer>
		<layer id="168" name="Mul_172" type="Multiply" version="opset1">
			<data auto_broadcast="numpy" />
			<input>
				<port id="0" precision="I64" />
				<port id="1" precision="I64" />
			</input>
			<output>
				<port id="2" precision="I64" names="556" />
			</output>
		</layer>
		<layer id="169" name="Constant_979" type="Const" version="opset1">
			<data element_type="i64" shape="1" offset="132112" size="8" />
			<output>
				<port id="0" precision="I64">
					<dim>1</dim>
				</port>
			</output>
		</layer>
		<layer id="170" name="Unsqueeze_173" type="Unsqueeze" version="opset1">
			<input>
				<port id="0" precision="I64" />
				<port id="1" precision="I64">
					<dim>1</dim>
				</port>
			</input>
			<output>
				<port id="2" precision="I64" names="559">
					<dim>1</dim>
				</port>
			</output>
		</layer>
		<layer id="171" name="3197" type="Const" version="opset1">
			<data element_type="i64" shape="1" offset="0" size="8" />
			<output>
				<port id="0" precision="I64" names="3197">
					<dim>1</dim>
				</port>
			</output>
		</layer>
		<layer id="172" name="3198" type="Const" version="opset1">
			<data element_type="i64" shape="1" offset="164286" size="8" />
			<output>
				<port id="0" precision="I64" names="3198">
					<dim>1</dim>
				</port>
			</output>
		</layer>
		<layer id="173" name="Constant_81125" type="Const" version="opset1">
			<data element_type="i64" shape="1" offset="132112" size="8" />
			<output>
				<port id="0" precision="I64">
					<dim>1</dim>
				</port>
			</output>
		</layer>
		<layer id="174" name="Concat_175" type="Concat" version="opset1">
			<data axis="0" />
			<input>
				<port id="0" precision="I64">
					<dim>1</dim>
				</port>
				<port id="1" precision="I64">
					<dim>1</dim>
				</port>
				<port id="2" precision="I64">
					<dim>1</dim>
				</port>
				<port id="3" precision="I64">
					<dim>1</dim>
				</port>
			</input>
			<output>
				<port id="4" precision="I64">
					<dim>4</dim>
				</port>
			</output>
		</layer>
		<layer id="175" name="Reshape_176" type="Reshape" version="opset1">
			<data special_zero="true" />
			<input>
				<port id="0" precision="FP32">
					<dim>1</dim>
					<dim>129</dim>
					<dim>32</dim>
					<dim>48</dim>
				</port>
				<port id="1" precision="I64">
					<dim>4</dim>
				</port>
			</input>
			<output>
				<port id="2" precision="FP32" names="564">
					<dim>129</dim>
					<dim>1</dim>
					<dim>32</dim>
					<dim>48</dim>
				</port>
			</output>
		</layer>
		<layer id="176" name="Constant_146356_compressed" type="Const" version="opset1">
			<data element_type="f16" shape="1, 1, 1, 1" offset="164294" size="2" />
			<output>
				<port id="0" precision="FP16">
					<dim>1</dim>
					<dim>1</dim>
					<dim>1</dim>
					<dim>1</dim>
				</port>
			</output>
		</layer>
		<layer id="177" name="Constant_146356" type="Convert" version="opset1">
			<data destination_type="f32" />
			<rt_info>
				<attribute name="decompression" version="0" />
			</rt_info>
			<input>
				<port id="0" precision="FP16">
					<dim>1</dim>
					<dim>1</dim>
					<dim>1</dim>
					<dim>1</dim>
				</port>
			</input>
			<output>
				<port id="1" precision="FP32">
					<dim>1</dim>
					<dim>1</dim>
					<dim>1</dim>
					<dim>1</dim>
				</port>
			</output>
		</layer>
		<layer id="178" name="Multiply_145381" type="Multiply" version="opset1">
			<data auto_broadcast="numpy" />
			<input>
				<port id="0" precision="FP32">
					<dim>129</dim>
					<dim>1</dim>
					<dim>32</dim>
					<dim>48</dim>
				</port>
				<port id="1" precision="FP32">
					<dim>1</dim>
					<dim>1</dim>
					<dim>1</dim>
					<dim>1</dim>
				</port>
			</input>
			<output>
				<port id="2" precision="FP32">
					<dim>129</dim>
					<dim>1</dim>
					<dim>32</dim>
					<dim>48</dim>
				</port>
			</output>
		</layer>
		<layer id="179" name="Div_188" type="MatMul" version="opset1">
			<data transpose_a="true" transpose_b="false" />
			<input>
				<port id="0" precision="FP32">
					<dim>129</dim>
					<dim>1</dim>
					<dim>32</dim>
					<dim>16</dim>
				</port>
				<port id="1" precision="FP32">
					<dim>129</dim>
					<dim>1</dim>
					<dim>32</dim>
					<dim>48</dim>
				</port>
			</input>
			<output>
				<port id="2" precision="FP32" names="580">
					<dim>129</dim>
					<dim>1</dim>
					<dim>16</dim>
					<dim>48</dim>
				</port>
			</output>
		</layer>
		<layer id="180" name="Constant_1011_compressed" type="Const" version="opset1">
			<data element_type="f16" shape="" offset="164296" size="2" />
			<output>
				<port id="0" precision="FP16" />
			</output>
		</layer>
		<layer id="181" name="Constant_1011" type="Convert" version="opset1">
			<data destination_type="f32" />
			<rt_info>
				<attribute name="decompression" version="0" />
			</rt_info>
			<input>
				<port id="0" precision="FP16" />
			</input>
			<output>
				<port id="1" precision="FP32" />
			</output>
		</layer>
		<layer id="182" name="Shape_161" type="ShapeOf" version="opset3">
			<data output_type="i64" />
			<input>
				<port id="0" precision="FP32">
					<dim>1</dim>
					<dim>129</dim>
					<dim>32</dim>
					<dim>16</dim>
				</port>
			</input>
			<output>
				<port id="1" precision="I64" names="541">
					<dim>4</dim>
				</port>
			</output>
		</layer>
		<layer id="183" name="Constant_162" type="Const" version="opset1">
			<data element_type="i64" shape="" offset="132152" size="8" />
			<output>
				<port id="0" precision="I64" names="542" />
			</output>
		</layer>
		<layer id="184" name="Constant_963" type="Const" version="opset1">
			<data element_type="i64" shape="" offset="132112" size="8" />
			<output>
				<port id="0" precision="I64" />
			</output>
		</layer>
		<layer id="185" name="Gather_163" type="Gather" version="opset8">
			<data batch_dims="0" />
			<input>
				<port id="0" precision="I64">
					<dim>4</dim>
				</port>
				<port id="1" precision="I64" />
				<port id="2" precision="I64" />
			</input>
			<output>
				<port id="3" precision="I64" names="543,582" />
			</output>
		</layer>
		<layer id="186" name="Constant_1007" type="Const" version="opset1">
			<data element_type="i64" shape="1" offset="132112" size="8" />
			<output>
				<port id="0" precision="I64">
					<dim>1</dim>
				</port>
			</output>
		</layer>
		<layer id="187" name="Unsqueeze_191" type="Unsqueeze" version="opset1">
			<input>
				<port id="0" precision="I64" />
				<port id="1" precision="I64">
					<dim>1</dim>
				</port>
			</input>
			<output>
				<port id="2" precision="I64" names="584">
					<dim>1</dim>
				</port>
			</output>
		</layer>
		<layer id="188" name="3201" type="Const" version="opset1">
			<data element_type="i64" shape="1" offset="164298" size="8" />
			<output>
				<port id="0" precision="I64" names="3201">
					<dim>1</dim>
				</port>
			</output>
		</layer>
		<layer id="189" name="Concat_192" type="Concat" version="opset1">
			<data axis="0" />
			<input>
				<port id="0" precision="I64">
					<dim>1</dim>
				</port>
				<port id="1" precision="I64">
					<dim>1</dim>
				</port>
			</input>
			<output>
				<port id="2" precision="I64" names="586">
					<dim>2</dim>
				</port>
			</output>
		</layer>
		<layer id="190" name="ConstantOfShape_193" type="Broadcast" version="opset3">
			<data mode="numpy" />
			<input>
				<port id="0" precision="FP32" />
				<port id="1" precision="I64">
					<dim>2</dim>
				</port>
			</input>
			<output>
				<port id="2" precision="FP32" names="587">
					<dim>16</dim>
					<dim>33</dim>
				</port>
			</output>
		</layer>
		<layer id="191" name="3203" type="Const" version="opset1">
			<data element_type="i64" shape="1" offset="132112" size="8" />
			<output>
				<port id="0" precision="I64" names="3203">
					<dim>1</dim>
				</port>
			</output>
		</layer>
		<layer id="192" name="Constant_1018" type="Const" version="opset1">
			<data element_type="i64" shape="1" offset="132112" size="8" />
			<output>
				<port id="0" precision="I64">
					<dim>1</dim>
				</port>
			</output>
		</layer>
		<layer id="193" name="Unsqueeze_196" type="Unsqueeze" version="opset1">
			<input>
				<port id="0" precision="I64" />
				<port id="1" precision="I64">
					<dim>1</dim>
				</port>
			</input>
			<output>
				<port id="2" precision="I64" names="593">
					<dim>1</dim>
				</port>
			</output>
		</layer>
		<layer id="194" name="Concat_197" type="Concat" version="opset1">
			<data axis="0" />
			<input>
				<port id="0" precision="I64">
					<dim>1</dim>
				</port>
				<port id="1" precision="I64">
					<dim>1</dim>
				</port>
			</input>
			<output>
				<port id="2" precision="I64" names="594,602">
					<dim>2</dim>
				</port>
			</output>
		</layer>
		<layer id="195" name="ConstantOfShape_203" type="Const" version="opset1">
			<data element_type="i64" shape="2" offset="164306" size="16" />
			<output>
				<port id="0" precision="I64" names="603">
					<dim>2</dim>
				</port>
			</output>
		</layer>
		<layer id="196" name="Concat_204" type="Concat" version="opset1">
			<data axis="0" />
			<input>
				<port id="0" precision="I64">
					<dim>2</dim>
				</port>
				<port id="1" precision="I64">
					<dim>2</dim>
				</port>
			</input>
			<output>
				<port id="2" precision="I64" names="604">
					<dim>4</dim>
				</port>
			</output>
		</layer>
		<layer id="197" name="Constant_205" type="Const" version="opset1">
			<data element_type="i64" shape="2" offset="164322" size="16" />
			<output>
				<port id="0" precision="I64" names="605">
					<dim>2</dim>
				</port>
			</output>
		</layer>
		<layer id="198" name="Reshape_206" type="Reshape" version="opset1">
			<data special_zero="true" />
			<input>
				<port id="0" precision="I64">
					<dim>4</dim>
				</port>
				<port id="1" precision="I64">
					<dim>2</dim>
				</port>
			</input>
			<output>
				<port id="2" precision="I64" names="606">
					<dim>2</dim>
					<dim>2</dim>
				</port>
			</output>
		</layer>
		<layer id="199" name="Constant_208" type="Const" version="opset1">
			<data element_type="i64" shape="1" offset="164338" size="8" />
			<output>
				<port id="0" precision="I64" names="608">
					<dim>1</dim>
				</port>
			</output>
		</layer>
		<layer id="200" name="Constant_209" type="Const" version="opset1">
			<data element_type="i64" shape="1" offset="164346" size="8" />
			<output>
				<port id="0" precision="I64" names="609">
					<dim>1</dim>
				</port>
			</output>
		</layer>
		<layer id="201" name="Constant_210" type="Const" version="opset1">
			<data element_type="i64" shape="1" offset="164338" size="8" />
			<output>
				<port id="0" precision="I64" names="610">
					<dim>1</dim>
				</port>
			</output>
		</layer>
		<layer id="202" name="Slice_211" type="StridedSlice" version="opset1">
			<data begin_mask="0" end_mask="0" new_axis_mask="" shrink_axis_mask="" ellipsis_mask="" />
			<input>
				<port id="0" precision="I64">
					<dim>2</dim>
					<dim>2</dim>
				</port>
				<port id="1" precision="I64">
					<dim>1</dim>
				</port>
				<port id="2" precision="I64">
					<dim>1</dim>
				</port>
				<port id="3" precision="I64">
					<dim>1</dim>
				</port>
			</input>
			<output>
				<port id="4" precision="I64" names="611">
					<dim>2</dim>
					<dim>2</dim>
				</port>
			</output>
		</layer>
		<layer id="203" name="Constant_1042" type="Const" version="opset1">
			<data element_type="i64" shape="2" offset="164354" size="16" />
			<output>
				<port id="0" precision="I64">
					<dim>2</dim>
				</port>
			</output>
		</layer>
		<layer id="204" name="Transpose_212" type="Transpose" version="opset1">
			<input>
				<port id="0" precision="I64">
					<dim>2</dim>
					<dim>2</dim>
				</port>
				<port id="1" precision="I64">
					<dim>2</dim>
				</port>
			</input>
			<output>
				<port id="2" precision="I64" names="612">
					<dim>2</dim>
					<dim>2</dim>
				</port>
			</output>
		</layer>
		<layer id="205" name="Constant_7249" type="Const" version="opset1">
			<data element_type="i64" shape="1" offset="164338" size="8" />
			<output>
				<port id="0" precision="I64">
					<dim>1</dim>
				</port>
			</output>
		</layer>
		<layer id="206" name="Reshape_214" type="Reshape" version="opset1">
			<data special_zero="true" />
			<input>
				<port id="0" precision="I64">
					<dim>2</dim>
					<dim>2</dim>
				</port>
				<port id="1" precision="I64">
					<dim>1</dim>
				</port>
			</input>
			<output>
				<port id="2" precision="I64" names="614,615">
					<dim>4</dim>
				</port>
			</output>
		</layer>
		<layer id="207" name="Constant_1050" type="Const" version="opset1">
			<data element_type="i64" shape="" offset="132112" size="8" />
			<output>
				<port id="0" precision="I64" />
			</output>
		</layer>
		<layer id="208" name="Split_1051" type="Split" version="opset1">
			<data num_splits="2" />
			<input>
				<port id="0" precision="I64">
					<dim>4</dim>
				</port>
				<port id="1" precision="I64" />
			</input>
			<output>
				<port id="2" precision="I64">
					<dim>2</dim>
				</port>
				<port id="3" precision="I64">
					<dim>2</dim>
				</port>
			</output>
		</layer>
		<layer id="209" name="Constant_216_compressed" type="Const" version="opset1">
			<data element_type="f16" shape="" offset="164370" size="2" />
			<output>
				<port id="0" precision="FP16" />
			</output>
		</layer>
		<layer id="210" name="Constant_216" type="Convert" version="opset1">
			<data destination_type="f32" />
			<rt_info>
				<attribute name="decompression" version="0" />
			</rt_info>
			<input>
				<port id="0" precision="FP16" />
			</input>
			<output>
				<port id="1" precision="FP32" names="616" />
			</output>
		</layer>
		<layer id="211" name="Pad_217" type="Pad" version="opset1">
			<data pad_mode="constant" />
			<input>
				<port id="0" precision="FP32">
					<dim>16</dim>
					<dim>33</dim>
				</port>
				<port id="1" precision="I64">
					<dim>2</dim>
				</port>
				<port id="2" precision="I64">
					<dim>2</dim>
				</port>
				<port id="3" precision="FP32" />
			</input>
			<output>
				<port id="4" precision="FP32" names="617">
					<dim>16</dim>
					<dim>49</dim>
				</port>
			</output>
		</layer>
		<layer id="212" name="Constant_7250" type="Const" version="opset1">
			<data element_type="i64" shape="1" offset="164338" size="8" />
			<output>
				<port id="0" precision="I64">
					<dim>1</dim>
				</port>
			</output>
		</layer>
		<layer id="213" name="Reshape_219" type="Reshape" version="opset1">
			<data special_zero="true" />
			<input>
				<port id="0" precision="FP32">
					<dim>16</dim>
					<dim>49</dim>
				</port>
				<port id="1" precision="I64">
					<dim>1</dim>
				</port>
			</input>
			<output>
				<port id="2" precision="FP32" names="619">
					<dim>784</dim>
				</port>
			</output>
		</layer>
		<layer id="214" name="3205" type="Const" version="opset1">
			<data element_type="i64" shape="1" offset="132112" size="8" />
			<output>
				<port id="0" precision="I64" names="3205">
					<dim>1</dim>
				</port>
			</output>
		</layer>
		<layer id="215" name="Constant_220" type="Const" version="opset1">
			<data element_type="i64" shape="" offset="164298" size="8" />
			<output>
				<port id="0" precision="I64" names="620" />
			</output>
		</layer>
		<layer id="216" name="Add_221" type="Add" version="opset1">
			<data auto_broadcast="numpy" />
			<input>
				<port id="0" precision="I64" />
				<port id="1" precision="I64" />
			</input>
			<output>
				<port id="2" precision="I64" names="621" />
			</output>
		</layer>
		<layer id="217" name="Constant_222" type="Const" version="opset1">
			<data element_type="i64" shape="" offset="0" size="8" />
			<output>
				<port id="0" precision="I64" names="622" />
			</output>
		</layer>
		<layer id="218" name="Sub_223" type="Subtract" version="opset1">
			<data auto_broadcast="numpy" />
			<input>
				<port id="0" precision="I64" />
				<port id="1" precision="I64" />
			</input>
			<output>
				<port id="2" precision="I64" names="623" />
			</output>
		</layer>
		<layer id="219" name="Mul_224" type="Multiply" version="opset1">
			<data auto_broadcast="numpy" />
			<input>
				<port id="0" precision="I64" />
				<port id="1" precision="I64" />
			</input>
			<output>
				<port id="2" precision="I64" names="624" />
			</output>
		</layer>
		<layer id="220" name="Constant_1080" type="Const" version="opset1">
			<data element_type="i64" shape="1" offset="132112" size="8" />
			<output>
				<port id="0" precision="I64">
					<dim>1</dim>
				</port>
			</output>
		</layer>
		<layer id="221" name="Unsqueeze_225" type="Unsqueeze" version="opset1">
			<input>
				<port id="0" precision="I64" />
				<port id="1" precision="I64">
					<dim>1</dim>
				</port>
			</input>
			<output>
				<port id="2" precision="I64" names="628">
					<dim>1</dim>
				</port>
			</output>
		</layer>
		<layer id="222" name="Constant_226" type="Const" version="opset1">
			<data element_type="i64" shape="1" offset="0" size="8" />
			<output>
				<port id="0" precision="I64" names="630">
					<dim>1</dim>
				</port>
			</output>
		</layer>
		<layer id="223" name="Slice_227" type="StridedSlice" version="opset1">
			<data begin_mask="0" end_mask="0" new_axis_mask="" shrink_axis_mask="" ellipsis_mask="" />
			<input>
				<port id="0" precision="FP32">
					<dim>784</dim>
				</port>
				<port id="1" precision="I64">
					<dim>1</dim>
				</port>
				<port id="2" precision="I64">
					<dim>1</dim>
				</port>
				<port id="3" precision="I64">
					<dim>1</dim>
				</port>
			</input>
			<output>
				<port id="4" precision="FP32" names="631">
					<dim>768</dim>
				</port>
			</output>
		</layer>
		<layer id="224" name="Constant_1090" type="Const" version="opset1">
			<data element_type="i64" shape="1" offset="132112" size="8" />
			<output>
				<port id="0" precision="I64">
					<dim>1</dim>
				</port>
			</output>
		</layer>
		<layer id="225" name="Unsqueeze_232" type="Unsqueeze" version="opset1">
			<input>
				<port id="0" precision="I64" />
				<port id="1" precision="I64">
					<dim>1</dim>
				</port>
			</input>
			<output>
				<port id="2" precision="I64" names="636">
					<dim>1</dim>
				</port>
			</output>
		</layer>
		<layer id="226" name="Constant_228" type="Const" version="opset1">
			<data element_type="i64" shape="" offset="164298" size="8" />
			<output>
				<port id="0" precision="I64" names="632" />
			</output>
		</layer>
		<layer id="227" name="Add_229" type="Add" version="opset1">
			<data auto_broadcast="numpy" />
			<input>
				<port id="0" precision="I64" />
				<port id="1" precision="I64" />
			</input>
			<output>
				<port id="2" precision="I64" names="633" />
			</output>
		</layer>
		<layer id="228" name="Constant_230" type="Const" version="opset1">
			<data element_type="i64" shape="" offset="0" size="8" />
			<output>
				<port id="0" precision="I64" names="634" />
			</output>
		</layer>
		<layer id="229" name="Sub_231" type="Subtract" version="opset1">
			<data auto_broadcast="numpy" />
			<input>
				<port id="0" precision="I64" />
				<port id="1" precision="I64" />
			</input>
			<output>
				<port id="2" precision="I64" names="635" />
			</output>
		</layer>
		<layer id="230" name="Constant_1092" type="Const" version="opset1">
			<data element_type="i64" shape="1" offset="132112" size="8" />
			<output>
				<port id="0" precision="I64">
					<dim>1</dim>
				</port>
			</output>
		</layer>
		<layer id="231" name="Unsqueeze_233" type="Unsqueeze" version="opset1">
			<input>
				<port id="0" precision="I64" />
				<port id="1" precision="I64">
					<dim>1</dim>
				</port>
			</input>
			<output>
				<port id="2" precision="I64" names="637">
					<dim>1</dim>
				</port>
			</output>
		</layer>
		<layer id="232" name="Concat_234" type="Concat" version="opset1">
			<data axis="0" />
			<input>
				<port id="0" precision="I64">
					<dim>1</dim>
				</port>
				<port id="1" precision="I64">
					<dim>1</dim>
				</port>
			</input>
			<output>
				<port id="2" precision="I64" names="638">
					<dim>2</dim>
				</port>
			</output>
		</layer>
		<layer id="233" name="Reshape_235" type="Reshape" version="opset1">
			<data special_zero="true" />
			<input>
				<port id="0" precision="FP32">
					<dim>768</dim>
				</port>
				<port id="1" precision="I64">
					<dim>2</dim>
				</port>
			</input>
			<output>
				<port id="2" precision="FP32" names="639">
					<dim>16</dim>
					<dim>48</dim>
				</port>
			</output>
		</layer>
		<layer id="234" name="Constant_103884" type="Const" version="opset1">
			<data element_type="i64" shape="2" offset="164306" size="16" />
			<output>
				<port id="0" precision="I64">
					<dim>2</dim>
				</port>
			</output>
		</layer>
		<layer id="235" name="Constant_103885" type="Const" version="opset1">
			<data element_type="i64" shape="2" offset="164306" size="16" />
			<output>
				<port id="0" precision="I64">
					<dim>2</dim>
				</port>
			</output>
		</layer>
		<layer id="236" name="Constant_103881" type="Const" version="opset1">
			<data element_type="i64" shape="1" offset="0" size="8" />
			<output>
				<port id="0" precision="I64">
					<dim>1</dim>
				</port>
			</output>
		</layer>
		<layer id="237" name="Constant_184" type="Const" version="opset1">
			<data element_type="i64" shape="" offset="164286" size="8" />
			<output>
				<port id="0" precision="I64" names="576" />
			</output>
		</layer>
		<layer id="238" name="Add_185" type="Add" version="opset1">
			<data auto_broadcast="numpy" />
			<input>
				<port id="0" precision="I64" />
				<port id="1" precision="I64" />
			</input>
			<output>
				<port id="2" precision="I64" names="577,641" />
			</output>
		</layer>
		<layer id="239" name="Constant_1100" type="Const" version="opset1">
			<data element_type="i64" shape="1" offset="132112" size="8" />
			<output>
				<port id="0" precision="I64">
					<dim>1</dim>
				</port>
			</output>
		</layer>
		<layer id="240" name="Unsqueeze_238" type="Unsqueeze" version="opset1">
			<input>
				<port id="0" precision="I64" />
				<port id="1" precision="I64">
					<dim>1</dim>
				</port>
			</input>
			<output>
				<port id="2" precision="I64" names="645">
					<dim>1</dim>
				</port>
			</output>
		</layer>
		<layer id="241" name="Constant_103880" type="Const" version="opset1">
			<data element_type="i32" shape="1" offset="132168" size="4" />
			<output>
				<port id="0" precision="I32">
					<dim>1</dim>
				</port>
			</output>
		</layer>
		<layer id="242" name="ScatterUpdate_103886" type="ScatterUpdate" version="opset3">
			<input>
				<port id="0" precision="I64">
					<dim>2</dim>
				</port>
				<port id="1" precision="I64">
					<dim>1</dim>
				</port>
				<port id="2" precision="I64">
					<dim>1</dim>
				</port>
				<port id="3" precision="I32">
					<dim>1</dim>
				</port>
			</input>
			<output>
				<port id="4" precision="I64">
					<dim>2</dim>
				</port>
			</output>
		</layer>
		<layer id="243" name="Constant_103889" type="Const" version="opset1">
			<data element_type="i64" shape="2" offset="164372" size="16" />
			<output>
				<port id="0" precision="I64">
					<dim>2</dim>
				</port>
			</output>
		</layer>
		<layer id="244" name="Slice_240" type="StridedSlice" version="opset1">
			<data begin_mask="1, 0" end_mask="1, 0" new_axis_mask="" shrink_axis_mask="" ellipsis_mask="" />
			<input>
				<port id="0" precision="FP32">
					<dim>16</dim>
					<dim>48</dim>
				</port>
				<port id="1" precision="I64">
					<dim>2</dim>
				</port>
				<port id="2" precision="I64">
					<dim>2</dim>
				</port>
				<port id="3" precision="I64">
					<dim>2</dim>
				</port>
			</input>
			<output>
				<port id="4" precision="FP32" names="648">
					<dim>16</dim>
					<dim>48</dim>
				</port>
			</output>
		</layer>
		<layer id="245" name="Constant_1106" type="Const" version="opset1">
			<data element_type="i64" shape="1" offset="132112" size="8" />
			<output>
				<port id="0" precision="I64">
					<dim>1</dim>
				</port>
			</output>
		</layer>
		<layer id="246" name="Unsqueeze_241" type="Unsqueeze" version="opset1">
			<input>
				<port id="0" precision="FP32">
					<dim>16</dim>
					<dim>48</dim>
				</port>
				<port id="1" precision="I64">
					<dim>1</dim>
				</port>
			</input>
			<output>
				<port id="2" precision="FP32" names="649">
					<dim>1</dim>
					<dim>16</dim>
					<dim>48</dim>
				</port>
			</output>
		</layer>
		<layer id="247" name="Constant_1108" type="Const" version="opset1">
			<data element_type="i64" shape="1" offset="132112" size="8" />
			<output>
				<port id="0" precision="I64">
					<dim>1</dim>
				</port>
			</output>
		</layer>
		<layer id="248" name="Unsqueeze_242" type="Unsqueeze" version="opset1">
			<input>
				<port id="0" precision="FP32">
					<dim>1</dim>
					<dim>16</dim>
					<dim>48</dim>
				</port>
				<port id="1" precision="I64">
					<dim>1</dim>
				</port>
			</input>
			<output>
				<port id="2" precision="FP32" names="650">
					<dim>1</dim>
					<dim>1</dim>
					<dim>16</dim>
					<dim>48</dim>
				</port>
			</output>
		</layer>
		<layer id="249" name="Mul_243" type="Multiply" version="opset1">
			<data auto_broadcast="numpy" />
			<input>
				<port id="0" precision="FP32">
					<dim>129</dim>
					<dim>1</dim>
					<dim>16</dim>
					<dim>48</dim>
				</port>
				<port id="1" precision="FP32">
					<dim>1</dim>
					<dim>1</dim>
					<dim>16</dim>
					<dim>48</dim>
				</port>
			</input>
			<output>
				<port id="2" precision="FP32" names="651">
					<dim>129</dim>
					<dim>1</dim>
					<dim>16</dim>
					<dim>48</dim>
				</port>
			</output>
		</layer>
		<layer id="250" name="Constant_146357_compressed" type="Const" version="opset1">
			<data element_type="f16" shape="1, 1, 1, 1" offset="164296" size="2" />
			<output>
				<port id="0" precision="FP16">
					<dim>1</dim>
					<dim>1</dim>
					<dim>1</dim>
					<dim>1</dim>
				</port>
			</output>
		</layer>
		<layer id="251" name="Constant_146357" type="Convert" version="opset1">
			<data destination_type="f32" />
			<rt_info>
				<attribute name="decompression" version="0" />
			</rt_info>
			<input>
				<port id="0" precision="FP16">
					<dim>1</dim>
					<dim>1</dim>
					<dim>1</dim>
					<dim>1</dim>
				</port>
			</input>
			<output>
				<port id="1" precision="FP32">
					<dim>1</dim>
					<dim>1</dim>
					<dim>1</dim>
					<dim>1</dim>
				</port>
			</output>
		</layer>
		<layer id="252" name="Sub_245" type="Subtract" version="opset1">
			<data auto_broadcast="numpy" />
			<input>
				<port id="0" precision="FP32">
					<dim>1</dim>
					<dim>1</dim>
					<dim>1</dim>
					<dim>1</dim>
				</port>
				<port id="1" precision="FP32">
					<dim>1</dim>
					<dim>1</dim>
					<dim>16</dim>
					<dim>48</dim>
				</port>
			</input>
			<output>
				<port id="2" precision="FP32" names="653">
					<dim>1</dim>
					<dim>1</dim>
					<dim>16</dim>
					<dim>48</dim>
				</port>
			</output>
		</layer>
		<layer id="253" name="Constant_146358_compressed" type="Const" version="opset1">
			<data element_type="f16" shape="1, 1, 1, 1" offset="164388" size="2" />
			<output>
				<port id="0" precision="FP16">
					<dim>1</dim>
					<dim>1</dim>
					<dim>1</dim>
					<dim>1</dim>
				</port>
			</output>
		</layer>
		<layer id="254" name="Constant_146358" type="Convert" version="opset1">
			<data destination_type="f32" />
			<rt_info>
				<attribute name="decompression" version="0" />
			</rt_info>
			<input>
				<port id="0" precision="FP16">
					<dim>1</dim>
					<dim>1</dim>
					<dim>1</dim>
					<dim>1</dim>
				</port>
			</input>
			<output>
				<port id="1" precision="FP32">
					<dim>1</dim>
					<dim>1</dim>
					<dim>1</dim>
					<dim>1</dim>
				</port>
			</output>
		</layer>
		<layer id="255" name="Mul_247" type="Multiply" version="opset1">
			<data auto_broadcast="numpy" />
			<input>
				<port id="0" precision="FP32">
					<dim>1</dim>
					<dim>1</dim>
					<dim>16</dim>
					<dim>48</dim>
				</port>
				<port id="1" precision="FP32">
					<dim>1</dim>
					<dim>1</dim>
					<dim>1</dim>
					<dim>1</dim>
				</port>
			</input>
			<output>
				<port id="2" precision="FP32" names="655">
					<dim>1</dim>
					<dim>1</dim>
					<dim>16</dim>
					<dim>48</dim>
				</port>
			</output>
		</layer>
		<layer id="256" name="Add_248" type="Add" version="opset1">
			<data auto_broadcast="numpy" />
			<input>
				<port id="0" precision="FP32">
					<dim>129</dim>
					<dim>1</dim>
					<dim>16</dim>
					<dim>48</dim>
				</port>
				<port id="1" precision="FP32">
					<dim>1</dim>
					<dim>1</dim>
					<dim>16</dim>
					<dim>48</dim>
				</port>
			</input>
			<output>
				<port id="2" precision="FP32" names="656">
					<dim>129</dim>
					<dim>1</dim>
					<dim>16</dim>
					<dim>48</dim>
				</port>
			</output>
		</layer>
		<layer id="257" name="Softmax_249" type="SoftMax" version="opset8">
			<data axis="3" />
			<input>
				<port id="0" precision="FP32">
					<dim>129</dim>
					<dim>1</dim>
					<dim>16</dim>
					<dim>48</dim>
				</port>
			</input>
			<output>
				<port id="1" precision="FP32" names="657">
					<dim>129</dim>
					<dim>1</dim>
					<dim>16</dim>
					<dim>48</dim>
				</port>
			</output>
		</layer>
		<layer id="258" name="Concat_149" type="Concat" version="opset1">
			<data axis="3" />
			<input>
				<port id="0" precision="FP32">
					<dim>1</dim>
					<dim>129</dim>
					<dim>32</dim>
					<dim>32</dim>
				</port>
				<port id="1" precision="FP32">
					<dim>1</dim>
					<dim>129</dim>
					<dim>32</dim>
					<dim>16</dim>
				</port>
			</input>
			<output>
				<port id="2" precision="FP32" names="527">
					<dim>1</dim>
					<dim>129</dim>
					<dim>32</dim>
					<dim>48</dim>
				</port>
			</output>
		</layer>
		<layer id="259" name="Mul_177" type="Multiply" version="opset1">
			<data auto_broadcast="numpy" />
			<input>
				<port id="0" precision="I64" />
				<port id="1" precision="I64" />
			</input>
			<output>
				<port id="2" precision="I64" names="565" />
			</output>
		</layer>
		<layer id="260" name="Constant_988" type="Const" version="opset1">
			<data element_type="i64" shape="1" offset="132112" size="8" />
			<output>
				<port id="0" precision="I64">
					<dim>1</dim>
				</port>
			</output>
		</layer>
		<layer id="261" name="Unsqueeze_178" type="Unsqueeze" version="opset1">
			<input>
				<port id="0" precision="I64" />
				<port id="1" precision="I64">
					<dim>1</dim>
				</port>
			</input>
			<output>
				<port id="2" precision="I64" names="568">
					<dim>1</dim>
				</port>
			</output>
		</layer>
		<layer id="262" name="3199" type="Const" version="opset1">
			<data element_type="i64" shape="1" offset="0" size="8" />
			<output>
				<port id="0" precision="I64" names="3199">
					<dim>1</dim>
				</port>
			</output>
		</layer>
		<layer id="263" name="3200" type="Const" version="opset1">
			<data element_type="i64" shape="1" offset="164286" size="8" />
			<output>
				<port id="0" precision="I64" names="3200">
					<dim>1</dim>
				</port>
			</output>
		</layer>
		<layer id="264" name="Shape_164" type="ShapeOf" version="opset3">
			<data output_type="i64" />
			<input>
				<port id="0" precision="FP32">
					<dim>1</dim>
					<dim>129</dim>
					<dim>32</dim>
					<dim>48</dim>
				</port>
			</input>
			<output>
				<port id="1" precision="I64" names="514,544">
					<dim>4</dim>
				</port>
			</output>
		</layer>
		<layer id="265" name="Constant_58892" type="Const" version="opset1">
			<data element_type="i64" shape="1" offset="132152" size="8" />
			<output>
				<port id="0" precision="I64">
					<dim>1</dim>
				</port>
			</output>
		</layer>
		<layer id="266" name="Constant_967" type="Const" version="opset1">
			<data element_type="i64" shape="" offset="132112" size="8" />
			<output>
				<port id="0" precision="I64" />
			</output>
		</layer>
		<layer id="267" name="Gather_166" type="Gather" version="opset8">
			<data batch_dims="0" />
			<input>
				<port id="0" precision="I64">
					<dim>4</dim>
				</port>
				<port id="1" precision="I64">
					<dim>1</dim>
				</port>
				<port id="2" precision="I64" />
			</input>
			<output>
				<port id="3" precision="I64" names="571">
					<dim>1</dim>
				</port>
			</output>
		</layer>
		<layer id="268" name="Concat_180" type="Concat" version="opset1">
			<data axis="0" />
			<input>
				<port id="0" precision="I64">
					<dim>1</dim>
				</port>
				<port id="1" precision="I64">
					<dim>1</dim>
				</port>
				<port id="2" precision="I64">
					<dim>1</dim>
				</port>
				<port id="3" precision="I64">
					<dim>1</dim>
				</port>
			</input>
			<output>
				<port id="4" precision="I64" names="572">
					<dim>4</dim>
				</port>
			</output>
		</layer>
		<layer id="269" name="Reshape_181" type="Reshape" version="opset1">
			<data special_zero="true" />
			<input>
				<port id="0" precision="FP32">
					<dim>1</dim>
					<dim>129</dim>
					<dim>32</dim>
					<dim>48</dim>
				</port>
				<port id="1" precision="I64">
					<dim>4</dim>
				</port>
			</input>
			<output>
				<port id="2" precision="FP32" names="573">
					<dim>129</dim>
					<dim>1</dim>
					<dim>32</dim>
					<dim>48</dim>
				</port>
			</output>
		</layer>
		<layer id="270" name="MatMul_250" type="MatMul" version="opset1">
			<data transpose_a="false" transpose_b="true" />
			<input>
				<port id="0" precision="FP32">
					<dim>129</dim>
					<dim>1</dim>
					<dim>16</dim>
					<dim>48</dim>
				</port>
				<port id="1" precision="FP32">
					<dim>129</dim>
					<dim>1</dim>
					<dim>32</dim>
					<dim>48</dim>
				</port>
			</input>
			<output>
				<port id="2" precision="FP32" names="658">
					<dim>129</dim>
					<dim>1</dim>
					<dim>16</dim>
					<dim>32</dim>
				</port>
			</output>
		</layer>
		<layer id="271" name="Constant_1118" type="Const" version="opset1">
			<data element_type="i64" shape="4" offset="164390" size="32" />
			<output>
				<port id="0" precision="I64">
					<dim>4</dim>
				</port>
			</output>
		</layer>
		<layer id="272" name="Transpose_251" type="Transpose" version="opset1">
			<input>
				<port id="0" precision="FP32">
					<dim>129</dim>
					<dim>1</dim>
					<dim>16</dim>
					<dim>32</dim>
				</port>
				<port id="1" precision="I64">
					<dim>4</dim>
				</port>
			</input>
			<output>
				<port id="2" precision="FP32" names="659">
					<dim>129</dim>
					<dim>1</dim>
					<dim>32</dim>
					<dim>16</dim>
				</port>
			</output>
		</layer>
		<layer id="273" name="Constant_59229" type="Const" version="opset1">
			<data element_type="i64" shape="3" offset="164422" size="24" />
			<output>
				<port id="0" precision="I64">
					<dim>3</dim>
				</port>
			</output>
		</layer>
		<layer id="274" name="Constant_59230" type="Const" version="opset1">
			<data element_type="i64" shape="" offset="132112" size="8" />
			<output>
				<port id="0" precision="I64" />
			</output>
		</layer>
		<layer id="275" name="Gather_59231" type="Gather" version="opset8">
			<data batch_dims="0" />
			<input>
				<port id="0" precision="I64">
					<dim>4</dim>
				</port>
				<port id="1" precision="I64">
					<dim>3</dim>
				</port>
				<port id="2" precision="I64" />
			</input>
			<output>
				<port id="3" precision="I64">
					<dim>3</dim>
				</port>
			</output>
		</layer>
		<layer id="276" name="Constant_58916" type="Const" version="opset1">
			<data element_type="i64" shape="1" offset="132152" size="8" />
			<output>
				<port id="0" precision="I64">
					<dim>1</dim>
				</port>
			</output>
		</layer>
		<layer id="277" name="Gather_1630" type="Gather" version="opset8">
			<data batch_dims="0" />
			<input>
				<port id="0" precision="I64">
					<dim>4</dim>
				</port>
				<port id="1" precision="I64">
					<dim>1</dim>
				</port>
				<port id="2" precision="I64" />
			</input>
			<output>
				<port id="3" precision="I64" names="663">
					<dim>1</dim>
				</port>
			</output>
		</layer>
		<layer id="278" name="Concat_256" type="Concat" version="opset1">
			<data axis="0" />
			<input>
				<port id="0" precision="I64">
					<dim>3</dim>
				</port>
				<port id="1" precision="I64">
					<dim>1</dim>
				</port>
			</input>
			<output>
				<port id="2" precision="I64" names="664">
					<dim>4</dim>
				</port>
			</output>
		</layer>
		<layer id="279" name="Reshape_257" type="Reshape" version="opset1">
			<data special_zero="true" />
			<input>
				<port id="0" precision="FP32">
					<dim>129</dim>
					<dim>1</dim>
					<dim>32</dim>
					<dim>16</dim>
				</port>
				<port id="1" precision="I64">
					<dim>4</dim>
				</port>
			</input>
			<output>
				<port id="2" precision="FP32" names="665">
					<dim>1</dim>
					<dim>129</dim>
					<dim>32</dim>
					<dim>16</dim>
				</port>
			</output>
		</layer>
		<layer id="280" name="Constant_1132" type="Const" version="opset1">
			<data element_type="i64" shape="4" offset="164230" size="32" />
			<output>
				<port id="0" precision="I64">
					<dim>4</dim>
				</port>
			</output>
		</layer>
		<layer id="281" name="Transpose_258" type="Transpose" version="opset1">
			<input>
				<port id="0" precision="FP32">
					<dim>1</dim>
					<dim>129</dim>
					<dim>32</dim>
					<dim>16</dim>
				</port>
				<port id="1" precision="I64">
					<dim>4</dim>
				</port>
			</input>
			<output>
				<port id="2" precision="FP32" names="666">
					<dim>1</dim>
					<dim>32</dim>
					<dim>129</dim>
					<dim>16</dim>
				</port>
			</output>
		</layer>
		<layer id="282" name="blocks_down.0.sa.conv_o.weight_compressed" type="Const" version="opset1">
			<data element_type="f16" shape="32, 32, 1, 1" offset="164446" size="2048" />
			<output>
				<port id="0" precision="FP16">
					<dim>32</dim>
					<dim>32</dim>
					<dim>1</dim>
					<dim>1</dim>
				</port>
			</output>
		</layer>
		<layer id="283" name="blocks_down.0.sa.conv_o.weight" type="Convert" version="opset1">
			<data destination_type="f32" />
			<rt_info>
				<attribute name="decompression" version="0" />
			</rt_info>
			<input>
				<port id="0" precision="FP16">
					<dim>32</dim>
					<dim>32</dim>
					<dim>1</dim>
					<dim>1</dim>
				</port>
			</input>
			<output>
				<port id="1" precision="FP32" names="blocks_down.0.sa.conv_o.weight">
					<dim>32</dim>
					<dim>32</dim>
					<dim>1</dim>
					<dim>1</dim>
				</port>
			</output>
		</layer>
		<layer id="284" name="Conv_259/WithoutBiases" type="Convolution" version="opset1">
			<data strides="1, 1" dilations="1, 1" pads_begin="0, 0" pads_end="0, 0" auto_pad="explicit" />
			<input>
				<port id="0" precision="FP32">
					<dim>1</dim>
					<dim>32</dim>
					<dim>129</dim>
					<dim>16</dim>
				</port>
				<port id="1" precision="FP32">
					<dim>32</dim>
					<dim>32</dim>
					<dim>1</dim>
					<dim>1</dim>
				</port>
			</input>
			<output>
				<port id="2" precision="FP32">
					<dim>1</dim>
					<dim>32</dim>
					<dim>129</dim>
					<dim>16</dim>
				</port>
			</output>
		</layer>
		<layer id="285" name="Reshape_1145_compressed" type="Const" version="opset1">
			<data element_type="f16" shape="1, 32, 1, 1" offset="166494" size="64" />
			<output>
				<port id="0" precision="FP16">
					<dim>1</dim>
					<dim>32</dim>
					<dim>1</dim>
					<dim>1</dim>
				</port>
			</output>
		</layer>
		<layer id="286" name="Reshape_1145" type="Convert" version="opset1">
			<data destination_type="f32" />
			<rt_info>
				<attribute name="decompression" version="0" />
			</rt_info>
			<input>
				<port id="0" precision="FP16">
					<dim>1</dim>
					<dim>32</dim>
					<dim>1</dim>
					<dim>1</dim>
				</port>
			</input>
			<output>
				<port id="1" precision="FP32">
					<dim>1</dim>
					<dim>32</dim>
					<dim>1</dim>
					<dim>1</dim>
				</port>
			</output>
		</layer>
		<layer id="287" name="Conv_259" type="Add" version="opset1">
			<data auto_broadcast="numpy" />
			<input>
				<port id="0" precision="FP32">
					<dim>1</dim>
					<dim>32</dim>
					<dim>129</dim>
					<dim>16</dim>
				</port>
				<port id="1" precision="FP32">
					<dim>1</dim>
					<dim>32</dim>
					<dim>1</dim>
					<dim>1</dim>
				</port>
			</input>
			<output>
				<port id="2" precision="FP32" names="667">
					<dim>1</dim>
					<dim>32</dim>
					<dim>129</dim>
					<dim>16</dim>
				</port>
			</output>
		</layer>
		<layer id="288" name="Concat_260" type="Concat" version="opset1">
			<data axis="1" />
			<input>
				<port id="0" precision="FP32">
					<dim>1</dim>
					<dim>32</dim>
					<dim>129</dim>
					<dim>16</dim>
				</port>
				<port id="1" precision="FP32">
					<dim>1</dim>
					<dim>32</dim>
					<dim>129</dim>
					<dim>16</dim>
				</port>
			</input>
			<output>
				<port id="2" precision="FP32" names="668">
					<dim>1</dim>
					<dim>64</dim>
					<dim>129</dim>
					<dim>16</dim>
				</port>
			</output>
		</layer>
		<layer id="289" name="Constant_143058_compressed" type="Const" version="opset1">
			<data element_type="f16" shape="1, 64, 1, 1" offset="166558" size="128" />
			<output>
				<port id="0" precision="FP16">
					<dim>1</dim>
					<dim>64</dim>
					<dim>1</dim>
					<dim>1</dim>
				</port>
			</output>
		</layer>
		<layer id="290" name="Constant_143058" type="Convert" version="opset1">
			<data destination_type="f32" />
			<rt_info>
				<attribute name="decompression" version="0" />
			</rt_info>
			<input>
				<port id="0" precision="FP16">
					<dim>1</dim>
					<dim>64</dim>
					<dim>1</dim>
					<dim>1</dim>
				</port>
			</input>
			<output>
				<port id="1" precision="FP32">
					<dim>1</dim>
					<dim>64</dim>
					<dim>1</dim>
					<dim>1</dim>
				</port>
			</output>
		</layer>
		<layer id="291" name="Multiply_145157" type="Multiply" version="opset1">
			<data auto_broadcast="numpy" />
			<input>
				<port id="0" precision="FP32">
					<dim>1</dim>
					<dim>64</dim>
					<dim>129</dim>
					<dim>16</dim>
				</port>
				<port id="1" precision="FP32">
					<dim>1</dim>
					<dim>64</dim>
					<dim>1</dim>
					<dim>1</dim>
				</port>
			</input>
			<output>
				<port id="2" precision="FP32">
					<dim>1</dim>
					<dim>64</dim>
					<dim>129</dim>
					<dim>16</dim>
				</port>
			</output>
		</layer>
		<layer id="292" name="Constant_145162_compressed" type="Const" version="opset1">
			<data element_type="f16" shape="1, 64, 1, 1" offset="166686" size="128" />
			<output>
				<port id="0" precision="FP16">
					<dim>1</dim>
					<dim>64</dim>
					<dim>1</dim>
					<dim>1</dim>
				</port>
			</output>
		</layer>
		<layer id="293" name="Constant_145162" type="Convert" version="opset1">
			<data destination_type="f32" />
			<rt_info>
				<attribute name="decompression" version="0" />
			</rt_info>
			<input>
				<port id="0" precision="FP16">
					<dim>1</dim>
					<dim>64</dim>
					<dim>1</dim>
					<dim>1</dim>
				</port>
			</input>
			<output>
				<port id="1" precision="FP32">
					<dim>1</dim>
					<dim>64</dim>
					<dim>1</dim>
					<dim>1</dim>
				</port>
			</output>
		</layer>
		<layer id="294" name="BatchNormalization_261" type="Add" version="opset1">
			<data auto_broadcast="numpy" />
			<input>
				<port id="0" precision="FP32">
					<dim>1</dim>
					<dim>64</dim>
					<dim>129</dim>
					<dim>16</dim>
				</port>
				<port id="1" precision="FP32">
					<dim>1</dim>
					<dim>64</dim>
					<dim>1</dim>
					<dim>1</dim>
				</port>
			</input>
			<output>
				<port id="2" precision="FP32" names="669">
					<dim>1</dim>
					<dim>64</dim>
					<dim>129</dim>
					<dim>16</dim>
				</port>
			</output>
		</layer>
		<layer id="295" name="Constant_1151_compressed" type="Const" version="opset1">
			<data element_type="f16" shape="1" offset="132212" size="2" />
			<output>
				<port id="0" precision="FP16">
					<dim>1</dim>
				</port>
			</output>
		</layer>
		<layer id="296" name="Constant_1151" type="Convert" version="opset1">
			<data destination_type="f32" />
			<rt_info>
				<attribute name="decompression" version="0" />
			</rt_info>
			<input>
				<port id="0" precision="FP16">
					<dim>1</dim>
				</port>
			</input>
			<output>
				<port id="1" precision="FP32">
					<dim>1</dim>
				</port>
			</output>
		</layer>
		<layer id="297" name="LeakyRelu_262" type="PReLU" version="opset1">
			<input>
				<port id="0" precision="FP32">
					<dim>1</dim>
					<dim>64</dim>
					<dim>129</dim>
					<dim>16</dim>
				</port>
				<port id="1" precision="FP32">
					<dim>1</dim>
				</port>
			</input>
			<output>
				<port id="2" precision="FP32" names="670">
					<dim>1</dim>
					<dim>64</dim>
					<dim>129</dim>
					<dim>16</dim>
				</port>
			</output>
		</layer>
		<layer id="298" name="blocks_down.0.sa_out.conv.weight_compressed" type="Const" version="opset1">
			<data element_type="f16" shape="32, 64, 1, 1" offset="166814" size="4096" />
			<output>
				<port id="0" precision="FP16">
					<dim>32</dim>
					<dim>64</dim>
					<dim>1</dim>
					<dim>1</dim>
				</port>
			</output>
		</layer>
		<layer id="299" name="blocks_down.0.sa_out.conv.weight" type="Convert" version="opset1">
			<data destination_type="f32" />
			<rt_info>
				<attribute name="decompression" version="0" />
			</rt_info>
			<input>
				<port id="0" precision="FP16">
					<dim>32</dim>
					<dim>64</dim>
					<dim>1</dim>
					<dim>1</dim>
				</port>
			</input>
			<output>
				<port id="1" precision="FP32" names="blocks_down.0.sa_out.conv.weight">
					<dim>32</dim>
					<dim>64</dim>
					<dim>1</dim>
					<dim>1</dim>
				</port>
			</output>
		</layer>
		<layer id="300" name="Conv_263/WithoutBiases" type="Convolution" version="opset1">
			<data strides="1, 1" dilations="1, 1" pads_begin="0, 0" pads_end="0, 0" auto_pad="explicit" />
			<input>
				<port id="0" precision="FP32">
					<dim>1</dim>
					<dim>64</dim>
					<dim>129</dim>
					<dim>16</dim>
				</port>
				<port id="1" precision="FP32">
					<dim>32</dim>
					<dim>64</dim>
					<dim>1</dim>
					<dim>1</dim>
				</port>
			</input>
			<output>
				<port id="2" precision="FP32">
					<dim>1</dim>
					<dim>32</dim>
					<dim>129</dim>
					<dim>16</dim>
				</port>
			</output>
		</layer>
		<layer id="301" name="Reshape_1164_compressed" type="Const" version="opset1">
			<data element_type="f16" shape="1, 32, 1, 1" offset="170910" size="64" />
			<output>
				<port id="0" precision="FP16">
					<dim>1</dim>
					<dim>32</dim>
					<dim>1</dim>
					<dim>1</dim>
				</port>
			</output>
		</layer>
		<layer id="302" name="Reshape_1164" type="Convert" version="opset1">
			<data destination_type="f32" />
			<rt_info>
				<attribute name="decompression" version="0" />
			</rt_info>
			<input>
				<port id="0" precision="FP16">
					<dim>1</dim>
					<dim>32</dim>
					<dim>1</dim>
					<dim>1</dim>
				</port>
			</input>
			<output>
				<port id="1" precision="FP32">
					<dim>1</dim>
					<dim>32</dim>
					<dim>1</dim>
					<dim>1</dim>
				</port>
			</output>
		</layer>
		<layer id="303" name="Conv_263" type="Add" version="opset1">
			<data auto_broadcast="numpy" />
			<input>
				<port id="0" precision="FP32">
					<dim>1</dim>
					<dim>32</dim>
					<dim>129</dim>
					<dim>16</dim>
				</port>
				<port id="1" precision="FP32">
					<dim>1</dim>
					<dim>32</dim>
					<dim>1</dim>
					<dim>1</dim>
				</port>
			</input>
			<output>
				<port id="2" precision="FP32" names="671,673">
					<dim>1</dim>
					<dim>32</dim>
					<dim>129</dim>
					<dim>16</dim>
				</port>
			</output>
		</layer>
		<layer id="304" name="AveragePool_266" type="AvgPool" version="opset1">
			<data kernel="2, 2" strides="2, 2" pads_begin="0, 0" pads_end="0, 0" exclude-pad="true" auto_pad="explicit" rounding_type="floor" />
			<input>
				<port id="0" precision="FP32">
					<dim>1</dim>
					<dim>32</dim>
					<dim>129</dim>
					<dim>16</dim>
				</port>
			</input>
			<output>
				<port id="1" precision="FP32" names="674">
					<dim>1</dim>
					<dim>32</dim>
					<dim>64</dim>
					<dim>8</dim>
				</port>
			</output>
		</layer>
		<layer id="305" name="Constant_143124_compressed" type="Const" version="opset1">
			<data element_type="f16" shape="1, 32, 1, 1" offset="170974" size="64" />
			<output>
				<port id="0" precision="FP16">
					<dim>1</dim>
					<dim>32</dim>
					<dim>1</dim>
					<dim>1</dim>
				</port>
			</output>
		</layer>
		<layer id="306" name="Constant_143124" type="Convert" version="opset1">
			<data destination_type="f32" />
			<rt_info>
				<attribute name="decompression" version="0" />
			</rt_info>
			<input>
				<port id="0" precision="FP16">
					<dim>1</dim>
					<dim>32</dim>
					<dim>1</dim>
					<dim>1</dim>
				</port>
			</input>
			<output>
				<port id="1" precision="FP32">
					<dim>1</dim>
					<dim>32</dim>
					<dim>1</dim>
					<dim>1</dim>
				</port>
			</output>
		</layer>
		<layer id="307" name="Multiply_145164" type="Multiply" version="opset1">
			<data auto_broadcast="numpy" />
			<input>
				<port id="0" precision="FP32">
					<dim>1</dim>
					<dim>32</dim>
					<dim>64</dim>
					<dim>8</dim>
				</port>
				<port id="1" precision="FP32">
					<dim>1</dim>
					<dim>32</dim>
					<dim>1</dim>
					<dim>1</dim>
				</port>
			</input>
			<output>
				<port id="2" precision="FP32">
					<dim>1</dim>
					<dim>32</dim>
					<dim>64</dim>
					<dim>8</dim>
				</port>
			</output>
		</layer>
		<layer id="308" name="Constant_145169_compressed" type="Const" version="opset1">
			<data element_type="f16" shape="1, 32, 1, 1" offset="171038" size="64" />
			<output>
				<port id="0" precision="FP16">
					<dim>1</dim>
					<dim>32</dim>
					<dim>1</dim>
					<dim>1</dim>
				</port>
			</output>
		</layer>
		<layer id="309" name="Constant_145169" type="Convert" version="opset1">
			<data destination_type="f32" />
			<rt_info>
				<attribute name="decompression" version="0" />
			</rt_info>
			<input>
				<port id="0" precision="FP16">
					<dim>1</dim>
					<dim>32</dim>
					<dim>1</dim>
					<dim>1</dim>
				</port>
			</input>
			<output>
				<port id="1" precision="FP32">
					<dim>1</dim>
					<dim>32</dim>
					<dim>1</dim>
					<dim>1</dim>
				</port>
			</output>
		</layer>
		<layer id="310" name="BatchNormalization_267" type="Add" version="opset1">
			<data auto_broadcast="numpy" />
			<input>
				<port id="0" precision="FP32">
					<dim>1</dim>
					<dim>32</dim>
					<dim>64</dim>
					<dim>8</dim>
				</port>
				<port id="1" precision="FP32">
					<dim>1</dim>
					<dim>32</dim>
					<dim>1</dim>
					<dim>1</dim>
				</port>
			</input>
			<output>
				<port id="2" precision="FP32" names="675">
					<dim>1</dim>
					<dim>32</dim>
					<dim>64</dim>
					<dim>8</dim>
				</port>
			</output>
		</layer>
		<layer id="311" name="Constant_1175_compressed" type="Const" version="opset1">
			<data element_type="f16" shape="1" offset="132212" size="2" />
			<output>
				<port id="0" precision="FP16">
					<dim>1</dim>
				</port>
			</output>
		</layer>
		<layer id="312" name="Constant_1175" type="Convert" version="opset1">
			<data destination_type="f32" />
			<rt_info>
				<attribute name="decompression" version="0" />
			</rt_info>
			<input>
				<port id="0" precision="FP16">
					<dim>1</dim>
				</port>
			</input>
			<output>
				<port id="1" precision="FP32">
					<dim>1</dim>
				</port>
			</output>
		</layer>
		<layer id="313" name="LeakyRelu_268" type="PReLU" version="opset1">
			<input>
				<port id="0" precision="FP32">
					<dim>1</dim>
					<dim>32</dim>
					<dim>64</dim>
					<dim>8</dim>
				</port>
				<port id="1" precision="FP32">
					<dim>1</dim>
				</port>
			</input>
			<output>
				<port id="2" precision="FP32" names="676">
					<dim>1</dim>
					<dim>32</dim>
					<dim>64</dim>
					<dim>8</dim>
				</port>
			</output>
		</layer>
		<layer id="314" name="Concat_269" type="Concat" version="opset1">
			<data axis="3" />
			<input>
				<port id="0" precision="FP32">
					<dim>1</dim>
					<dim>32</dim>
					<dim>64</dim>
					<dim>2</dim>
				</port>
				<port id="1" precision="FP32">
					<dim>1</dim>
					<dim>32</dim>
					<dim>64</dim>
					<dim>8</dim>
				</port>
			</input>
			<output>
				<port id="2" precision="FP32" names="677">
					<dim>1</dim>
					<dim>32</dim>
					<dim>64</dim>
					<dim>10</dim>
				</port>
			</output>
		</layer>
		<layer id="315" name="blocks_down.1.bd.0.conv.weight_compressed" type="Const" version="opset1">
			<data element_type="f16" shape="16, 32, 3, 3" offset="171102" size="9216" />
			<output>
				<port id="0" precision="FP16">
					<dim>16</dim>
					<dim>32</dim>
					<dim>3</dim>
					<dim>3</dim>
				</port>
			</output>
		</layer>
		<layer id="316" name="blocks_down.1.bd.0.conv.weight" type="Convert" version="opset1">
			<data destination_type="f32" />
			<rt_info>
				<attribute name="decompression" version="0" />
			</rt_info>
			<input>
				<port id="0" precision="FP16">
					<dim>16</dim>
					<dim>32</dim>
					<dim>3</dim>
					<dim>3</dim>
				</port>
			</input>
			<output>
				<port id="1" precision="FP32" names="blocks_down.1.bd.0.conv.weight">
					<dim>16</dim>
					<dim>32</dim>
					<dim>3</dim>
					<dim>3</dim>
				</port>
			</output>
		</layer>
		<layer id="317" name="Conv_296/WithoutBiases" type="Convolution" version="opset1">
			<data strides="1, 1" dilations="1, 1" pads_begin="1, 0" pads_end="1, 0" auto_pad="explicit" />
			<input>
				<port id="0" precision="FP32">
					<dim>1</dim>
					<dim>32</dim>
					<dim>64</dim>
					<dim>10</dim>
				</port>
				<port id="1" precision="FP32">
					<dim>16</dim>
					<dim>32</dim>
					<dim>3</dim>
					<dim>3</dim>
				</port>
			</input>
			<output>
				<port id="2" precision="FP32">
					<dim>1</dim>
					<dim>16</dim>
					<dim>64</dim>
					<dim>8</dim>
				</port>
			</output>
		</layer>
		<layer id="318" name="Reshape_1248_compressed" type="Const" version="opset1">
			<data element_type="f16" shape="1, 16, 1, 1" offset="180318" size="32" />
			<output>
				<port id="0" precision="FP16">
					<dim>1</dim>
					<dim>16</dim>
					<dim>1</dim>
					<dim>1</dim>
				</port>
			</output>
		</layer>
		<layer id="319" name="Reshape_1248" type="Convert" version="opset1">
			<data destination_type="f32" />
			<rt_info>
				<attribute name="decompression" version="0" />
			</rt_info>
			<input>
				<port id="0" precision="FP16">
					<dim>1</dim>
					<dim>16</dim>
					<dim>1</dim>
					<dim>1</dim>
				</port>
			</input>
			<output>
				<port id="1" precision="FP32">
					<dim>1</dim>
					<dim>16</dim>
					<dim>1</dim>
					<dim>1</dim>
				</port>
			</output>
		</layer>
		<layer id="320" name="Conv_296" type="Add" version="opset1">
			<data auto_broadcast="numpy" />
			<input>
				<port id="0" precision="FP32">
					<dim>1</dim>
					<dim>16</dim>
					<dim>64</dim>
					<dim>8</dim>
				</port>
				<port id="1" precision="FP32">
					<dim>1</dim>
					<dim>16</dim>
					<dim>1</dim>
					<dim>1</dim>
				</port>
			</input>
			<output>
				<port id="2" precision="FP32" names="715">
					<dim>1</dim>
					<dim>16</dim>
					<dim>64</dim>
					<dim>8</dim>
				</port>
			</output>
		</layer>
		<layer id="321" name="Concat_297" type="Concat" version="opset1">
			<data axis="1" />
			<input>
				<port id="0" precision="FP32">
					<dim>1</dim>
					<dim>32</dim>
					<dim>64</dim>
					<dim>8</dim>
				</port>
				<port id="1" precision="FP32">
					<dim>1</dim>
					<dim>16</dim>
					<dim>64</dim>
					<dim>8</dim>
				</port>
			</input>
			<output>
				<port id="2" precision="FP32" names="716">
					<dim>1</dim>
					<dim>48</dim>
					<dim>64</dim>
					<dim>8</dim>
				</port>
			</output>
		</layer>
		<layer id="322" name="Constant_143190_compressed" type="Const" version="opset1">
			<data element_type="f16" shape="1, 48, 1, 1" offset="180350" size="96" />
			<output>
				<port id="0" precision="FP16">
					<dim>1</dim>
					<dim>48</dim>
					<dim>1</dim>
					<dim>1</dim>
				</port>
			</output>
		</layer>
		<layer id="323" name="Constant_143190" type="Convert" version="opset1">
			<data destination_type="f32" />
			<rt_info>
				<attribute name="decompression" version="0" />
			</rt_info>
			<input>
				<port id="0" precision="FP16">
					<dim>1</dim>
					<dim>48</dim>
					<dim>1</dim>
					<dim>1</dim>
				</port>
			</input>
			<output>
				<port id="1" precision="FP32">
					<dim>1</dim>
					<dim>48</dim>
					<dim>1</dim>
					<dim>1</dim>
				</port>
			</output>
		</layer>
		<layer id="324" name="Multiply_145171" type="Multiply" version="opset1">
			<data auto_broadcast="numpy" />
			<input>
				<port id="0" precision="FP32">
					<dim>1</dim>
					<dim>48</dim>
					<dim>64</dim>
					<dim>8</dim>
				</port>
				<port id="1" precision="FP32">
					<dim>1</dim>
					<dim>48</dim>
					<dim>1</dim>
					<dim>1</dim>
				</port>
			</input>
			<output>
				<port id="2" precision="FP32">
					<dim>1</dim>
					<dim>48</dim>
					<dim>64</dim>
					<dim>8</dim>
				</port>
			</output>
		</layer>
		<layer id="325" name="Constant_145176_compressed" type="Const" version="opset1">
			<data element_type="f16" shape="1, 48, 1, 1" offset="180446" size="96" />
			<output>
				<port id="0" precision="FP16">
					<dim>1</dim>
					<dim>48</dim>
					<dim>1</dim>
					<dim>1</dim>
				</port>
			</output>
		</layer>
		<layer id="326" name="Constant_145176" type="Convert" version="opset1">
			<data destination_type="f32" />
			<rt_info>
				<attribute name="decompression" version="0" />
			</rt_info>
			<input>
				<port id="0" precision="FP16">
					<dim>1</dim>
					<dim>48</dim>
					<dim>1</dim>
					<dim>1</dim>
				</port>
			</input>
			<output>
				<port id="1" precision="FP32">
					<dim>1</dim>
					<dim>48</dim>
					<dim>1</dim>
					<dim>1</dim>
				</port>
			</output>
		</layer>
		<layer id="327" name="BatchNormalization_298" type="Add" version="opset1">
			<data auto_broadcast="numpy" />
			<input>
				<port id="0" precision="FP32">
					<dim>1</dim>
					<dim>48</dim>
					<dim>64</dim>
					<dim>8</dim>
				</port>
				<port id="1" precision="FP32">
					<dim>1</dim>
					<dim>48</dim>
					<dim>1</dim>
					<dim>1</dim>
				</port>
			</input>
			<output>
				<port id="2" precision="FP32" names="717">
					<dim>1</dim>
					<dim>48</dim>
					<dim>64</dim>
					<dim>8</dim>
				</port>
			</output>
		</layer>
		<layer id="328" name="Constant_1254_compressed" type="Const" version="opset1">
			<data element_type="f16" shape="1" offset="132212" size="2" />
			<output>
				<port id="0" precision="FP16">
					<dim>1</dim>
				</port>
			</output>
		</layer>
		<layer id="329" name="Constant_1254" type="Convert" version="opset1">
			<data destination_type="f32" />
			<rt_info>
				<attribute name="decompression" version="0" />
			</rt_info>
			<input>
				<port id="0" precision="FP16">
					<dim>1</dim>
				</port>
			</input>
			<output>
				<port id="1" precision="FP32">
					<dim>1</dim>
				</port>
			</output>
		</layer>
		<layer id="330" name="LeakyRelu_299" type="PReLU" version="opset1">
			<input>
				<port id="0" precision="FP32">
					<dim>1</dim>
					<dim>48</dim>
					<dim>64</dim>
					<dim>8</dim>
				</port>
				<port id="1" precision="FP32">
					<dim>1</dim>
				</port>
			</input>
			<output>
				<port id="2" precision="FP32" names="718">
					<dim>1</dim>
					<dim>48</dim>
					<dim>64</dim>
					<dim>8</dim>
				</port>
			</output>
		</layer>
		<layer id="331" name="Concat_300" type="Concat" version="opset1">
			<data axis="3" />
			<input>
				<port id="0" precision="FP32">
					<dim>1</dim>
					<dim>48</dim>
					<dim>64</dim>
					<dim>2</dim>
				</port>
				<port id="1" precision="FP32">
					<dim>1</dim>
					<dim>48</dim>
					<dim>64</dim>
					<dim>8</dim>
				</port>
			</input>
			<output>
				<port id="2" precision="FP32" names="719">
					<dim>1</dim>
					<dim>48</dim>
					<dim>64</dim>
					<dim>10</dim>
				</port>
			</output>
		</layer>
		<layer id="332" name="blocks_down.1.bd.1.conv.weight_compressed" type="Const" version="opset1">
			<data element_type="f16" shape="16, 48, 3, 3" offset="180542" size="13824" />
			<output>
				<port id="0" precision="FP16">
					<dim>16</dim>
					<dim>48</dim>
					<dim>3</dim>
					<dim>3</dim>
				</port>
			</output>
		</layer>
		<layer id="333" name="blocks_down.1.bd.1.conv.weight" type="Convert" version="opset1">
			<data destination_type="f32" />
			<rt_info>
				<attribute name="decompression" version="0" />
			</rt_info>
			<input>
				<port id="0" precision="FP16">
					<dim>16</dim>
					<dim>48</dim>
					<dim>3</dim>
					<dim>3</dim>
				</port>
			</input>
			<output>
				<port id="1" precision="FP32" names="blocks_down.1.bd.1.conv.weight">
					<dim>16</dim>
					<dim>48</dim>
					<dim>3</dim>
					<dim>3</dim>
				</port>
			</output>
		</layer>
		<layer id="334" name="Conv_327/WithoutBiases" type="Convolution" version="opset1">
			<data strides="1, 1" dilations="1, 1" pads_begin="1, 0" pads_end="1, 0" auto_pad="explicit" />
			<input>
				<port id="0" precision="FP32">
					<dim>1</dim>
					<dim>48</dim>
					<dim>64</dim>
					<dim>10</dim>
				</port>
				<port id="1" precision="FP32">
					<dim>16</dim>
					<dim>48</dim>
					<dim>3</dim>
					<dim>3</dim>
				</port>
			</input>
			<output>
				<port id="2" precision="FP32">
					<dim>1</dim>
					<dim>16</dim>
					<dim>64</dim>
					<dim>8</dim>
				</port>
			</output>
		</layer>
		<layer id="335" name="Reshape_1327_compressed" type="Const" version="opset1">
			<data element_type="f16" shape="1, 16, 1, 1" offset="194366" size="32" />
			<output>
				<port id="0" precision="FP16">
					<dim>1</dim>
					<dim>16</dim>
					<dim>1</dim>
					<dim>1</dim>
				</port>
			</output>
		</layer>
		<layer id="336" name="Reshape_1327" type="Convert" version="opset1">
			<data destination_type="f32" />
			<rt_info>
				<attribute name="decompression" version="0" />
			</rt_info>
			<input>
				<port id="0" precision="FP16">
					<dim>1</dim>
					<dim>16</dim>
					<dim>1</dim>
					<dim>1</dim>
				</port>
			</input>
			<output>
				<port id="1" precision="FP32">
					<dim>1</dim>
					<dim>16</dim>
					<dim>1</dim>
					<dim>1</dim>
				</port>
			</output>
		</layer>
		<layer id="337" name="Conv_327" type="Add" version="opset1">
			<data auto_broadcast="numpy" />
			<input>
				<port id="0" precision="FP32">
					<dim>1</dim>
					<dim>16</dim>
					<dim>64</dim>
					<dim>8</dim>
				</port>
				<port id="1" precision="FP32">
					<dim>1</dim>
					<dim>16</dim>
					<dim>1</dim>
					<dim>1</dim>
				</port>
			</input>
			<output>
				<port id="2" precision="FP32" names="757">
					<dim>1</dim>
					<dim>16</dim>
					<dim>64</dim>
					<dim>8</dim>
				</port>
			</output>
		</layer>
		<layer id="338" name="Concat_328" type="Concat" version="opset1">
			<data axis="1" />
			<input>
				<port id="0" precision="FP32">
					<dim>1</dim>
					<dim>48</dim>
					<dim>64</dim>
					<dim>8</dim>
				</port>
				<port id="1" precision="FP32">
					<dim>1</dim>
					<dim>16</dim>
					<dim>64</dim>
					<dim>8</dim>
				</port>
			</input>
			<output>
				<port id="2" precision="FP32" names="758">
					<dim>1</dim>
					<dim>64</dim>
					<dim>64</dim>
					<dim>8</dim>
				</port>
			</output>
		</layer>
		<layer id="339" name="Constant_143256_compressed" type="Const" version="opset1">
			<data element_type="f16" shape="1, 64, 1, 1" offset="194398" size="128" />
			<output>
				<port id="0" precision="FP16">
					<dim>1</dim>
					<dim>64</dim>
					<dim>1</dim>
					<dim>1</dim>
				</port>
			</output>
		</layer>
		<layer id="340" name="Constant_143256" type="Convert" version="opset1">
			<data destination_type="f32" />
			<rt_info>
				<attribute name="decompression" version="0" />
			</rt_info>
			<input>
				<port id="0" precision="FP16">
					<dim>1</dim>
					<dim>64</dim>
					<dim>1</dim>
					<dim>1</dim>
				</port>
			</input>
			<output>
				<port id="1" precision="FP32">
					<dim>1</dim>
					<dim>64</dim>
					<dim>1</dim>
					<dim>1</dim>
				</port>
			</output>
		</layer>
		<layer id="341" name="Multiply_145178" type="Multiply" version="opset1">
			<data auto_broadcast="numpy" />
			<input>
				<port id="0" precision="FP32">
					<dim>1</dim>
					<dim>64</dim>
					<dim>64</dim>
					<dim>8</dim>
				</port>
				<port id="1" precision="FP32">
					<dim>1</dim>
					<dim>64</dim>
					<dim>1</dim>
					<dim>1</dim>
				</port>
			</input>
			<output>
				<port id="2" precision="FP32">
					<dim>1</dim>
					<dim>64</dim>
					<dim>64</dim>
					<dim>8</dim>
				</port>
			</output>
		</layer>
		<layer id="342" name="Constant_145183_compressed" type="Const" version="opset1">
			<data element_type="f16" shape="1, 64, 1, 1" offset="194526" size="128" />
			<output>
				<port id="0" precision="FP16">
					<dim>1</dim>
					<dim>64</dim>
					<dim>1</dim>
					<dim>1</dim>
				</port>
			</output>
		</layer>
		<layer id="343" name="Constant_145183" type="Convert" version="opset1">
			<data destination_type="f32" />
			<rt_info>
				<attribute name="decompression" version="0" />
			</rt_info>
			<input>
				<port id="0" precision="FP16">
					<dim>1</dim>
					<dim>64</dim>
					<dim>1</dim>
					<dim>1</dim>
				</port>
			</input>
			<output>
				<port id="1" precision="FP32">
					<dim>1</dim>
					<dim>64</dim>
					<dim>1</dim>
					<dim>1</dim>
				</port>
			</output>
		</layer>
		<layer id="344" name="BatchNormalization_329" type="Add" version="opset1">
			<data auto_broadcast="numpy" />
			<input>
				<port id="0" precision="FP32">
					<dim>1</dim>
					<dim>64</dim>
					<dim>64</dim>
					<dim>8</dim>
				</port>
				<port id="1" precision="FP32">
					<dim>1</dim>
					<dim>64</dim>
					<dim>1</dim>
					<dim>1</dim>
				</port>
			</input>
			<output>
				<port id="2" precision="FP32" names="759">
					<dim>1</dim>
					<dim>64</dim>
					<dim>64</dim>
					<dim>8</dim>
				</port>
			</output>
		</layer>
		<layer id="345" name="Constant_1333_compressed" type="Const" version="opset1">
			<data element_type="f16" shape="1" offset="132212" size="2" />
			<output>
				<port id="0" precision="FP16">
					<dim>1</dim>
				</port>
			</output>
		</layer>
		<layer id="346" name="Constant_1333" type="Convert" version="opset1">
			<data destination_type="f32" />
			<rt_info>
				<attribute name="decompression" version="0" />
			</rt_info>
			<input>
				<port id="0" precision="FP16">
					<dim>1</dim>
				</port>
			</input>
			<output>
				<port id="1" precision="FP32">
					<dim>1</dim>
				</port>
			</output>
		</layer>
		<layer id="347" name="LeakyRelu_330" type="PReLU" version="opset1">
			<input>
				<port id="0" precision="FP32">
					<dim>1</dim>
					<dim>64</dim>
					<dim>64</dim>
					<dim>8</dim>
				</port>
				<port id="1" precision="FP32">
					<dim>1</dim>
				</port>
			</input>
			<output>
				<port id="2" precision="FP32" names="760">
					<dim>1</dim>
					<dim>64</dim>
					<dim>64</dim>
					<dim>8</dim>
				</port>
			</output>
		</layer>
		<layer id="348" name="Concat_331" type="Concat" version="opset1">
			<data axis="3" />
			<input>
				<port id="0" precision="FP32">
					<dim>1</dim>
					<dim>64</dim>
					<dim>64</dim>
					<dim>2</dim>
				</port>
				<port id="1" precision="FP32">
					<dim>1</dim>
					<dim>64</dim>
					<dim>64</dim>
					<dim>8</dim>
				</port>
			</input>
			<output>
				<port id="2" precision="FP32" names="761">
					<dim>1</dim>
					<dim>64</dim>
					<dim>64</dim>
					<dim>10</dim>
				</port>
			</output>
		</layer>
		<layer id="349" name="blocks_down.1.bd_out.conv.weight_compressed" type="Const" version="opset1">
			<data element_type="f16" shape="64, 64, 3, 3" offset="194654" size="73728" />
			<output>
				<port id="0" precision="FP16">
					<dim>64</dim>
					<dim>64</dim>
					<dim>3</dim>
					<dim>3</dim>
				</port>
			</output>
		</layer>
		<layer id="350" name="blocks_down.1.bd_out.conv.weight" type="Convert" version="opset1">
			<data destination_type="f32" />
			<rt_info>
				<attribute name="decompression" version="0" />
			</rt_info>
			<input>
				<port id="0" precision="FP16">
					<dim>64</dim>
					<dim>64</dim>
					<dim>3</dim>
					<dim>3</dim>
				</port>
			</input>
			<output>
				<port id="1" precision="FP32" names="blocks_down.1.bd_out.conv.weight">
					<dim>64</dim>
					<dim>64</dim>
					<dim>3</dim>
					<dim>3</dim>
				</port>
			</output>
		</layer>
		<layer id="351" name="Conv_358/WithoutBiases" type="Convolution" version="opset1">
			<data strides="1, 1" dilations="1, 1" pads_begin="1, 0" pads_end="1, 0" auto_pad="explicit" />
			<input>
				<port id="0" precision="FP32">
					<dim>1</dim>
					<dim>64</dim>
					<dim>64</dim>
					<dim>10</dim>
				</port>
				<port id="1" precision="FP32">
					<dim>64</dim>
					<dim>64</dim>
					<dim>3</dim>
					<dim>3</dim>
				</port>
			</input>
			<output>
				<port id="2" precision="FP32">
					<dim>1</dim>
					<dim>64</dim>
					<dim>64</dim>
					<dim>8</dim>
				</port>
			</output>
		</layer>
		<layer id="352" name="Reshape_1406_compressed" type="Const" version="opset1">
			<data element_type="f16" shape="1, 64, 1, 1" offset="268382" size="128" />
			<output>
				<port id="0" precision="FP16">
					<dim>1</dim>
					<dim>64</dim>
					<dim>1</dim>
					<dim>1</dim>
				</port>
			</output>
		</layer>
		<layer id="353" name="Reshape_1406" type="Convert" version="opset1">
			<data destination_type="f32" />
			<rt_info>
				<attribute name="decompression" version="0" />
			</rt_info>
			<input>
				<port id="0" precision="FP16">
					<dim>1</dim>
					<dim>64</dim>
					<dim>1</dim>
					<dim>1</dim>
				</port>
			</input>
			<output>
				<port id="1" precision="FP32">
					<dim>1</dim>
					<dim>64</dim>
					<dim>1</dim>
					<dim>1</dim>
				</port>
			</output>
		</layer>
		<layer id="354" name="Conv_358" type="Add" version="opset1">
			<data auto_broadcast="numpy" />
			<input>
				<port id="0" precision="FP32">
					<dim>1</dim>
					<dim>64</dim>
					<dim>64</dim>
					<dim>8</dim>
				</port>
				<port id="1" precision="FP32">
					<dim>1</dim>
					<dim>64</dim>
					<dim>1</dim>
					<dim>1</dim>
				</port>
			</input>
			<output>
				<port id="2" precision="FP32" names="799">
					<dim>1</dim>
					<dim>64</dim>
					<dim>64</dim>
					<dim>8</dim>
				</port>
			</output>
		</layer>
		<layer id="355" name="blocks_down.1.sa.linear_qkv.weight_compressed" type="Const" version="opset1">
			<data element_type="f16" shape="192, 64, 1, 1" offset="268510" size="24576" />
			<output>
				<port id="0" precision="FP16">
					<dim>192</dim>
					<dim>64</dim>
					<dim>1</dim>
					<dim>1</dim>
				</port>
			</output>
		</layer>
		<layer id="356" name="blocks_down.1.sa.linear_qkv.weight" type="Convert" version="opset1">
			<data destination_type="f32" />
			<rt_info>
				<attribute name="decompression" version="0" />
			</rt_info>
			<input>
				<port id="0" precision="FP16">
					<dim>192</dim>
					<dim>64</dim>
					<dim>1</dim>
					<dim>1</dim>
				</port>
			</input>
			<output>
				<port id="1" precision="FP32" names="blocks_down.1.sa.linear_qkv.weight">
					<dim>192</dim>
					<dim>64</dim>
					<dim>1</dim>
					<dim>1</dim>
				</port>
			</output>
		</layer>
		<layer id="357" name="Conv_368/WithoutBiases" type="Convolution" version="opset1">
			<data strides="1, 1" dilations="1, 1" pads_begin="0, 0" pads_end="0, 0" auto_pad="explicit" />
			<input>
				<port id="0" precision="FP32">
					<dim>1</dim>
					<dim>64</dim>
					<dim>64</dim>
					<dim>8</dim>
				</port>
				<port id="1" precision="FP32">
					<dim>192</dim>
					<dim>64</dim>
					<dim>1</dim>
					<dim>1</dim>
				</port>
			</input>
			<output>
				<port id="2" precision="FP32">
					<dim>1</dim>
					<dim>192</dim>
					<dim>64</dim>
					<dim>8</dim>
				</port>
			</output>
		</layer>
		<layer id="358" name="Reshape_1433_compressed" type="Const" version="opset1">
			<data element_type="f16" shape="1, 192, 1, 1" offset="293086" size="384" />
			<output>
				<port id="0" precision="FP16">
					<dim>1</dim>
					<dim>192</dim>
					<dim>1</dim>
					<dim>1</dim>
				</port>
			</output>
		</layer>
		<layer id="359" name="Reshape_1433" type="Convert" version="opset1">
			<data destination_type="f32" />
			<rt_info>
				<attribute name="decompression" version="0" />
			</rt_info>
			<input>
				<port id="0" precision="FP16">
					<dim>1</dim>
					<dim>192</dim>
					<dim>1</dim>
					<dim>1</dim>
				</port>
			</input>
			<output>
				<port id="1" precision="FP32">
					<dim>1</dim>
					<dim>192</dim>
					<dim>1</dim>
					<dim>1</dim>
				</port>
			</output>
		</layer>
		<layer id="360" name="Conv_368" type="Add" version="opset1">
			<data auto_broadcast="numpy" />
			<input>
				<port id="0" precision="FP32">
					<dim>1</dim>
					<dim>192</dim>
					<dim>64</dim>
					<dim>8</dim>
				</port>
				<port id="1" precision="FP32">
					<dim>1</dim>
					<dim>192</dim>
					<dim>1</dim>
					<dim>1</dim>
				</port>
			</input>
			<output>
				<port id="2" precision="FP32" names="809">
					<dim>1</dim>
					<dim>192</dim>
					<dim>64</dim>
					<dim>8</dim>
				</port>
			</output>
		</layer>
		<layer id="361" name="Constant_1437" type="Const" version="opset1">
			<data element_type="i64" shape="4" offset="164230" size="32" />
			<output>
				<port id="0" precision="I64">
					<dim>4</dim>
				</port>
			</output>
		</layer>
		<layer id="362" name="Transpose_369" type="Transpose" version="opset1">
			<input>
				<port id="0" precision="FP32">
					<dim>1</dim>
					<dim>192</dim>
					<dim>64</dim>
					<dim>8</dim>
				</port>
				<port id="1" precision="I64">
					<dim>4</dim>
				</port>
			</input>
			<output>
				<port id="2" precision="FP32" names="810">
					<dim>1</dim>
					<dim>64</dim>
					<dim>192</dim>
					<dim>8</dim>
				</port>
			</output>
		</layer>
		<layer id="363" name="Constant_1439" type="Const" version="opset1">
			<data element_type="i64" shape="" offset="8" size="8" />
			<output>
				<port id="0" precision="I64" />
			</output>
		</layer>
		<layer id="364" name="Constant_1440" type="Const" version="opset1">
			<data element_type="i64" shape="3" offset="293470" size="24" />
			<output>
				<port id="0" precision="I64">
					<dim>3</dim>
				</port>
			</output>
		</layer>
		<layer id="365" name="Split_370" type="VariadicSplit" version="opset1">
			<input>
				<port id="0" precision="FP32">
					<dim>1</dim>
					<dim>64</dim>
					<dim>192</dim>
					<dim>8</dim>
				</port>
				<port id="1" precision="I64" />
				<port id="2" precision="I64">
					<dim>3</dim>
				</port>
			</input>
			<output>
				<port id="3" precision="FP32" names="811">
					<dim>1</dim>
					<dim>64</dim>
					<dim>64</dim>
					<dim>8</dim>
				</port>
				<port id="4" precision="FP32" names="812">
					<dim>1</dim>
					<dim>64</dim>
					<dim>64</dim>
					<dim>8</dim>
				</port>
				<port id="5" precision="FP32" names="813">
					<dim>1</dim>
					<dim>64</dim>
					<dim>64</dim>
					<dim>8</dim>
				</port>
			</output>
		</layer>
		<layer id="366" name="Shape_359" type="ShapeOf" version="opset3">
			<data output_type="i64" />
			<input>
				<port id="0" precision="FP32">
					<dim>1</dim>
					<dim>64</dim>
					<dim>64</dim>
					<dim>8</dim>
				</port>
			</input>
			<output>
				<port id="1" precision="I64" names="800,803,806">
					<dim>4</dim>
				</port>
			</output>
		</layer>
		<layer id="367" name="Constant_360" type="Const" version="opset1">
			<data element_type="i64" shape="" offset="132112" size="8" />
			<output>
				<port id="0" precision="I64" names="801" />
			</output>
		</layer>
		<layer id="368" name="Constant_1412" type="Const" version="opset1">
			<data element_type="i64" shape="" offset="132112" size="8" />
			<output>
				<port id="0" precision="I64" />
			</output>
		</layer>
		<layer id="369" name="Gather_361" type="Gather" version="opset8">
			<data batch_dims="0" />
			<input>
				<port id="0" precision="I64">
					<dim>4</dim>
				</port>
				<port id="1" precision="I64" />
				<port id="2" precision="I64" />
			</input>
			<output>
				<port id="3" precision="I64" names="802" />
			</output>
		</layer>
		<layer id="370" name="Constant_366" type="Const" version="opset1">
			<data element_type="i64" shape="" offset="8" size="8" />
			<output>
				<port id="0" precision="I64" names="807" />
			</output>
		</layer>
		<layer id="371" name="Constant_1420" type="Const" version="opset1">
			<data element_type="i64" shape="" offset="132112" size="8" />
			<output>
				<port id="0" precision="I64" />
			</output>
		</layer>
		<layer id="372" name="Gather_367" type="Gather" version="opset8">
			<data batch_dims="0" />
			<input>
				<port id="0" precision="I64">
					<dim>4</dim>
				</port>
				<port id="1" precision="I64" />
				<port id="2" precision="I64" />
			</input>
			<output>
				<port id="3" precision="I64" names="808" />
			</output>
		</layer>
		<layer id="373" name="Mul_401" type="Multiply" version="opset1">
			<data auto_broadcast="numpy" />
			<input>
				<port id="0" precision="I64" />
				<port id="1" precision="I64" />
			</input>
			<output>
				<port id="2" precision="I64" names="848" />
			</output>
		</layer>
		<layer id="374" name="Constant_1499" type="Const" version="opset1">
			<data element_type="i64" shape="1" offset="132112" size="8" />
			<output>
				<port id="0" precision="I64">
					<dim>1</dim>
				</port>
			</output>
		</layer>
		<layer id="375" name="Unsqueeze_402" type="Unsqueeze" version="opset1">
			<input>
				<port id="0" precision="I64" />
				<port id="1" precision="I64">
					<dim>1</dim>
				</port>
			</input>
			<output>
				<port id="2" precision="I64" names="851">
					<dim>1</dim>
				</port>
			</output>
		</layer>
		<layer id="376" name="3229" type="Const" version="opset1">
			<data element_type="i64" shape="1" offset="8" size="8" />
			<output>
				<port id="0" precision="I64" names="3229">
					<dim>1</dim>
				</port>
			</output>
		</layer>
		<layer id="377" name="3230" type="Const" version="opset1">
			<data element_type="i64" shape="1" offset="164286" size="8" />
			<output>
				<port id="0" precision="I64" names="3230">
					<dim>1</dim>
				</port>
			</output>
		</layer>
		<layer id="378" name="Constant_81190" type="Const" version="opset1">
			<data element_type="i64" shape="1" offset="132112" size="8" />
			<output>
				<port id="0" precision="I64">
					<dim>1</dim>
				</port>
			</output>
		</layer>
		<layer id="379" name="Concat_404" type="Concat" version="opset1">
			<data axis="0" />
			<input>
				<port id="0" precision="I64">
					<dim>1</dim>
				</port>
				<port id="1" precision="I64">
					<dim>1</dim>
				</port>
				<port id="2" precision="I64">
					<dim>1</dim>
				</port>
				<port id="3" precision="I64">
					<dim>1</dim>
				</port>
			</input>
			<output>
				<port id="4" precision="I64">
					<dim>4</dim>
				</port>
			</output>
		</layer>
		<layer id="380" name="Reshape_405" type="Reshape" version="opset1">
			<data special_zero="true" />
			<input>
				<port id="0" precision="FP32">
					<dim>1</dim>
					<dim>64</dim>
					<dim>64</dim>
					<dim>8</dim>
				</port>
				<port id="1" precision="I64">
					<dim>4</dim>
				</port>
			</input>
			<output>
				<port id="2" precision="FP32" names="856">
					<dim>64</dim>
					<dim>2</dim>
					<dim>32</dim>
					<dim>8</dim>
				</port>
			</output>
		</layer>
		<layer id="381" name="Concat_371" type="Concat" version="opset1">
			<data axis="3" />
			<input>
				<port id="0" precision="FP32">
					<dim>1</dim>
					<dim>64</dim>
					<dim>64</dim>
					<dim>22</dim>
				</port>
				<port id="1" precision="FP32">
					<dim>1</dim>
					<dim>64</dim>
					<dim>64</dim>
					<dim>8</dim>
				</port>
			</input>
			<output>
				<port id="2" precision="FP32" names="814">
					<dim>1</dim>
					<dim>64</dim>
					<dim>64</dim>
…
		<edge from-layer="2277" from-port="0" to-layer="2280" to-port="0" />
		<edge from-layer="2278" from-port="0" to-layer="2279" to-port="1" />
		<edge from-layer="2279" from-port="2" to-layer="2280" to-port="2" />
		<edge from-layer="2280" from-port="4" to-layer="2282" to-port="2" />
		<edge from-layer="2281" from-port="0" to-layer="2282" to-port="3" />
		<edge from-layer="2282" from-port="4" to-layer="2283" to-port="0" />
		<edge from-layer="2284" from-port="0" to-layer="2295" to-port="0" />
		<edge from-layer="2285" from-port="0" to-layer="2299" to-port="1" />
		<edge from-layer="2285" from-port="0" to-layer="2295" to-port="1" />
		<edge from-layer="2286" from-port="1" to-layer="2289" to-port="0" />
		<edge from-layer="2287" from-port="0" to-layer="2289" to-port="1" />
		<edge from-layer="2288" from-port="0" to-layer="2289" to-port="2" />
		<edge from-layer="2289" from-port="3" to-layer="2291" to-port="0" />
		<edge from-layer="2290" from-port="0" to-layer="2291" to-port="1" />
		<edge from-layer="2291" from-port="2" to-layer="2293" to-port="0" />
		<edge from-layer="2292" from-port="0" to-layer="2293" to-port="1" />
		<edge from-layer="2293" from-port="2" to-layer="2295" to-port="2" />
		<edge from-layer="2293" from-port="2" to-layer="2298" to-port="0" />
		<edge from-layer="2294" from-port="0" to-layer="2295" to-port="3" />
		<edge from-layer="2294" from-port="0" to-layer="2299" to-port="3" />
		<edge from-layer="2295" from-port="4" to-layer="2301" to-port="1" />
		<edge from-layer="2296" from-port="0" to-layer="2299" to-port="0" />
		<edge from-layer="2297" from-port="0" to-layer="2298" to-port="1" />
		<edge from-layer="2298" from-port="2" to-layer="2299" to-port="2" />
		<edge from-layer="2299" from-port="4" to-layer="2301" to-port="2" />
		<edge from-layer="2300" from-port="0" to-layer="2301" to-port="3" />
		<edge from-layer="2301" from-port="4" to-layer="2302" to-port="0" />
		<edge from-layer="2303" from-port="0" to-layer="2314" to-port="0" />
		<edge from-layer="2304" from-port="0" to-layer="2318" to-port="1" />
		<edge from-layer="2304" from-port="0" to-layer="2314" to-port="1" />
		<edge from-layer="2305" from-port="1" to-layer="2308" to-port="0" />
		<edge from-layer="2306" from-port="0" to-layer="2308" to-port="1" />
		<edge from-layer="2307" from-port="0" to-layer="2308" to-port="2" />
		<edge from-layer="2308" from-port="3" to-layer="2310" to-port="0" />
		<edge from-layer="2309" from-port="0" to-layer="2310" to-port="1" />
		<edge from-layer="2310" from-port="2" to-layer="2312" to-port="0" />
		<edge from-layer="2311" from-port="0" to-layer="2312" to-port="1" />
		<edge from-layer="2312" from-port="2" to-layer="2314" to-port="2" />
		<edge from-layer="2312" from-port="2" to-layer="2317" to-port="0" />
		<edge from-layer="2313" from-port="0" to-layer="2314" to-port="3" />
		<edge from-layer="2313" from-port="0" to-layer="2318" to-port="3" />
		<edge from-layer="2314" from-port="4" to-layer="2320" to-port="1" />
		<edge from-layer="2315" from-port="0" to-layer="2318" to-port="0" />
		<edge from-layer="2316" from-port="0" to-layer="2317" to-port="1" />
		<edge from-layer="2317" from-port="2" to-layer="2318" to-port="2" />
		<edge from-layer="2318" from-port="4" to-layer="2320" to-port="2" />
		<edge from-layer="2319" from-port="0" to-layer="2320" to-port="3" />
		<edge from-layer="2320" from-port="4" to-layer="2321" to-port="0" />
		<edge from-layer="2322" from-port="0" to-layer="2333" to-port="0" />
		<edge from-layer="2323" from-port="0" to-layer="2337" to-port="1" />
		<edge from-layer="2323" from-port="0" to-layer="2333" to-port="1" />
		<edge from-layer="2324" from-port="1" to-layer="2327" to-port="0" />
		<edge from-layer="2325" from-port="0" to-layer="2327" to-port="1" />
		<edge from-layer="2326" from-port="0" to-layer="2327" to-port="2" />
		<edge from-layer="2327" from-port="3" to-layer="2329" to-port="0" />
		<edge from-layer="2328" from-port="0" to-layer="2329" to-port="1" />
		<edge from-layer="2329" from-port="2" to-layer="2331" to-port="0" />
		<edge from-layer="2330" from-port="0" to-layer="2331" to-port="1" />
		<edge from-layer="2331" from-port="2" to-layer="2336" to-port="0" />
		<edge from-layer="2331" from-port="2" to-layer="2333" to-port="2" />
		<edge from-layer="2332" from-port="0" to-layer="2337" to-port="3" />
		<edge from-layer="2332" from-port="0" to-layer="2333" to-port="3" />
		<edge from-layer="2333" from-port="4" to-layer="2339" to-port="1" />
		<edge from-layer="2334" from-port="0" to-layer="2337" to-port="0" />
		<edge from-layer="2335" from-port="0" to-layer="2336" to-port="1" />
		<edge from-layer="2336" from-port="2" to-layer="2337" to-port="2" />
		<edge from-layer="2337" from-port="4" to-layer="2339" to-port="2" />
		<edge from-layer="2338" from-port="0" to-layer="2339" to-port="3" />
		<edge from-layer="2339" from-port="4" to-layer="2340" to-port="0" />
		<edge from-layer="2341" from-port="0" to-layer="2352" to-port="0" />
		<edge from-layer="2342" from-port="0" to-layer="2352" to-port="1" />
		<edge from-layer="2342" from-port="0" to-layer="2356" to-port="1" />
		<edge from-layer="2343" from-port="1" to-layer="2346" to-port="0" />
		<edge from-layer="2344" from-port="0" to-layer="2346" to-port="1" />
		<edge from-layer="2345" from-port="0" to-layer="2346" to-port="2" />
		<edge from-layer="2346" from-port="3" to-layer="2348" to-port="0" />
		<edge from-layer="2347" from-port="0" to-layer="2348" to-port="1" />
		<edge from-layer="2348" from-port="2" to-layer="2350" to-port="0" />
		<edge from-layer="2349" from-port="0" to-layer="2350" to-port="1" />
		<edge from-layer="2350" from-port="2" to-layer="2352" to-port="2" />
		<edge from-layer="2350" from-port="2" to-layer="2355" to-port="0" />
		<edge from-layer="2351" from-port="0" to-layer="2356" to-port="3" />
		<edge from-layer="2351" from-port="0" to-layer="2352" to-port="3" />
		<edge from-layer="2352" from-port="4" to-layer="2358" to-port="1" />
		<edge from-layer="2353" from-port="0" to-layer="2356" to-port="0" />
		<edge from-layer="2354" from-port="0" to-layer="2355" to-port="1" />
		<edge from-layer="2355" from-port="2" to-layer="2356" to-port="2" />
		<edge from-layer="2356" from-port="4" to-layer="2358" to-port="2" />
		<edge from-layer="2357" from-port="0" to-layer="2358" to-port="3" />
		<edge from-layer="2358" from-port="4" to-layer="2359" to-port="0" />
		<edge from-layer="2360" from-port="0" to-layer="2371" to-port="0" />
		<edge from-layer="2361" from-port="0" to-layer="2371" to-port="1" />
		<edge from-layer="2361" from-port="0" to-layer="2375" to-port="1" />
		<edge from-layer="2362" from-port="1" to-layer="2365" to-port="0" />
		<edge from-layer="2363" from-port="0" to-layer="2365" to-port="1" />
		<edge from-layer="2364" from-port="0" to-layer="2365" to-port="2" />
		<edge from-layer="2365" from-port="3" to-layer="2367" to-port="0" />
		<edge from-layer="2366" from-port="0" to-layer="2367" to-port="1" />
		<edge from-layer="2367" from-port="2" to-layer="2369" to-port="0" />
		<edge from-layer="2368" from-port="0" to-layer="2369" to-port="1" />
		<edge from-layer="2369" from-port="2" to-layer="2374" to-port="0" />
		<edge from-layer="2369" from-port="2" to-layer="2371" to-port="2" />
		<edge from-layer="2370" from-port="0" to-layer="2375" to-port="3" />
		<edge from-layer="2370" from-port="0" to-layer="2371" to-port="3" />
		<edge from-layer="2371" from-port="4" to-layer="2377" to-port="1" />
		<edge from-layer="2372" from-port="0" to-layer="2375" to-port="0" />
		<edge from-layer="2373" from-port="0" to-layer="2374" to-port="1" />
		<edge from-layer="2374" from-port="2" to-layer="2375" to-port="2" />
		<edge from-layer="2375" from-port="4" to-layer="2377" to-port="2" />
		<edge from-layer="2376" from-port="0" to-layer="2377" to-port="3" />
		<edge from-layer="2377" from-port="4" to-layer="2378" to-port="0" />
		<edge from-layer="2379" from-port="0" to-layer="2389" to-port="0" />
		<edge from-layer="2380" from-port="0" to-layer="2389" to-port="1" />
		<edge from-layer="2380" from-port="0" to-layer="2393" to-port="1" />
		<edge from-layer="2381" from-port="0" to-layer="2383" to-port="1" />
		<edge from-layer="2382" from-port="0" to-layer="2383" to-port="2" />
		<edge from-layer="2383" from-port="3" to-layer="2385" to-port="0" />
		<edge from-layer="2384" from-port="0" to-layer="2385" to-port="1" />
		<edge from-layer="2385" from-port="2" to-layer="2387" to-port="0" />
		<edge from-layer="2386" from-port="0" to-layer="2387" to-port="1" />
		<edge from-layer="2387" from-port="2" to-layer="2392" to-port="0" />
		<edge from-layer="2387" from-port="2" to-layer="2389" to-port="2" />
		<edge from-layer="2388" from-port="0" to-layer="2393" to-port="3" />
		<edge from-layer="2388" from-port="0" to-layer="2389" to-port="3" />
		<edge from-layer="2389" from-port="4" to-layer="2395" to-port="1" />
		<edge from-layer="2390" from-port="0" to-layer="2393" to-port="0" />
		<edge from-layer="2391" from-port="0" to-layer="2392" to-port="1" />
		<edge from-layer="2392" from-port="2" to-layer="2393" to-port="2" />
		<edge from-layer="2393" from-port="4" to-layer="2395" to-port="2" />
		<edge from-layer="2394" from-port="0" to-layer="2395" to-port="3" />
		<edge from-layer="2395" from-port="4" to-layer="2396" to-port="0" />
		<edge from-layer="2397" from-port="0" to-layer="2408" to-port="0" />
		<edge from-layer="2398" from-port="0" to-layer="2412" to-port="1" />
		<edge from-layer="2398" from-port="0" to-layer="2408" to-port="1" />
		<edge from-layer="2399" from-port="1" to-layer="2402" to-port="0" />
		<edge from-layer="2400" from-port="0" to-layer="2402" to-port="1" />
		<edge from-layer="2401" from-port="0" to-layer="2402" to-port="2" />
		<edge from-layer="2402" from-port="3" to-layer="2404" to-port="0" />
		<edge from-layer="2403" from-port="0" to-layer="2404" to-port="1" />
		<edge from-layer="2404" from-port="2" to-layer="2406" to-port="0" />
		<edge from-layer="2405" from-port="0" to-layer="2406" to-port="1" />
		<edge from-layer="2406" from-port="2" to-layer="2408" to-port="2" />
		<edge from-layer="2406" from-port="2" to-layer="2411" to-port="0" />
		<edge from-layer="2407" from-port="0" to-layer="2408" to-port="3" />
		<edge from-layer="2407" from-port="0" to-layer="2412" to-port="3" />
		<edge from-layer="2408" from-port="4" to-layer="2414" to-port="1" />
		<edge from-layer="2409" from-port="0" to-layer="2412" to-port="0" />
		<edge from-layer="2410" from-port="0" to-layer="2411" to-port="1" />
		<edge from-layer="2411" from-port="2" to-layer="2412" to-port="2" />
		<edge from-layer="2412" from-port="4" to-layer="2414" to-port="2" />
		<edge from-layer="2413" from-port="0" to-layer="2414" to-port="3" />
		<edge from-layer="2414" from-port="4" to-layer="2415" to-port="0" />
		<edge from-layer="2416" from-port="0" to-layer="2427" to-port="0" />
		<edge from-layer="2417" from-port="0" to-layer="2431" to-port="1" />
		<edge from-layer="2417" from-port="0" to-layer="2427" to-port="1" />
		<edge from-layer="2418" from-port="1" to-layer="2421" to-port="0" />
		<edge from-layer="2419" from-port="0" to-layer="2421" to-port="1" />
		<edge from-layer="2420" from-port="0" to-layer="2421" to-port="2" />
		<edge from-layer="2421" from-port="3" to-layer="2423" to-port="0" />
		<edge from-layer="2422" from-port="0" to-layer="2423" to-port="1" />
		<edge from-layer="2423" from-port="2" to-layer="2425" to-port="0" />
		<edge from-layer="2424" from-port="0" to-layer="2425" to-port="1" />
		<edge from-layer="2425" from-port="2" to-layer="2427" to-port="2" />
		<edge from-layer="2425" from-port="2" to-layer="2430" to-port="0" />
		<edge from-layer="2426" from-port="0" to-layer="2431" to-port="3" />
		<edge from-layer="2426" from-port="0" to-layer="2427" to-port="3" />
		<edge from-layer="2427" from-port="4" to-layer="2433" to-port="1" />
		<edge from-layer="2428" from-port="0" to-layer="2431" to-port="0" />
		<edge from-layer="2429" from-port="0" to-layer="2430" to-port="1" />
		<edge from-layer="2430" from-port="2" to-layer="2431" to-port="2" />
		<edge from-layer="2431" from-port="4" to-layer="2433" to-port="2" />
		<edge from-layer="2432" from-port="0" to-layer="2433" to-port="3" />
		<edge from-layer="2433" from-port="4" to-layer="2434" to-port="0" />
		<edge from-layer="2435" from-port="0" to-layer="2446" to-port="0" />
		<edge from-layer="2436" from-port="0" to-layer="2446" to-port="1" />
		<edge from-layer="2436" from-port="0" to-layer="2450" to-port="1" />
		<edge from-layer="2437" from-port="1" to-layer="2440" to-port="0" />
		<edge from-layer="2438" from-port="0" to-layer="2440" to-port="1" />
		<edge from-layer="2439" from-port="0" to-layer="2440" to-port="2" />
		<edge from-layer="2440" from-port="3" to-layer="2442" to-port="0" />
		<edge from-layer="2441" from-port="0" to-layer="2442" to-port="1" />
		<edge from-layer="2442" from-port="2" to-layer="2444" to-port="0" />
		<edge from-layer="2443" from-port="0" to-layer="2444" to-port="1" />
		<edge from-layer="2444" from-port="2" to-layer="2446" to-port="2" />
		<edge from-layer="2444" from-port="2" to-layer="2449" to-port="0" />
		<edge from-layer="2445" from-port="0" to-layer="2450" to-port="3" />
		<edge from-layer="2445" from-port="0" to-layer="2446" to-port="3" />
		<edge from-layer="2446" from-port="4" to-layer="2452" to-port="1" />
		<edge from-layer="2447" from-port="0" to-layer="2450" to-port="0" />
		<edge from-layer="2448" from-port="0" to-layer="2449" to-port="1" />
		<edge from-layer="2449" from-port="2" to-layer="2450" to-port="2" />
		<edge from-layer="2450" from-port="4" to-layer="2452" to-port="2" />
		<edge from-layer="2451" from-port="0" to-layer="2452" to-port="3" />
		<edge from-layer="2452" from-port="4" to-layer="2453" to-port="0" />
		<edge from-layer="2454" from-port="0" to-layer="2465" to-port="0" />
		<edge from-layer="2455" from-port="0" to-layer="2465" to-port="1" />
		<edge from-layer="2455" from-port="0" to-layer="2469" to-port="1" />
		<edge from-layer="2456" from-port="1" to-layer="2459" to-port="0" />
		<edge from-layer="2457" from-port="0" to-layer="2459" to-port="1" />
		<edge from-layer="2458" from-port="0" to-layer="2459" to-port="2" />
		<edge from-layer="2459" from-port="3" to-layer="2461" to-port="0" />
		<edge from-layer="2460" from-port="0" to-layer="2461" to-port="1" />
		<edge from-layer="2461" from-port="2" to-layer="2463" to-port="0" />
		<edge from-layer="2462" from-port="0" to-layer="2463" to-port="1" />
		<edge from-layer="2463" from-port="2" to-layer="2468" to-port="0" />
		<edge from-layer="2463" from-port="2" to-layer="2465" to-port="2" />
		<edge from-layer="2464" from-port="0" to-layer="2469" to-port="3" />
		<edge from-layer="2464" from-port="0" to-layer="2465" to-port="3" />
		<edge from-layer="2465" from-port="4" to-layer="2471" to-port="1" />
		<edge from-layer="2466" from-port="0" to-layer="2469" to-port="0" />
		<edge from-layer="2467" from-port="0" to-layer="2468" to-port="1" />
		<edge from-layer="2468" from-port="2" to-layer="2469" to-port="2" />
		<edge from-layer="2469" from-port="4" to-layer="2471" to-port="2" />
		<edge from-layer="2470" from-port="0" to-layer="2471" to-port="3" />
		<edge from-layer="2471" from-port="4" to-layer="2472" to-port="0" />
		<edge from-layer="2473" from-port="0" to-layer="2483" to-port="0" />
		<edge from-layer="2474" from-port="0" to-layer="2483" to-port="1" />
		<edge from-layer="2474" from-port="0" to-layer="2487" to-port="1" />
		<edge from-layer="2475" from-port="0" to-layer="2477" to-port="1" />
		<edge from-layer="2476" from-port="0" to-layer="2477" to-port="2" />
		<edge from-layer="2477" from-port="3" to-layer="2479" to-port="0" />
		<edge from-layer="2478" from-port="0" to-layer="2479" to-port="1" />
		<edge from-layer="2479" from-port="2" to-layer="2481" to-port="0" />
		<edge from-layer="2480" from-port="0" to-layer="2481" to-port="1" />
		<edge from-layer="2481" from-port="2" to-layer="2483" to-port="2" />
		<edge from-layer="2481" from-port="2" to-layer="2486" to-port="0" />
		<edge from-layer="2482" from-port="0" to-layer="2483" to-port="3" />
		<edge from-layer="2482" from-port="0" to-layer="2487" to-port="3" />
		<edge from-layer="2483" from-port="4" to-layer="2489" to-port="1" />
		<edge from-layer="2484" from-port="0" to-layer="2487" to-port="0" />
		<edge from-layer="2485" from-port="0" to-layer="2486" to-port="1" />
		<edge from-layer="2486" from-port="2" to-layer="2487" to-port="2" />
		<edge from-layer="2487" from-port="4" to-layer="2489" to-port="2" />
		<edge from-layer="2488" from-port="0" to-layer="2489" to-port="3" />
		<edge from-layer="2489" from-port="4" to-layer="2490" to-port="0" />
		<edge from-layer="2491" from-port="0" to-layer="2502" to-port="0" />
		<edge from-layer="2492" from-port="0" to-layer="2502" to-port="1" />
		<edge from-layer="2492" from-port="0" to-layer="2506" to-port="1" />
		<edge from-layer="2493" from-port="1" to-layer="2496" to-port="0" />
		<edge from-layer="2494" from-port="0" to-layer="2496" to-port="1" />
		<edge from-layer="2495" from-port="0" to-layer="2496" to-port="2" />
		<edge from-layer="2496" from-port="3" to-layer="2498" to-port="0" />
		<edge from-layer="2497" from-port="0" to-layer="2498" to-port="1" />
		<edge from-layer="2498" from-port="2" to-layer="2500" to-port="0" />
		<edge from-layer="2499" from-port="0" to-layer="2500" to-port="1" />
		<edge from-layer="2500" from-port="2" to-layer="2505" to-port="0" />
		<edge from-layer="2500" from-port="2" to-layer="2502" to-port="2" />
		<edge from-layer="2501" from-port="0" to-layer="2502" to-port="3" />
		<edge from-layer="2501" from-port="0" to-layer="2506" to-port="3" />
		<edge from-layer="2502" from-port="4" to-layer="2508" to-port="1" />
		<edge from-layer="2503" from-port="0" to-layer="2506" to-port="0" />
		<edge from-layer="2504" from-port="0" to-layer="2505" to-port="1" />
		<edge from-layer="2505" from-port="2" to-layer="2506" to-port="2" />
		<edge from-layer="2506" from-port="4" to-layer="2508" to-port="2" />
		<edge from-layer="2507" from-port="0" to-layer="2508" to-port="3" />
		<edge from-layer="2508" from-port="4" to-layer="2509" to-port="0" />
		<edge from-layer="2510" from-port="0" to-layer="2521" to-port="0" />
		<edge from-layer="2511" from-port="0" to-layer="2521" to-port="1" />
		<edge from-layer="2511" from-port="0" to-layer="2525" to-port="1" />
		<edge from-layer="2512" from-port="1" to-layer="2515" to-port="0" />
		<edge from-layer="2513" from-port="0" to-layer="2515" to-port="1" />
		<edge from-layer="2514" from-port="0" to-layer="2515" to-port="2" />
		<edge from-layer="2515" from-port="3" to-layer="2517" to-port="0" />
		<edge from-layer="2516" from-port="0" to-layer="2517" to-port="1" />
		<edge from-layer="2517" from-port="2" to-layer="2519" to-port="0" />
		<edge from-layer="2518" from-port="0" to-layer="2519" to-port="1" />
		<edge from-layer="2519" from-port="2" to-layer="2524" to-port="0" />
		<edge from-layer="2519" from-port="2" to-layer="2521" to-port="2" />
		<edge from-layer="2520" from-port="0" to-layer="2525" to-port="3" />
		<edge from-layer="2520" from-port="0" to-layer="2521" to-port="3" />
		<edge from-layer="2521" from-port="4" to-layer="2527" to-port="1" />
		<edge from-layer="2522" from-port="0" to-layer="2525" to-port="0" />
		<edge from-layer="2523" from-port="0" to-layer="2524" to-port="1" />
		<edge from-layer="2524" from-port="2" to-layer="2525" to-port="2" />
		<edge from-layer="2525" from-port="4" to-layer="2527" to-port="2" />
		<edge from-layer="2526" from-port="0" to-layer="2527" to-port="3" />
		<edge from-layer="2527" from-port="4" to-layer="2528" to-port="0" />
		<edge from-layer="2529" from-port="0" to-layer="2540" to-port="0" />
		<edge from-layer="2530" from-port="0" to-layer="2544" to-port="1" />
		<edge from-layer="2530" from-port="0" to-layer="2540" to-port="1" />
		<edge from-layer="2531" from-port="1" to-layer="2534" to-port="0" />
		<edge from-layer="2532" from-port="0" to-layer="2534" to-port="1" />
		<edge from-layer="2533" from-port="0" to-layer="2534" to-port="2" />
		<edge from-layer="2534" from-port="3" to-layer="2536" to-port="0" />
		<edge from-layer="2535" from-port="0" to-layer="2536" to-port="1" />
		<edge from-layer="2536" from-port="2" to-layer="2538" to-port="0" />
		<edge from-layer="2537" from-port="0" to-layer="2538" to-port="1" />
		<edge from-layer="2538" from-port="2" to-layer="2543" to-port="0" />
		<edge from-layer="2538" from-port="2" to-layer="2540" to-port="2" />
		<edge from-layer="2539" from-port="0" to-layer="2544" to-port="3" />
		<edge from-layer="2539" from-port="0" to-layer="2540" to-port="3" />
		<edge from-layer="2540" from-port="4" to-layer="2546" to-port="1" />
		<edge from-layer="2541" from-port="0" to-layer="2544" to-port="0" />
		<edge from-layer="2542" from-port="0" to-layer="2543" to-port="1" />
		<edge from-layer="2543" from-port="2" to-layer="2544" to-port="2" />
		<edge from-layer="2544" from-port="4" to-layer="2546" to-port="2" />
		<edge from-layer="2545" from-port="0" to-layer="2546" to-port="3" />
		<edge from-layer="2546" from-port="4" to-layer="2547" to-port="0" />
		<edge from-layer="2548" from-port="0" to-layer="2559" to-port="0" />
		<edge from-layer="2549" from-port="0" to-layer="2563" to-port="1" />
		<edge from-layer="2549" from-port="0" to-layer="2559" to-port="1" />
		<edge from-layer="2550" from-port="1" to-layer="2553" to-port="0" />
		<edge from-layer="2551" from-port="0" to-layer="2553" to-port="1" />
		<edge from-layer="2552" from-port="0" to-layer="2553" to-port="2" />
		<edge from-layer="2553" from-port="3" to-layer="2555" to-port="0" />
		<edge from-layer="2554" from-port="0" to-layer="2555" to-port="1" />
		<edge from-layer="2555" from-port="2" to-layer="2557" to-port="0" />
		<edge from-layer="2556" from-port="0" to-layer="2557" to-port="1" />
		<edge from-layer="2557" from-port="2" to-layer="2559" to-port="2" />
		<edge from-layer="2557" from-port="2" to-layer="2562" to-port="0" />
		<edge from-layer="2558" from-port="0" to-layer="2559" to-port="3" />
		<edge from-layer="2558" from-port="0" to-layer="2563" to-port="3" />
		<edge from-layer="2559" from-port="4" to-layer="2565" to-port="1" />
		<edge from-layer="2560" from-port="0" to-layer="2563" to-port="0" />
		<edge from-layer="2561" from-port="0" to-layer="2562" to-port="1" />
		<edge from-layer="2562" from-port="2" to-layer="2563" to-port="2" />
		<edge from-layer="2563" from-port="4" to-layer="2565" to-port="2" />
		<edge from-layer="2564" from-port="0" to-layer="2565" to-port="3" />
		<edge from-layer="2565" from-port="4" to-layer="2566" to-port="0" />
		<edge from-layer="2567" from-port="0" to-layer="2577" to-port="0" />
		<edge from-layer="2568" from-port="0" to-layer="2581" to-port="1" />
		<edge from-layer="2568" from-port="0" to-layer="2577" to-port="1" />
		<edge from-layer="2569" from-port="0" to-layer="2571" to-port="1" />
		<edge from-layer="2570" from-port="0" to-layer="2571" to-port="2" />
		<edge from-layer="2571" from-port="3" to-layer="2573" to-port="0" />
		<edge from-layer="2572" from-port="0" to-layer="2573" to-port="1" />
		<edge from-layer="2573" from-port="2" to-layer="2575" to-port="0" />
		<edge from-layer="2574" from-port="0" to-layer="2575" to-port="1" />
		<edge from-layer="2575" from-port="2" to-layer="2577" to-port="2" />
		<edge from-layer="2575" from-port="2" to-layer="2580" to-port="0" />
		<edge from-layer="2576" from-port="0" to-layer="2577" to-port="3" />
		<edge from-layer="2576" from-port="0" to-layer="2581" to-port="3" />
		<edge from-layer="2577" from-port="4" to-layer="2583" to-port="1" />
		<edge from-layer="2578" from-port="0" to-layer="2581" to-port="0" />
		<edge from-layer="2579" from-port="0" to-layer="2580" to-port="1" />
		<edge from-layer="2580" from-port="2" to-layer="2581" to-port="2" />
		<edge from-layer="2581" from-port="4" to-layer="2583" to-port="2" />
		<edge from-layer="2582" from-port="0" to-layer="2583" to-port="3" />
		<edge from-layer="2583" from-port="4" to-layer="2584" to-port="0" />
		<edge from-layer="2585" from-port="0" to-layer="2596" to-port="0" />
		<edge from-layer="2586" from-port="0" to-layer="2600" to-port="1" />
		<edge from-layer="2586" from-port="0" to-layer="2596" to-port="1" />
		<edge from-layer="2587" from-port="1" to-layer="2590" to-port="0" />
		<edge from-layer="2588" from-port="0" to-layer="2590" to-port="1" />
		<edge from-layer="2589" from-port="0" to-layer="2590" to-port="2" />
		<edge from-layer="2590" from-port="3" to-layer="2592" to-port="0" />
		<edge from-layer="2591" from-port="0" to-layer="2592" to-port="1" />
		<edge from-layer="2592" from-port="2" to-layer="2594" to-port="0" />
		<edge from-layer="2593" from-port="0" to-layer="2594" to-port="1" />
		<edge from-layer="2594" from-port="2" to-layer="2596" to-port="2" />
		<edge from-layer="2594" from-port="2" to-layer="2599" to-port="0" />
		<edge from-layer="2595" from-port="0" to-layer="2596" to-port="3" />
		<edge from-layer="2595" from-port="0" to-layer="2600" to-port="3" />
		<edge from-layer="2596" from-port="4" to-layer="2602" to-port="1" />
		<edge from-layer="2597" from-port="0" to-layer="2600" to-port="0" />
		<edge from-layer="2598" from-port="0" to-layer="2599" to-port="1" />
		<edge from-layer="2599" from-port="2" to-layer="2600" to-port="2" />
		<edge from-layer="2600" from-port="4" to-layer="2602" to-port="2" />
		<edge from-layer="2601" from-port="0" to-layer="2602" to-port="3" />
		<edge from-layer="2602" from-port="4" to-layer="2603" to-port="0" />
		<edge from-layer="2604" from-port="0" to-layer="2615" to-port="0" />
		<edge from-layer="2605" from-port="0" to-layer="2615" to-port="1" />
		<edge from-layer="2605" from-port="0" to-layer="2619" to-port="1" />
		<edge from-layer="2606" from-port="1" to-layer="2609" to-port="0" />
		<edge from-layer="2607" from-port="0" to-layer="2609" to-port="1" />
		<edge from-layer="2608" from-port="0" to-layer="2609" to-port="2" />
		<edge from-layer="2609" from-port="3" to-layer="2611" to-port="0" />
		<edge from-layer="2610" from-port="0" to-layer="2611" to-port="1" />
		<edge from-layer="2611" from-port="2" to-layer="2613" to-port="0" />
		<edge from-layer="2612" from-port="0" to-layer="2613" to-port="1" />
		<edge from-layer="2613" from-port="2" to-layer="2615" to-port="2" />
		<edge from-layer="2613" from-port="2" to-layer="2618" to-port="0" />
		<edge from-layer="2614" from-port="0" to-layer="2619" to-port="3" />
		<edge from-layer="2614" from-port="0" to-layer="2615" to-port="3" />
		<edge from-layer="2615" from-port="4" to-layer="2621" to-port="1" />
		<edge from-layer="2616" from-port="0" to-layer="2619" to-port="0" />
		<edge from-layer="2617" from-port="0" to-layer="2618" to-port="1" />
		<edge from-layer="2618" from-port="2" to-layer="2619" to-port="2" />
		<edge from-layer="2619" from-port="4" to-layer="2621" to-port="2" />
		<edge from-layer="2620" from-port="0" to-layer="2621" to-port="3" />
		<edge from-layer="2621" from-port="4" to-layer="2622" to-port="0" />
		<edge from-layer="2623" from-port="0" to-layer="2634" to-port="0" />
		<edge from-layer="2624" from-port="0" to-layer="2638" to-port="1" />
		<edge from-layer="2624" from-port="0" to-layer="2634" to-port="1" />
		<edge from-layer="2625" from-port="1" to-layer="2628" to-port="0" />
		<edge from-layer="2626" from-port="0" to-layer="2628" to-port="1" />
		<edge from-layer="2627" from-port="0" to-layer="2628" to-port="2" />
		<edge from-layer="2628" from-port="3" to-layer="2630" to-port="0" />
		<edge from-layer="2629" from-port="0" to-layer="2630" to-port="1" />
		<edge from-layer="2630" from-port="2" to-layer="2632" to-port="0" />
		<edge from-layer="2631" from-port="0" to-layer="2632" to-port="1" />
		<edge from-layer="2632" from-port="2" to-layer="2634" to-port="2" />
		<edge from-layer="2632" from-port="2" to-layer="2637" to-port="0" />
		<edge from-layer="2633" from-port="0" to-layer="2634" to-port="3" />
		<edge from-layer="2633" from-port="0" to-layer="2638" to-port="3" />
		<edge from-layer="2634" from-port="4" to-layer="2640" to-port="1" />
		<edge from-layer="2635" from-port="0" to-layer="2638" to-port="0" />
		<edge from-layer="2636" from-port="0" to-layer="2637" to-port="1" />
		<edge from-layer="2637" from-port="2" to-layer="2638" to-port="2" />
		<edge from-layer="2638" from-port="4" to-layer="2640" to-port="2" />
		<edge from-layer="2639" from-port="0" to-layer="2640" to-port="3" />
		<edge from-layer="2640" from-port="4" to-layer="2641" to-port="0" />
		<edge from-layer="2642" from-port="0" to-layer="2653" to-port="0" />
		<edge from-layer="2643" from-port="0" to-layer="2653" to-port="1" />
		<edge from-layer="2643" from-port="0" to-layer="2657" to-port="1" />
		<edge from-layer="2644" from-port="1" to-layer="2647" to-port="0" />
		<edge from-layer="2645" from-port="0" to-layer="2647" to-port="1" />
		<edge from-layer="2646" from-port="0" to-layer="2647" to-port="2" />
		<edge from-layer="2647" from-port="3" to-layer="2649" to-port="0" />
		<edge from-layer="2648" from-port="0" to-layer="2649" to-port="1" />
		<edge from-layer="2649" from-port="2" to-layer="2651" to-port="0" />
		<edge from-layer="2650" from-port="0" to-layer="2651" to-port="1" />
		<edge from-layer="2651" from-port="2" to-layer="2656" to-port="0" />
		<edge from-layer="2651" from-port="2" to-layer="2653" to-port="2" />
		<edge from-layer="2652" from-port="0" to-layer="2657" to-port="3" />
		<edge from-layer="2652" from-port="0" to-layer="2653" to-port="3" />
		<edge from-layer="2653" from-port="4" to-layer="2659" to-port="1" />
		<edge from-layer="2654" from-port="0" to-layer="2657" to-port="0" />
		<edge from-layer="2655" from-port="0" to-layer="2656" to-port="1" />
		<edge from-layer="2656" from-port="2" to-layer="2657" to-port="2" />
		<edge from-layer="2657" from-port="4" to-layer="2659" to-port="2" />
		<edge from-layer="2658" from-port="0" to-layer="2659" to-port="3" />
		<edge from-layer="2659" from-port="4" to-layer="2660" to-port="0" />
		<edge from-layer="2661" from-port="0" to-layer="2671" to-port="0" />
		<edge from-layer="2662" from-port="0" to-layer="2675" to-port="1" />
		<edge from-layer="2662" from-port="0" to-layer="2671" to-port="1" />
		<edge from-layer="2663" from-port="0" to-layer="2665" to-port="1" />
		<edge from-layer="2664" from-port="0" to-layer="2665" to-port="2" />
		<edge from-layer="2665" from-port="3" to-layer="2667" to-port="0" />
		<edge from-layer="2666" from-port="0" to-layer="2667" to-port="1" />
		<edge from-layer="2667" from-port="2" to-layer="2669" to-port="0" />
		<edge from-layer="2668" from-port="0" to-layer="2669" to-port="1" />
		<edge from-layer="2669" from-port="2" to-layer="2674" to-port="0" />
		<edge from-layer="2669" from-port="2" to-layer="2671" to-port="2" />
		<edge from-layer="2670" from-port="0" to-layer="2675" to-port="3" />
		<edge from-layer="2670" from-port="0" to-layer="2671" to-port="3" />
		<edge from-layer="2671" from-port="4" to-layer="2677" to-port="1" />
		<edge from-layer="2672" from-port="0" to-layer="2675" to-port="0" />
		<edge from-layer="2673" from-port="0" to-layer="2674" to-port="1" />
		<edge from-layer="2674" from-port="2" to-layer="2675" to-port="2" />
		<edge from-layer="2675" from-port="4" to-layer="2677" to-port="2" />
		<edge from-layer="2676" from-port="0" to-layer="2677" to-port="3" />
		<edge from-layer="2677" from-port="4" to-layer="2678" to-port="0" />
		<edge from-layer="2679" from-port="0" to-layer="2690" to-port="0" />
		<edge from-layer="2680" from-port="0" to-layer="2694" to-port="1" />
		<edge from-layer="2680" from-port="0" to-layer="2690" to-port="1" />
		<edge from-layer="2681" from-port="1" to-layer="2684" to-port="0" />
		<edge from-layer="2682" from-port="0" to-layer="2684" to-port="1" />
		<edge from-layer="2683" from-port="0" to-layer="2684" to-port="2" />
		<edge from-layer="2684" from-port="3" to-layer="2686" to-port="0" />
		<edge from-layer="2685" from-port="0" to-layer="2686" to-port="1" />
		<edge from-layer="2686" from-port="2" to-layer="2688" to-port="0" />
		<edge from-layer="2687" from-port="0" to-layer="2688" to-port="1" />
		<edge from-layer="2688" from-port="2" to-layer="2693" to-port="0" />
		<edge from-layer="2688" from-port="2" to-layer="2690" to-port="2" />
		<edge from-layer="2689" from-port="0" to-layer="2694" to-port="3" />
		<edge from-layer="2689" from-port="0" to-layer="2690" to-port="3" />
		<edge from-layer="2690" from-port="4" to-layer="2696" to-port="1" />
		<edge from-layer="2691" from-port="0" to-layer="2694" to-port="0" />
		<edge from-layer="2692" from-port="0" to-layer="2693" to-port="1" />
		<edge from-layer="2693" from-port="2" to-layer="2694" to-port="2" />
		<edge from-layer="2694" from-port="4" to-layer="2696" to-port="2" />
		<edge from-layer="2695" from-port="0" to-layer="2696" to-port="3" />
		<edge from-layer="2696" from-port="4" to-layer="2697" to-port="0" />
		<edge from-layer="2698" from-port="0" to-layer="2709" to-port="0" />
		<edge from-layer="2699" from-port="0" to-layer="2709" to-port="1" />
		<edge from-layer="2699" from-port="0" to-layer="2713" to-port="1" />
		<edge from-layer="2700" from-port="1" to-layer="2703" to-port="0" />
		<edge from-layer="2701" from-port="0" to-layer="2703" to-port="1" />
		<edge from-layer="2702" from-port="0" to-layer="2703" to-port="2" />
		<edge from-layer="2703" from-port="3" to-layer="2705" to-port="0" />
		<edge from-layer="2704" from-port="0" to-layer="2705" to-port="1" />
		<edge from-layer="2705" from-port="2" to-layer="2707" to-port="0" />
		<edge from-layer="2706" from-port="0" to-layer="2707" to-port="1" />
		<edge from-layer="2707" from-port="2" to-layer="2709" to-port="2" />
		<edge from-layer="2707" from-port="2" to-layer="2712" to-port="0" />
		<edge from-layer="2708" from-port="0" to-layer="2709" to-port="3" />
		<edge from-layer="2708" from-port="0" to-layer="2713" to-port="3" />
		<edge from-layer="2709" from-port="4" to-layer="2715" to-port="1" />
		<edge from-layer="2710" from-port="0" to-layer="2713" to-port="0" />
		<edge from-layer="2711" from-port="0" to-layer="2712" to-port="1" />
		<edge from-layer="2712" from-port="2" to-layer="2713" to-port="2" />
		<edge from-layer="2713" from-port="4" to-layer="2715" to-port="2" />
		<edge from-layer="2714" from-port="0" to-layer="2715" to-port="3" />
		<edge from-layer="2715" from-port="4" to-layer="2716" to-port="0" />
		<edge from-layer="2717" from-port="0" to-layer="2728" to-port="0" />
		<edge from-layer="2718" from-port="0" to-layer="2728" to-port="1" />
		<edge from-layer="2718" from-port="0" to-layer="2732" to-port="1" />
		<edge from-layer="2719" from-port="1" to-layer="2722" to-port="0" />
		<edge from-layer="2720" from-port="0" to-layer="2722" to-port="1" />
		<edge from-layer="2721" from-port="0" to-layer="2722" to-port="2" />
		<edge from-layer="2722" from-port="3" to-layer="2724" to-port="0" />
		<edge from-layer="2723" from-port="0" to-layer="2724" to-port="1" />
		<edge from-layer="2724" from-port="2" to-layer="2726" to-port="0" />
		<edge from-layer="2725" from-port="0" to-layer="2726" to-port="1" />
		<edge from-layer="2726" from-port="2" to-layer="2731" to-port="0" />
		<edge from-layer="2726" from-port="2" to-layer="2728" to-port="2" />
		<edge from-layer="2727" from-port="0" to-layer="2728" to-port="3" />
		<edge from-layer="2727" from-port="0" to-layer="2732" to-port="3" />
		<edge from-layer="2728" from-port="4" to-layer="2734" to-port="1" />
		<edge from-layer="2729" from-port="0" to-layer="2732" to-port="0" />
		<edge from-layer="2730" from-port="0" to-layer="2731" to-port="1" />
		<edge from-layer="2731" from-port="2" to-layer="2732" to-port="2" />
		<edge from-layer="2732" from-port="4" to-layer="2734" to-port="2" />
		<edge from-layer="2733" from-port="0" to-layer="2734" to-port="3" />
		<edge from-layer="2734" from-port="4" to-layer="2735" to-port="0" />
		<edge from-layer="2736" from-port="0" to-layer="2747" to-port="0" />
		<edge from-layer="2737" from-port="0" to-layer="2747" to-port="1" />
		<edge from-layer="2737" from-port="0" to-layer="2751" to-port="1" />
		<edge from-layer="2738" from-port="1" to-layer="2741" to-port="0" />
		<edge from-layer="2739" from-port="0" to-layer="2741" to-port="1" />
		<edge from-layer="2740" from-port="0" to-layer="2741" to-port="2" />
		<edge from-layer="2741" from-port="3" to-layer="2743" to-port="0" />
		<edge from-layer="2742" from-port="0" to-layer="2743" to-port="1" />
		<edge from-layer="2743" from-port="2" to-layer="2745" to-port="0" />
		<edge from-layer="2744" from-port="0" to-layer="2745" to-port="1" />
		<edge from-layer="2745" from-port="2" to-layer="2750" to-port="0" />
		<edge from-layer="2745" from-port="2" to-layer="2747" to-port="2" />
		<edge from-layer="2746" from-port="0" to-layer="2747" to-port="3" />
		<edge from-layer="2746" from-port="0" to-layer="2751" to-port="3" />
		<edge from-layer="2747" from-port="4" to-layer="2753" to-port="1" />
		<edge from-layer="2748" from-port="0" to-layer="2751" to-port="0" />
		<edge from-layer="2749" from-port="0" to-layer="2750" to-port="1" />
		<edge from-layer="2750" from-port="2" to-layer="2751" to-port="2" />
		<edge from-layer="2751" from-port="4" to-layer="2753" to-port="2" />
		<edge from-layer="2752" from-port="0" to-layer="2753" to-port="3" />
		<edge from-layer="2753" from-port="4" to-layer="2754" to-port="0" />
		<edge from-layer="2755" from-port="0" to-layer="2765" to-port="0" />
		<edge from-layer="2756" from-port="0" to-layer="2765" to-port="1" />
		<edge from-layer="2756" from-port="0" to-layer="2769" to-port="1" />
		<edge from-layer="2757" from-port="0" to-layer="2759" to-port="1" />
		<edge from-layer="2758" from-port="0" to-layer="2759" to-port="2" />
		<edge from-layer="2759" from-port="3" to-layer="2761" to-port="0" />
		<edge from-layer="2760" from-port="0" to-layer="2761" to-port="1" />
		<edge from-layer="2761" from-port="2" to-layer="2763" to-port="0" />
		<edge from-layer="2762" from-port="0" to-layer="2763" to-port="1" />
		<edge from-layer="2763" from-port="2" to-layer="2765" to-port="2" />
		<edge from-layer="2763" from-port="2" to-layer="2768" to-port="0" />
		<edge from-layer="2764" from-port="0" to-layer="2769" to-port="3" />
		<edge from-layer="2764" from-port="0" to-layer="2765" to-port="3" />
		<edge from-layer="2765" from-port="4" to-layer="2771" to-port="1" />
		<edge from-layer="2766" from-port="0" to-layer="2769" to-port="0" />
		<edge from-layer="2767" from-port="0" to-layer="2768" to-port="1" />
		<edge from-layer="2768" from-port="2" to-layer="2769" to-port="2" />
		<edge from-layer="2769" from-port="4" to-layer="2771" to-port="2" />
		<edge from-layer="2770" from-port="0" to-layer="2771" to-port="3" />
		<edge from-layer="2771" from-port="4" to-layer="2772" to-port="0" />
		<edge from-layer="2773" from-port="0" to-layer="2784" to-port="0" />
		<edge from-layer="2774" from-port="0" to-layer="2784" to-port="1" />
		<edge from-layer="2774" from-port="0" to-layer="2788" to-port="1" />
		<edge from-layer="2775" from-port="1" to-layer="2778" to-port="0" />
		<edge from-layer="2776" from-port="0" to-layer="2778" to-port="1" />
		<edge from-layer="2777" from-port="0" to-layer="2778" to-port="2" />
		<edge from-layer="2778" from-port="3" to-layer="2780" to-port="0" />
		<edge from-layer="2779" from-port="0" to-layer="2780" to-port="1" />
		<edge from-layer="2780" from-port="2" to-layer="2782" to-port="0" />
		<edge from-layer="2781" from-port="0" to-layer="2782" to-port="1" />
		<edge from-layer="2782" from-port="2" to-layer="2784" to-port="2" />
		<edge from-layer="2782" from-port="2" to-layer="2787" to-port="0" />
		<edge from-layer="2783" from-port="0" to-layer="2788" to-port="3" />
		<edge from-layer="2783" from-port="0" to-layer="2784" to-port="3" />
		<edge from-layer="2784" from-port="4" to-layer="2790" to-port="1" />
		<edge from-layer="2785" from-port="0" to-layer="2788" to-port="0" />
		<edge from-layer="2786" from-port="0" to-layer="2787" to-port="1" />
		<edge from-layer="2787" from-port="2" to-layer="2788" to-port="2" />
		<edge from-layer="2788" from-port="4" to-layer="2790" to-port="2" />
		<edge from-layer="2789" from-port="0" to-layer="2790" to-port="3" />
		<edge from-layer="2790" from-port="4" to-layer="2791" to-port="0" />
		<edge from-layer="2792" from-port="0" to-layer="2803" to-port="0" />
		<edge from-layer="2793" from-port="0" to-layer="2803" to-port="1" />
		<edge from-layer="2793" from-port="0" to-layer="2807" to-port="1" />
		<edge from-layer="2794" from-port="1" to-layer="2797" to-port="0" />
		<edge from-layer="2795" from-port="0" to-layer="2797" to-port="1" />
		<edge from-layer="2796" from-port="0" to-layer="2797" to-port="2" />
		<edge from-layer="2797" from-port="3" to-layer="2799" to-port="0" />
		<edge from-layer="2798" from-port="0" to-layer="2799" to-port="1" />
		<edge from-layer="2799" from-port="2" to-layer="2801" to-port="0" />
		<edge from-layer="2800" from-port="0" to-layer="2801" to-port="1" />
		<edge from-layer="2801" from-port="2" to-layer="2806" to-port="0" />
		<edge from-layer="2801" from-port="2" to-layer="2803" to-port="2" />
		<edge from-layer="2802" from-port="0" to-layer="2807" to-port="3" />
		<edge from-layer="2802" from-port="0" to-layer="2803" to-port="3" />
		<edge from-layer="2803" from-port="4" to-layer="2809" to-port="1" />
		<edge from-layer="2804" from-port="0" to-layer="2807" to-port="0" />
		<edge from-layer="2805" from-port="0" to-layer="2806" to-port="1" />
		<edge from-layer="2806" from-port="2" to-layer="2807" to-port="2" />
		<edge from-layer="2807" from-port="4" to-layer="2809" to-port="2" />
		<edge from-layer="2808" from-port="0" to-layer="2809" to-port="3" />
		<edge from-layer="2809" from-port="4" to-layer="2810" to-port="0" />
		<edge from-layer="2811" from-port="0" to-layer="2822" to-port="0" />
		<edge from-layer="2812" from-port="0" to-layer="2822" to-port="1" />
		<edge from-layer="2812" from-port="0" to-layer="2826" to-port="1" />
		<edge from-layer="2813" from-port="1" to-layer="2816" to-port="0" />
		<edge from-layer="2814" from-port="0" to-layer="2816" to-port="1" />
		<edge from-layer="2815" from-port="0" to-layer="2816" to-port="2" />
		<edge from-layer="2816" from-port="3" to-layer="2818" to-port="0" />
		<edge from-layer="2817" from-port="0" to-layer="2818" to-port="1" />
		<edge from-layer="2818" from-port="2" to-layer="2820" to-port="0" />
		<edge from-layer="2819" from-port="0" to-layer="2820" to-port="1" />
		<edge from-layer="2820" from-port="2" to-layer="2825" to-port="0" />
		<edge from-layer="2820" from-port="2" to-layer="2822" to-port="2" />
		<edge from-layer="2821" from-port="0" to-layer="2822" to-port="3" />
		<edge from-layer="2821" from-port="0" to-layer="2826" to-port="3" />
		<edge from-layer="2822" from-port="4" to-layer="2828" to-port="1" />
		<edge from-layer="2823" from-port="0" to-layer="2826" to-port="0" />
		<edge from-layer="2824" from-port="0" to-layer="2825" to-port="1" />
		<edge from-layer="2825" from-port="2" to-layer="2826" to-port="2" />
		<edge from-layer="2826" from-port="4" to-layer="2828" to-port="2" />
		<edge from-layer="2827" from-port="0" to-layer="2828" to-port="3" />
		<edge from-layer="2828" from-port="4" to-layer="2829" to-port="0" />
		<edge from-layer="2830" from-port="0" to-layer="2841" to-port="0" />
		<edge from-layer="2831" from-port="0" to-layer="2841" to-port="1" />
		<edge from-layer="2831" from-port="0" to-layer="2845" to-port="1" />
		<edge from-layer="2832" from-port="1" to-layer="2835" to-port="0" />
		<edge from-layer="2833" from-port="0" to-layer="2835" to-port="1" />
		<edge from-layer="2834" from-port="0" to-layer="2835" to-port="2" />
		<edge from-layer="2835" from-port="3" to-layer="2837" to-port="0" />
		<edge from-layer="2836" from-port="0" to-layer="2837" to-port="1" />
		<edge from-layer="2837" from-port="2" to-layer="2839" to-port="0" />
		<edge from-layer="2838" from-port="0" to-layer="2839" to-port="1" />
		<edge from-layer="2839" from-port="2" to-layer="2841" to-port="2" />
		<edge from-layer="2839" from-port="2" to-layer="2844" to-port="0" />
		<edge from-layer="2840" from-port="0" to-layer="2845" to-port="3" />
		<edge from-layer="2840" from-port="0" to-layer="2841" to-port="3" />
		<edge from-layer="2841" from-port="4" to-layer="2847" to-port="1" />
		<edge from-layer="2842" from-port="0" to-layer="2845" to-port="0" />
		<edge from-layer="2843" from-port="0" to-layer="2844" to-port="1" />
		<edge from-layer="2844" from-port="2" to-layer="2845" to-port="2" />
		<edge from-layer="2845" from-port="4" to-layer="2847" to-port="2" />
		<edge from-layer="2846" from-port="0" to-layer="2847" to-port="3" />
		<edge from-layer="2847" from-port="4" to-layer="2848" to-port="0" />
		<edge from-layer="2849" from-port="0" to-layer="2859" to-port="0" />
		<edge from-layer="2850" from-port="0" to-layer="2852" to-port="1" />
		<edge from-layer="2851" from-port="0" to-layer="2852" to-port="2" />
		<edge from-layer="2852" from-port="3" to-layer="2854" to-port="0" />
		<edge from-layer="2853" from-port="0" to-layer="2854" to-port="1" />
		<edge from-layer="2854" from-port="2" to-layer="2856" to-port="0" />
		<edge from-layer="2855" from-port="0" to-layer="2856" to-port="1" />
		<edge from-layer="2856" from-port="2" to-layer="2859" to-port="1" />
		<edge from-layer="2857" from-port="0" to-layer="2859" to-port="2" />
		<edge from-layer="2858" from-port="0" to-layer="2859" to-port="3" />
		<edge from-layer="2859" from-port="4" to-layer="2860" to-port="1" />
		<edge from-layer="2860" from-port="2" to-layer="2861" to-port="0" />
		<edge from-layer="2861" from-port="2" to-layer="2864" to-port="0" />
		<edge from-layer="2862" from-port="0" to-layer="2864" to-port="1" />
		<edge from-layer="2863" from-port="0" to-layer="2864" to-port="2" />
		<edge from-layer="2864" from-port="3" to-layer="2867" to-port="0" />
		<edge from-layer="2865" from-port="0" to-layer="2867" to-port="1" />
		<edge from-layer="2866" from-port="0" to-layer="2867" to-port="2" />
		<edge from-layer="2867" from-port="3" to-layer="2871" to-port="0" />
		<edge from-layer="2868" from-port="0" to-layer="2871" to-port="1" />
		<edge from-layer="2869" from-port="0" to-layer="2871" to-port="2" />
		<edge from-layer="2870" from-port="0" to-layer="2871" to-port="3" />
		<edge from-layer="2871" from-port="4" to-layer="2872" to-port="0" />
	</edges>
	<rt_info>
		<MO_version value="custom_HEAD_f6ee6e92f846a8c665e4a7089c51481f9689a3b5" />
		<Runtime_version value="2023.0.0-10521-f6ee6e92f84-HEAD" />
		<conversion_parameters>
			<framework value="onnx" />
			<input value="input,inp_state_000,inp_state_001,inp_state_002,inp_state_003,inp_state_004,inp_state_005,inp_state_006,inp_state_007,inp_state_008,inp_state_009,inp_state_010,inp_state_011,inp_state_012,inp_state_013,inp_state_014,inp_state_015,inp_state_016,inp_state_017,inp_state_018,inp_state_019,inp_state_020,inp_state_021,inp_state_022,inp_state_023,inp_state_024,inp_state_025,inp_state_026,inp_state_027,inp_state_028,inp_state_029,inp_state_030,inp_state_031,inp_state_032,inp_state_033,inp_state_034,inp_state_035,inp_state_036,inp_state_037,inp_state_038,inp_state_039,inp_state_040,inp_state_041,inp_state_042,inp_state_043,inp_state_044,inp_state_045,inp_state_046,inp_state_047,inp_state_048,inp_state_049" />
			<input_model value="DIR/model.onnx" />
			<input_shape value="[1,2048],[1,128],[1,2,129,2],[1,18,129,2],[1,34,129,2],[1,129,32,32],[1,129,32,32],[1,32,64,2],[1,48,64,2],[1,64,64,2],[1,64,64,22],[1,64,64,22],[1,64,32,2],[1,96,32,2],[1,128,32,2],[1,32,128,16],[1,32,128,16],[1,128,16,2],[1,192,16,2],[1,256,16,2],[1,16,256,11],[1,16,256,11],[1,256,8,2],[1,384,8,2],[1,512,8,2],[1,8,256,8],[1,8,256,8],[1,512,16,2],[1,256,16,2],[1,384,16,2],[1,512,16,2],[1,16,128,11],[1,16,128,11],[1,256,32,2],[1,128,32,2],[1,192,32,2],[1,256,32,2],[1,32,64,16],[1,32,64,16],[1,128,64,2],[1,64,64,2],[1,96,64,2],[1,128,64,2],[1,64,32,22],[1,64,32,22],[1,64,129,2],[1,32,129,2],[1,48,129,2],[1,64,129,2],[1,2,129,4],[1,2,129,1]" />
			<layout value="input(nc),inp_state_000(nc),inp_state_001(nchw),inp_state_002(nchw),inp_state_003(nchw),inp_state_004(nchw),inp_state_005(nchw),inp_state_006(nchw),inp_state_007(nchw),inp_state_008(nchw),inp_state_009(nchw),inp_state_010(nchw),inp_state_011(nchw),inp_state_012(nchw),inp_state_013(nchw),inp_state_014(nchw),inp_state_015(nchw),inp_state_016(nchw),inp_state_017(nchw),inp_state_018(nchw),inp_state_019(nchw),inp_state_020(nchw),inp_state_021(nchw),inp_state_022(nchw),inp_state_023(nchw),inp_state_024(nchw),inp_state_025(nchw),inp_state_026(nchw),inp_state_027(nchw),inp_state_028(nchw),inp_state_029(nchw),inp_state_030(nchw),inp_state_031(nchw),inp_state_032(nchw),inp_state_033(nchw),inp_state_034(nchw),inp_state_035(nchw),inp_state_036(nchw),inp_state_037(nchw),inp_state_038(nchw),inp_state_039(nchw),inp_state_040(nchw),inp_state_041(nchw),inp_state_042(nchw),inp_state_043(nchw),inp_state_044(nchw),inp_state_045(nchw),inp_state_046(nchw),inp_state_047(nchw),inp_state_048(nchw),inp_state_049(nchw)" />
			<model_name value="noise-suppression-poconetlike-0001" />
			<output value="output,out_state_000,out_state_001,out_state_002,out_state_003,out_state_004,out_state_005,out_state_006,out_state_007,out_state_008,out_state_009,out_state_010,out_state_011,out_state_012,out_state_013,out_state_014,out_state_015,out_state_016,out_state_017,out_state_018,out_state_019,out_state_020,out_state_021,out_state_022,out_state_023,out_state_024,out_state_025,out_state_026,out_state_027,out_state_028,out_state_029,out_state_030,out_state_031,out_state_032,out_state_033,out_state_034,out_state_035,out_state_036,out_state_037,out_state_038,out_state_039,out_state_040,out_state_041,out_state_042,out_state_043,out_state_044,out_state_045,out_state_046,out_state_047,out_state_048,out_state_049" />
			<output_dir value="DIR" />
		</conversion_parameters>
		<legacy_frontend value="False" />
	</rt_info>
</net>
