<?xml version="1.0"?>
<net name="torch-jit-export" version="11">
	<layers>
		<layer id="50" name="input" type="Parameter" version="opset1">
			<data shape="1,2048" element_type="f32" />
			<output>
				<port id="0" precision="FP32" names="input">
					<dim>1</dim>
					<dim>2048</dim>
					<rt_info>
						<attribute name="layout" version="0" layout="[N,C]" />
					</rt_info>
				</port>
			</output>
		</layer>
		<layer id="49" name="inp_state_000" type="Parameter" version="opset1">
			<data shape="1,128" element_type="f32" />
			<output>
				<port id="0" precision="FP32" names="inp_state_000">
					<dim>1</dim>
					<dim>128</dim>
					<rt_info>
						<attribute name="layout" version="0" layout="[N,C]" />
					</rt_info>
				</port>
			</output>
		</layer>
		<layer id="48" name="inp_state_001" type="Parameter" version="opset1">
			<data shape="1,2,129,2" element_type="f32" />
			<output>
				<port id="0" precision="FP32" names="inp_state_001">
					<dim>1</dim>
					<dim>2</dim>
					<dim>129</dim>
					<dim>2</dim>
					<rt_info>
						<attribute name="layout" version="0" layout="[N,C,H,W]" />
					</rt_info>
				</port>
			</output>
		</layer>
		<layer id="47" name="inp_state_002" type="Parameter" version="opset1">
			<data shape="1,18,129,2" element_type="f32" />
			<output>
				<port id="0" precision="FP32" names="inp_state_002">
					<dim>1</dim>
					<dim>18</dim>
					<dim>129</dim>
					<dim>2</dim>
					<rt_info>
						<attribute name="layout" version="0" layout="[N,C,H,W]" />
					</rt_info>
				</port>
			</output>
		</layer>
		<layer id="46" name="inp_state_003" type="Parameter" version="opset1">
			<data shape="1,34,129,2" element_type="f32" />
			<output>
				<port id="0" precision="FP32" names="inp_state_003">
					<dim>1</dim>
					<dim>34</dim>
					<dim>129</dim>
					<dim>2</dim>
					<rt_info>
						<attribute name="layout" version="0" layout="[N,C,H,W]" />
					</rt_info>
				</port>
			</output>
		</layer>
		<layer id="45" name="inp_state_004" type="Parameter" version="opset1">
			<data shape="1,129,32,32" element_type="f32" />
			<output>
				<port id="0" precision="FP32" names="inp_state_004">
					<dim>1</dim>
					<dim>129</dim>
					<dim>32</dim>
					<dim>32</dim>
					<rt_info>
						<attribute name="layout" version="0" layout="[N,C,H,W]" />
					</rt_info>
				</port>
			</output>
		</layer>
		<layer id="44" name="inp_state_005" type="Parameter" version="opset1">
			<data shape="1,129,32,32" element_type="f32" />
			<output>
				<port id="0" precision="FP32" names="inp_state_005">
					<dim>1</dim>
					<dim>129</dim>
					<dim>32</dim>
					<dim>32</dim>
					<rt_info>
						<attribute name="layout" version="0" layout="[N,C,H,W]" />
					</rt_info>
				</port>
			</output>
		</layer>
		<layer id="43" name="inp_state_006" type="Parameter" version="opset1">
			<data shape="1,32,64,2" element_type="f32" />
			<output>
				<port id="0" precision="FP32" names="inp_state_006">
					<dim>1</dim>
					<dim>32</dim>
					<dim>64</dim>
					<dim>2</dim>
					<rt_info>
						<attribute name="layout" version="0" layout="[N,C,H,W]" />
					</rt_info>
				</port>
			</output>
		</layer>
		<layer id="42" name="inp_state_007" type="Parameter" version="opset1">
			<data shape="1,48,64,2" element_type="f32" />
			<output>
				<port id="0" precision="FP32" names="inp_state_007">
					<dim>1</dim>
					<dim>48</dim>
					<dim>64</dim>
					<dim>2</dim>
					<rt_info>
						<attribute name="layout" version="0" layout="[N,C,H,W]" />
					</rt_info>
				</port>
			</output>
		</layer>
		<layer id="41" name="inp_state_008" type="Parameter" version="opset1">
			<data shape="1,64,64,2" element_type="f32" />
			<output>
				<port id="0" precision="FP32" names="inp_state_008">
					<dim>1</dim>
					<dim>64</dim>
					<dim>64</dim>
					<dim>2</dim>
					<rt_info>
						<attribute name="layout" version="0" layout="[N,C,H,W]" />
					</rt_info>
				</port>
			</output>
		</layer>
		<layer id="40" name="inp_state_009" type="Parameter" version="opset1">
			<data shape="1,64,64,22" element_type="f32" />
			<output>
				<port id="0" precision="FP32" names="inp_state_009">
					<dim>1</dim>
					<dim>64</dim>
					<dim>64</dim>
					<dim>22</dim>
					<rt_info>
						<attribute name="layout" version="0" layout="[N,C,H,W]" />
					</rt_info>
				</port>
			</output>
		</layer>
		<layer id="39" name="inp_state_010" type="Parameter" version="opset1">
			<data shape="1,64,64,22" element_type="f32" />
			<output>
				<port id="0" precision="FP32" names="inp_state_010">
					<dim>1</dim>
					<dim>64</dim>
					<dim>64</dim>
					<dim>22</dim>
					<rt_info>
						<attribute name="layout" version="0" layout="[N,C,H,W]" />
					</rt_info>
				</port>
			</output>
		</layer>
		<layer id="38" name="inp_state_011" type="Parameter" version="opset1">
			<data shape="1,64,32,2" element_type="f32" />
			<output>
				<port id="0" precision="FP32" names="inp_state_011">
					<dim>1</dim>
					<dim>64</dim>
					<dim>32</dim>
					<dim>2</dim>
					<rt_info>
						<attribute name="layout" version="0" layout="[N,C,H,W]" />
					</rt_info>
				</port>
			</output>
		</layer>
		<layer id="37" name="inp_state_012" type="Parameter" version="opset1">
			<data shape="1,96,32,2" element_type="f32" />
			<output>
				<port id="0" precision="FP32" names="inp_state_012">
					<dim>1</dim>
					<dim>96</dim>
					<dim>32</dim>
					<dim>2</dim>
					<rt_info>
						<attribute name="layout" version="0" layout="[N,C,H,W]" />
					</rt_info>
				</port>
			</output>
		</layer>
		<layer id="36" name="inp_state_013" type="Parameter" version="opset1">
			<data shape="1,128,32,2" element_type="f32" />
			<output>
				<port id="0" precision="FP32" names="inp_state_013">
					<dim>1</dim>
					<dim>128</dim>
					<dim>32</dim>
					<dim>2</dim>
					<rt_info>
						<attribute name="layout" version="0" layout="[N,C,H,W]" />
					</rt_info>
				</port>
			</output>
		</layer>
		<layer id="35" name="inp_state_014" type="Parameter" version="opset1">
			<data shape="1,32,128,16" element_type="f32" />
			<output>
				<port id="0" precision="FP32" names="inp_state_014">
					<dim>1</dim>
					<dim>32</dim>
					<dim>128</dim>
					<dim>16</dim>
					<rt_info>
						<attribute name="layout" version="0" layout="[N,C,H,W]" />
					</rt_info>
				</port>
			</output>
		</layer>
		<layer id="34" name="inp_state_015" type="Parameter" version="opset1">
			<data shape="1,32,128,16" element_type="f32" />
			<output>
				<port id="0" precision="FP32" names="inp_state_015">
					<dim>1</dim>
					<dim>32</dim>
					<dim>128</dim>
					<dim>16</dim>
					<rt_info>
						<attribute name="layout" version="0" layout="[N,C,H,W]" />
					</rt_info>
				</port>
			</output>
		</layer>
		<layer id="33" name="inp_state_016" type="Parameter" version="opset1">
			<data shape="1,128,16,2" element_type="f32" />
			<output>
				<port id="0" precision="FP32" names="inp_state_016">
					<dim>1</dim>
					<dim>128</dim>
					<dim>16</dim>
					<dim>2</dim>
					<rt_info>
						<attribute name="layout" version="0" layout="[N,C,H,W]" />
					</rt_info>
				</port>
			</output>
		</layer>
		<layer id="32" name="inp_state_017" type="Parameter" version="opset1">
			<data shape="1,192,16,2" element_type="f32" />
			<output>
				<port id="0" precision="FP32" names="inp_state_017">
					<dim>1</dim>
					<dim>192</dim>
					<dim>16</dim>
					<dim>2</dim>
					<rt_info>
						<attribute name="layout" version="0" layout="[N,C,H,W]" />
					</rt_info>
				</port>
			</output>
		</layer>
		<layer id="31" name="inp_state_018" type="Parameter" version="opset1">
			<data shape="1,256,16,2" element_type="f32" />
			<output>
				<port id="0" precision="FP32" names="inp_state_018">
					<dim>1</dim>
					<dim>256</dim>
					<dim>16</dim>
					<dim>2</dim>
					<rt_info>
						<attribute name="layout" version="0" layout="[N,C,H,W]" />
					</rt_info>
				</port>
			</output>
		</layer>
		<layer id="30" name="inp_state_019" type="Parameter" version="opset1">
			<data shape="1,16,256,11" element_type="f32" />
			<output>
				<port id="0" precision="FP32" names="inp_state_019">
					<dim>1</dim>
					<dim>16</dim>
					<dim>256</dim>
					<dim>11</dim>
					<rt_info>
						<attribute name="layout" version="0" layout="[N,C,H,W]" />
					</rt_info>
				</port>
			</output>
		</layer>
		<layer id="29" name="inp_state_020" type="Parameter" version="opset1">
			<data shape="1,16,256,11" element_type="f32" />
			<output>
				<port id="0" precision="FP32" names="inp_state_020">
					<dim>1</dim>
					<dim>16</dim>
					<dim>256</dim>
					<dim>11</dim>
					<rt_info>
						<attribute name="layout" version="0" layout="[N,C,H,W]" />
					</rt_info>
				</port>
			</output>
		</layer>
		<layer id="28" name="inp_state_021" type="Parameter" version="opset1">
			<data shape="1,256,8,2" element_type="f32" />
			<output>
				<port id="0" precision="FP32" names="inp_state_021">
					<dim>1</dim>
					<dim>256</dim>
					<dim>8</dim>
					<dim>2</dim>
					<rt_info>
						<attribute name="layout" version="0" layout="[N,C,H,W]" />
					</rt_info>
				</port>
			</output>
		</layer>
		<layer id="27" name="inp_state_022" type="Parameter" version="opset1">
			<data shape="1,384,8,2" element_type="f32" />
			<output>
				<port id="0" precision="FP32" names="inp_state_022">
					<dim>1</dim>
					<dim>384</dim>
					<dim>8</dim>
					<dim>2</dim>
					<rt_info>
						<attribute name="layout" version="0" layout="[N,C,H,W]" />
					</rt_info>
				</port>
			</output>
		</layer>
		<layer id="26" name="inp_state_023" type="Parameter" version="opset1">
			<data shape="1,512,8,2" element_type="f32" />
			<output>
				<port id="0" precision="FP32" names="inp_state_023">
					<dim>1</dim>
					<dim>512</dim>
					<dim>8</dim>
					<dim>2</dim>
					<rt_info>
						<attribute name="layout" version="0" layout="[N,C,H,W]" />
					</rt_info>
				</port>
			</output>
		</layer>
		<layer id="25" name="inp_state_024" type="Parameter" version="opset1">
			<data shape="1,8,256,8" element_type="f32" />
			<output>
				<port id="0" precision="FP32" names="inp_state_024">
					<dim>1</dim>
					<dim>8</dim>
					<dim>256</dim>
					<dim>8</dim>
					<rt_info>
						<attribute name="layout" version="0" layout="[N,C,H,W]" />
					</rt_info>
				</port>
			</output>
		</layer>
		<layer id="24" name="inp_state_025" type="Parameter" version="opset1">
			<data shape="1,8,256,8" element_type="f32" />
			<output>
				<port id="0" precision="FP32" names="inp_state_025">
					<dim>1</dim>
					<dim>8</dim>
					<dim>256</dim>
					<dim>8</dim>
					<rt_info>
						<attribute name="layout" version="0" layout="[N,C,H,W]" />
					</rt_info>
				</port>
			</output>
		</layer>
		<layer id="23" name="inp_state_026" type="Parameter" version="opset1">
			<data shape="1,512,16,2" element_type="f32" />
			<output>
				<port id="0" precision="FP32" names="inp_state_026">
					<dim>1</dim>
					<dim>512</dim>
					<dim>16</dim>
					<dim>2</dim>
					<rt_info>
						<attribute name="layout" version="0" layout="[N,C,H,W]" />
					</rt_info>
				</port>
			</output>
		</layer>
		<layer id="22" name="inp_state_027" type="Parameter" version="opset1">
			<data shape="1,256,16,2" element_type="f32" />
			<output>
				<port id="0" precision="FP32" names="inp_state_027">
					<dim>1</dim>
					<dim>256</dim>
					<dim>16</dim>
					<dim>2</dim>
					<rt_info>
						<attribute name="layout" version="0" layout="[N,C,H,W]" />
					</rt_info>
				</port>
			</output>
		</layer>
		<layer id="21" name="inp_state_028" type="Parameter" version="opset1">
			<data shape="1,384,16,2" element_type="f32" />
			<output>
				<port id="0" precision="FP32" names="inp_state_028">
					<dim>1</dim>
					<dim>384</dim>
					<dim>16</dim>
					<dim>2</dim>
					<rt_info>
						<attribute name="layout" version="0" layout="[N,C,H,W]" />
					</rt_info>
				</port>
			</output>
		</layer>
		<layer id="20" name="inp_state_029" type="Parameter" version="opset1">
			<data shape="1,512,16,2" element_type="f32" />
			<output>
				<port id="0" precision="FP32" names="inp_state_029">
					<dim>1</dim>
					<dim>512</dim>
					<dim>16</dim>
					<dim>2</dim>
					<rt_info>
						<attribute name="layout" version="0" layout="[N,C,H,W]" />
					</rt_info>
				</port>
			</output>
		</layer>
		<layer id="19" name="inp_state_030" type="Parameter" version="opset1">
			<data shape="1,16,128,11" element_type="f32" />
			<output>
				<port id="0" precision="FP32" names="inp_state_030">
					<dim>1</dim>
					<dim>16</dim>
					<dim>128</dim>
					<dim>11</dim>
					<rt_info>
						<attribute name="layout" version="0" layout="[N,C,H,W]" />
					</rt_info>
				</port>
			</output>
		</layer>
		<layer id="18" name="inp_state_031" type="Parameter" version="opset1">
			<data shape="1,16,128,11" element_type="f32" />
			<output>
				<port id="0" precision="FP32" names="inp_state_031">
					<dim>1</dim>
					<dim>16</dim>
					<dim>128</dim>
					<dim>11</dim>
					<rt_info>
						<attribute name="layout" version="0" layout="[N,C,H,W]" />
					</rt_info>
				</port>
			</output>
		</layer>
		<layer id="17" name="inp_state_032" type="Parameter" version="opset1">
			<data shape="1,256,32,2" element_type="f32" />
			<output>
				<port id="0" precision="FP32" names="inp_state_032">
					<dim>1</dim>
					<dim>256</dim>
					<dim>32</dim>
					<dim>2</dim>
					<rt_info>
						<attribute name="layout" version="0" layout="[N,C,H,W]" />
					</rt_info>
				</port>
			</output>
		</layer>
		<layer id="16" name="inp_state_033" type="Parameter" version="opset1">
			<data shape="1,128,32,2" element_type="f32" />
			<output>
				<port id="0" precision="FP32" names="inp_state_033">
					<dim>1</dim>
					<dim>128</dim>
					<dim>32</dim>
					<dim>2</dim>
					<rt_info>
						<attribute name="layout" version="0" layout="[N,C,H,W]" />
					</rt_info>
				</port>
			</output>
		</layer>
		<layer id="15" name="inp_state_034" type="Parameter" version="opset1">
			<data shape="1,192,32,2" element_type="f32" />
			<output>
				<port id="0" precision="FP32" names="inp_state_034">
					<dim>1</dim>
					<dim>192</dim>
					<dim>32</dim>
					<dim>2</dim>
					<rt_info>
						<attribute name="layout" version="0" layout="[N,C,H,W]" />
					</rt_info>
				</port>
			</output>
		</layer>
		<layer id="14" name="inp_state_035" type="Parameter" version="opset1">
			<data shape="1,256,32,2" element_type="f32" />
			<output>
				<port id="0" precision="FP32" names="inp_state_035">
					<dim>1</dim>
					<dim>256</dim>
					<dim>32</dim>
					<dim>2</dim>
					<rt_info>
						<attribute name="layout" version="0" layout="[N,C,H,W]" />
					</rt_info>
				</port>
			</output>
		</layer>
		<layer id="13" name="inp_state_036" type="Parameter" version="opset1">
			<data shape="1,32,64,16" element_type="f32" />
			<output>
				<port id="0" precision="FP32" names="inp_state_036">
					<dim>1</dim>
					<dim>32</dim>
					<dim>64</dim>
					<dim>16</dim>
					<rt_info>
						<attribute name="layout" version="0" layout="[N,C,H,W]" />
					</rt_info>
				</port>
			</output>
		</layer>
		<layer id="12" name="inp_state_037" type="Parameter" version="opset1">
			<data shape="1,32,64,16" element_type="f32" />
			<output>
				<port id="0" precision="FP32" names="inp_state_037">
					<dim>1</dim>
					<dim>32</dim>
					<dim>64</dim>
					<dim>16</dim>
					<rt_info>
						<attribute name="layout" version="0" layout="[N,C,H,W]" />
					</rt_info>
				</port>
			</output>
		</layer>
		<layer id="11" name="inp_state_038" type="Parameter" version="opset1">
			<data shape="1,128,64,2" element_type="f32" />
			<output>
				<port id="0" precision="FP32" names="inp_state_038">
					<dim>1</dim>
					<dim>128</dim>
					<dim>64</dim>
					<dim>2</dim>
					<rt_info>
						<attribute name="layout" version="0" layout="[N,C,H,W]" />
					</rt_info>
				</port>
			</output>
		</layer>
		<layer id="10" name="inp_state_039" type="Parameter" version="opset1">
			<data shape="1,64,64,2" element_type="f32" />
			<output>
				<port id="0" precision="FP32" names="inp_state_039">
					<dim>1</dim>
					<dim>64</dim>
					<dim>64</dim>
					<dim>2</dim>
					<rt_info>
						<attribute name="layout" version="0" layout="[N,C,H,W]" />
					</rt_info>
				</port>
			</output>
		</layer>
		<layer id="9" name="inp_state_040" type="Parameter" version="opset1">
			<data shape="1,96,64,2" element_type="f32" />
			<output>
				<port id="0" precision="FP32" names="inp_state_040">
					<dim>1</dim>
					<dim>96</dim>
					<dim>64</dim>
					<dim>2</dim>
					<rt_info>
						<attribute name="layout" version="0" layout="[N,C,H,W]" />
					</rt_info>
				</port>
			</output>
		</layer>
		<layer id="8" name="inp_state_041" type="Parameter" version="opset1">
			<data shape="1,128,64,2" element_type="f32" />
			<output>
				<port id="0" precision="FP32" names="inp_state_041">
					<dim>1</dim>
					<dim>128</dim>
					<dim>64</dim>
					<dim>2</dim>
					<rt_info>
						<attribute name="layout" version="0" layout="[N,C,H,W]" />
					</rt_info>
				</port>
			</output>
		</layer>
		<layer id="7" name="inp_state_042" type="Parameter" version="opset1">
			<data shape="1,64,32,22" element_type="f32" />
			<output>
				<port id="0" precision="FP32" names="inp_state_042">
					<dim>1</dim>
					<dim>64</dim>
					<dim>32</dim>
					<dim>22</dim>
					<rt_info>
						<attribute name="layout" version="0" layout="[N,C,H,W]" />
					</rt_info>
				</port>
			</output>
		</layer>
		<layer id="6" name="inp_state_043" type="Parameter" version="opset1">
			<data shape="1,64,32,22" element_type="f32" />
			<output>
				<port id="0" precision="FP32" names="inp_state_043">
					<dim>1</dim>
					<dim>64</dim>
					<dim>32</dim>
					<dim>22</dim>
					<rt_info>
						<attribute name="layout" version="0" layout="[N,C,H,W]" />
					</rt_info>
				</port>
			</output>
		</layer>
		<layer id="5" name="inp_state_044" type="Parameter" version="opset1">
			<data shape="1,64,129,2" element_type="f32" />
			<output>
				<port id="0" precision="FP32" names="inp_state_044">
					<dim>1</dim>
					<dim>64</dim>
					<dim>129</dim>
					<dim>2</dim>
					<rt_info>
						<attribute name="layout" version="0" layout="[N,C,H,W]" />
					</rt_info>
				</port>
			</output>
		</layer>
		<layer id="4" name="inp_state_045" type="Parameter" version="opset1">
			<data shape="1,32,129,2" element_type="f32" />
			<output>
				<port id="0" precision="FP32" names="inp_state_045">
					<dim>1</dim>
					<dim>32</dim>
					<dim>129</dim>
					<dim>2</dim>
					<rt_info>
						<attribute name="layout" version="0" layout="[N,C,H,W]" />
					</rt_info>
				</port>
			</output>
		</layer>
		<layer id="3" name="inp_state_046" type="Parameter" version="opset1">
			<data shape="1,48,129,2" element_type="f32" />
			<output>
				<port id="0" precision="FP32" names="inp_state_046">
					<dim>1</dim>
					<dim>48</dim>
					<dim>129</dim>
					<dim>2</dim>
					<rt_info>
						<attribute name="layout" version="0" layout="[N,C,H,W]" />
					</rt_info>
				</port>
			</output>
		</layer>
		<layer id="2" name="inp_state_047" type="Parameter" version="opset1">
			<data shape="1,64,129,2" element_type="f32" />
			<output>
				<port id="0" precision="FP32" names="inp_state_047">
					<dim>1</dim>
					<dim>64</dim>
					<dim>129</dim>
					<dim>2</dim>
					<rt_info>
						<attribute name="layout" version="0" layout="[N,C,H,W]" />
					</rt_info>
				</port>
			</output>
		</layer>
		<layer id="1" name="inp_state_048" type="Parameter" version="opset1">
			<data shape="1,2,129,4" element_type="f32" />
			<output>
				<port id="0" precision="FP32" names="inp_state_048">
					<dim>1</dim>
					<dim>2</dim>
					<dim>129</dim>
					<dim>4</dim>
					<rt_info>
						<attribute name="layout" version="0" layout="[N,C,H,W]" />
					</rt_info>
				</port>
			</output>
		</layer>
		<layer id="0" name="inp_state_049" type="Parameter" version="opset1">
			<data shape="1,2,129,1" element_type="f32" />
			<output>
				<port id="0" precision="FP32" names="inp_state_049">
					<dim>1</dim>
					<dim>2</dim>
					<dim>129</dim>
					<dim>1</dim>
					<rt_info>
						<attribute name="layout" version="0" layout="[N,C,H,W]" />
					</rt_info>
				</port>
			</output>
		</layer>
		<layer id="51" name="Concat_0" type="Concat" version="opset1">
			<data axis="1" />
			<input>
				<port id="0" precision="FP32">
					<dim>1</dim>
					<dim>128</dim>
				</port>
				<port id="1" precision="FP32">
					<dim>1</dim>
					<dim>2048</dim>
				</port>
			</input>
			<output>
				<port id="2" precision="FP32" names="337">
					<dim>1</dim>
					<dim>2176</dim>
				</port>
			</output>
		</layer>
		<layer id="52" name="Constant_559" type="Const" version="opset1">
			<data element_type="i64" shape="1" offset="0" size="8" />
			<output>
				<port id="0" precision="I64">
					<dim>1</dim>
				</port>
			</output>
		</layer>
		<layer id="53" name="Unsqueeze_12" type="Unsqueeze" version="opset1">
			<input>
				<port id="0" precision="FP32">
					<dim>1</dim>
					<dim>2176</dim>
				</port>
				<port id="1" precision="I64">
					<dim>1</dim>
				</port>
			</input>
			<output>
				<port id="2" precision="FP32" names="351">
					<dim>1</dim>
					<dim>1</dim>
					<dim>2176</dim>
				</port>
			</output>
		</layer>
		<layer id="54" name="Constant_561" type="Const" version="opset1">
			<data element_type="i64" shape="1" offset="8" size="8" />
			<output>
				<port id="0" precision="I64">
					<dim>1</dim>
				</port>
			</output>
		</layer>
		<layer id="55" name="Unsqueeze_13" type="Unsqueeze" version="opset1">
			<input>
				<port id="0" precision="FP32">
					<dim>1</dim>
					<dim>1</dim>
					<dim>2176</dim>
				</port>
				<port id="1" precision="I64">
					<dim>1</dim>
				</port>
			</input>
			<output>
				<port id="2" precision="FP32" names="352">
					<dim>1</dim>
					<dim>1</dim>
					<dim>1</dim>
					<dim>2176</dim>
				</port>
			</output>
		</layer>
		<layer id="56" name="_encdec_matrix" type="Const" version="opset1">
			<data element_type="f32" shape="258, 1, 1, 256" offset="16" size="264192" />
			<output>
				<port id="0" precision="FP32" names="_encdec_matrix">
					<dim>258</dim>
					<dim>1</dim>
					<dim>1</dim>
					<dim>256</dim>
				</port>
			</output>
		</layer>
		<layer id="57" name="Conv_14" type="Convolution" version="opset1">
			<data strides="128, 128" dilations="1, 1" pads_begin="0, 0" pads_end="0, 0" auto_pad="explicit" />
			<input>
				<port id="0" precision="FP32">
					<dim>1</dim>
					<dim>1</dim>
					<dim>1</dim>
					<dim>2176</dim>
				</port>
				<port id="1" precision="FP32">
					<dim>258</dim>
					<dim>1</dim>
					<dim>1</dim>
					<dim>256</dim>
				</port>
			</input>
			<output>
				<port id="2" precision="FP32" names="353">
					<dim>1</dim>
					<dim>258</dim>
					<dim>1</dim>
					<dim>16</dim>
				</port>
			</output>
		</layer>
		<layer id="58" name="Constant_80996" type="Const" version="opset1">
			<data element_type="i64" shape="1" offset="264208" size="8" />
			<output>
				<port id="0" precision="I64">
					<dim>1</dim>
				</port>
			</output>
		</layer>
		<layer id="59" name="3174" type="Const" version="opset1">
			<data element_type="i64" shape="1" offset="8" size="8" />
			<output>
				<port id="0" precision="I64" names="3174">
					<dim>1</dim>
				</port>
			</output>
		</layer>
		<layer id="60" name="Shape_15" type="ShapeOf" version="opset3">
			<data output_type="i64" />
			<input>
				<port id="0" precision="FP32">
					<dim>1</dim>
					<dim>258</dim>
					<dim>1</dim>
					<dim>16</dim>
				</port>
			</input>
			<output>
				<port id="1" precision="I64" names="354,357,360">
					<dim>4</dim>
				</port>
			</output>
		</layer>
		<layer id="61" name="Constant_19" type="Const" version="opset1">
			<data element_type="i64" shape="" offset="0" size="8" />
			<output>
				<port id="0" precision="I64" names="358" />
			</output>
		</layer>
		<layer id="62" name="Constant_571" type="Const" version="opset1">
			<data element_type="i64" shape="" offset="264208" size="8" />
			<output>
				<port id="0" precision="I64" />
			</output>
		</layer>
		<layer id="63" name="Gather_20" type="Gather" version="opset8">
			<data batch_dims="0" />
			<input>
				<port id="0" precision="I64">
					<dim>4</dim>
				</port>
				<port id="1" precision="I64" />
				<port id="2" precision="I64" />
			</input>
			<output>
				<port id="3" precision="I64" names="359" />
			</output>
		</layer>
		<layer id="64" name="Constant_24" type="Const" version="opset1">
			<data element_type="i64" shape="" offset="8" size="8" />
			<output>
				<port id="0" precision="I64" names="363" />
			</output>
		</layer>
		<layer id="65" name="Div_25" type="Divide" version="opset1">
			<data auto_broadcast="numpy" m_pythondiv="true" />
			<input>
				<port id="0" precision="I64" />
				<port id="1" precision="I64" />
			</input>
			<output>
				<port id="2" precision="I64" names="364,365,366" />
			</output>
		</layer>
		<layer id="66" name="Constant_583" type="Const" version="opset1">
			<data element_type="i64" shape="1" offset="264208" size="8" />
			<output>
				<port id="0" precision="I64">
					<dim>1</dim>
				</port>
			</output>
		</layer>
		<layer id="67" name="Unsqueeze_29" type="Unsqueeze" version="opset1">
			<input>
				<port id="0" precision="I64" />
				<port id="1" precision="I64">
					<dim>1</dim>
				</port>
			</input>
			<output>
				<port id="2" precision="I64" names="370">
					<dim>1</dim>
				</port>
			</output>
		</layer>
		<layer id="68" name="Constant_80997" type="Const" version="opset1">
			<data element_type="i64" shape="1" offset="264208" size="8" />
			<output>
				<port id="0" precision="I64">
					<dim>1</dim>
				</port>
			</output>
		</layer>
		<layer id="69" name="Concat_31" type="Concat" version="opset1">
			<data axis="0" />
			<input>
				<port id="0" precision="I64">
					<dim>1</dim>
				</port>
				<port id="1" precision="I64">
					<dim>1</dim>
				</port>
				<port id="2" precision="I64">
					<dim>1</dim>
				</port>
				<port id="3" precision="I64">
					<dim>1</dim>
				</port>
			</input>
			<output>
				<port id="4" precision="I64">
					<dim>4</dim>
				</port>
			</output>
		</layer>
		<layer id="70" name="Reshape_32" type="Reshape" version="opset1">
			<data special_zero="true" />
			<input>
				<port id="0" precision="FP32">
					<dim>1</dim>
					<dim>258</dim>
					<dim>1</dim>
					<dim>16</dim>
				</port>
				<port id="1" precision="I64">
					<dim>4</dim>
				</port>
			</input>
			<output>
				<port id="2" precision="FP32" names="373">
					<dim>1</dim>
					<dim>2</dim>
					<dim>129</dim>
					<dim>16</dim>
				</port>
			</output>
		</layer>
		<layer id="71" name="Concat_2123" type="Concat" version="opset1">
			<data axis="3" />
			<input>
				<port id="0" precision="FP32">
					<dim>1</dim>
					<dim>2</dim>
					<dim>129</dim>
					<dim>4</dim>
				</port>
				<port id="1" precision="FP32">
					<dim>1</dim>
					<dim>2</dim>
					<dim>129</dim>
					<dim>16</dim>
				</port>
			</input>
			<output>
				<port id="2" precision="FP32" names="3098">
					<dim>1</dim>
					<dim>2</dim>
					<dim>129</dim>
					<dim>20</dim>
				</port>
			</output>
		</layer>
		<layer id="72" name="Constant_103751" type="Const" version="opset1">
			<data element_type="i64" shape="4" offset="264216" size="32" />
			<output>
				<port id="0" precision="I64">
					<dim>4</dim>
				</port>
			</output>
		</layer>
		<layer id="73" name="Constant_103752" type="Const" version="opset1">
			<data element_type="i64" shape="4" offset="264216" size="32" />
			<output>
				<port id="0" precision="I64">
					<dim>4</dim>
				</port>
			</output>
		</layer>
		<layer id="74" name="Constant_103748" type="Const" version="opset1">
			<data element_type="i64" shape="1" offset="264248" size="8" />
			<output>
				<port id="0" precision="I64">
					<dim>1</dim>
				</port>
			</output>
		</layer>
		<layer id="75" name="Shape_2124" type="ShapeOf" version="opset3">
			<data output_type="i64" />
			<input>
				<port id="0" precision="FP32">
					<dim>1</dim>
					<dim>2</dim>
					<dim>129</dim>
					<dim>20</dim>
				</port>
			</input>
			<output>
				<port id="1" precision="I64" names="3099">
					<dim>4</dim>
				</port>
			</output>
		</layer>
		<layer id="76" name="Constant_2125" type="Const" version="opset1">
			<data element_type="i64" shape="" offset="264248" size="8" />
			<output>
				<port id="0" precision="I64" names="3100" />
			</output>
		</layer>
		<layer id="77" name="Constant_5440" type="Const" version="opset1">
			<data element_type="i64" shape="" offset="264208" size="8" />
			<output>
				<port id="0" precision="I64" />
			</output>
		</layer>
		<layer id="78" name="Gather_2126" type="Gather" version="opset8">
			<data batch_dims="0" />
			<input>
				<port id="0" precision="I64">
					<dim>4</dim>
				</port>
				<port id="1" precision="I64" />
				<port id="2" precision="I64" />
			</input>
			<output>
				<port id="3" precision="I64" names="3101" />
			</output>
		</layer>
		<layer id="79" name="Constant_2127" type="Const" version="opset1">
			<data element_type="i64" shape="" offset="264256" size="8" />
			<output>
				<port id="0" precision="I64" names="3102" />
			</output>
		</layer>
		<layer id="80" name="Sub_2128" type="Subtract" version="opset1">
			<data auto_broadcast="numpy" />
			<input>
				<port id="0" precision="I64" />
				<port id="1" precision="I64" />
			</input>
			<output>
				<port id="2" precision="I64" names="3103" />
			</output>
		</layer>
		<layer id="81" name="Constant_5444" type="Const" version="opset1">
			<data element_type="i64" shape="1" offset="264208" size="8" />
			<output>
				<port id="0" precision="I64">
					<dim>1</dim>
				</port>
			</output>
		</layer>
		<layer id="82" name="Unsqueeze_2129" type="Unsqueeze" version="opset1">
			<input>
				<port id="0" precision="I64" />
				<port id="1" precision="I64">
					<dim>1</dim>
				</port>
			</input>
			<output>
				<port id="2" precision="I64" names="3105,3110">
					<dim>1</dim>
				</port>
			</output>
		</layer>
		<layer id="83" name="Constant_103747" type="Const" version="opset1">
			<data element_type="i32" shape="1" offset="264264" size="4" />
			<output>
				<port id="0" precision="I32">
					<dim>1</dim>
				</port>
			</output>
		</layer>
		<layer id="84" name="ScatterUpdate_103753" type="ScatterUpdate" version="opset3">
			<input>
				<port id="0" precision="I64">
					<dim>4</dim>
				</port>
				<port id="1" precision="I64">
					<dim>1</dim>
				</port>
				<port id="2" precision="I64">
					<dim>1</dim>
				</port>
				<port id="3" precision="I32">
					<dim>1</dim>
				</port>
			</input>
			<output>
				<port id="4" precision="I64">
					<dim>4</dim>
				</port>
			</output>
		</layer>
		<layer id="85" name="Constant_103756" type="Const" version="opset1">
			<data element_type="i64" shape="4" offset="264268" size="32" />
			<output>
				<port id="0" precision="I64">
					<dim>4</dim>
				</port>
			</output>
		</layer>
		<layer id="86" name="Slice_2134" type="StridedSlice" version="opset1">
			<data begin_mask="1, 1, 1, 0" end_mask="1, 1, 1, 0" new_axis_mask="" shrink_axis_mask="" ellipsis_mask="" />
			<input>
				<port id="0" precision="FP32">
					<dim>1</dim>
					<dim>2</dim>
					<dim>129</dim>
					<dim>20</dim>
				</port>
				<port id="1" precision="I64">
					<dim>4</dim>
				</port>
				<port id="2" precision="I64">
					<dim>4</dim>
				</port>
				<port id="3" precision="I64">
					<dim>4</dim>
				</port>
			</input>
			<output>
				<port id="4" precision="FP32" names="3111">
					<dim>1</dim>
					<dim>2</dim>
					<dim>129</dim>
					<dim>16</dim>
				</port>
			</output>
		</layer>
		<layer id="87" name="Constant_2141" type="Const" version="opset1">
			<data element_type="i64" shape="" offset="264208" size="8" />
			<output>
				<port id="0" precision="I64" names="3118" />
			</output>
		</layer>
		<layer id="88" name="Constant_5478" type="Const" version="opset1">
			<data element_type="i64" shape="" offset="0" size="8" />
			<output>
				<port id="0" precision="I64" />
			</output>
		</layer>
		<layer id="89" name="Gather_2142" type="Gather" version="opset8">
			<data batch_dims="0" />
			<input>
				<port id="0" precision="FP32">
					<dim>1</dim>
					<dim>2</dim>
					<dim>129</dim>
					<dim>16</dim>
				</port>
				<port id="1" precision="I64" />
				<port id="2" precision="I64" />
			</input>
			<output>
				<port id="3" precision="FP32" names="3119">
					<dim>1</dim>
					<dim>129</dim>
					<dim>16</dim>
				</port>
			</output>
		</layer>
		<layer id="90" name="Constant_142856" type="Const" version="opset1">
			<data element_type="f32" shape="1, 2, 1, 1" offset="264300" size="8" />
			<output>
				<port id="0" precision="FP32">
					<dim>1</dim>
					<dim>2</dim>
					<dim>1</dim>
					<dim>1</dim>
				</port>
			</output>
		</layer>
		<layer id="91" name="Multiply_145136" type="Multiply" version="opset1">
			<data auto_broadcast="numpy" />
			<input>
				<port id="0" precision="FP32">
					<dim>1</dim>
					<dim>2</dim>
					<dim>129</dim>
					<dim>16</dim>
				</port>
				<port id="1" precision="FP32">
					<dim>1</dim>
					<dim>2</dim>
					<dim>1</dim>
					<dim>1</dim>
				</port>
			</input>
			<output>
				<port id="2" precision="FP32">
					<dim>1</dim>
					<dim>2</dim>
					<dim>129</dim>
					<dim>16</dim>
				</port>
			</output>
		</layer>
		<layer id="92" name="Constant_145141" type="Const" version="opset1">
			<data element_type="f32" shape="1, 2, 1, 1" offset="264308" size="8" />
			<output>
				<port id="0" precision="FP32">
					<dim>1</dim>
					<dim>2</dim>
					<dim>1</dim>
					<dim>1</dim>
				</port>
			</output>
		</layer>
		<layer id="93" name="BatchNormalization_33" type="Add" version="opset1">
			<data auto_broadcast="numpy" />
			<input>
				<port id="0" precision="FP32">
					<dim>1</dim>
					<dim>2</dim>
					<dim>129</dim>
					<dim>16</dim>
				</port>
				<port id="1" precision="FP32">
					<dim>1</dim>
					<dim>2</dim>
					<dim>1</dim>
					<dim>1</dim>
				</port>
			</input>
			<output>
				<port id="2" precision="FP32" names="374">
					<dim>1</dim>
					<dim>2</dim>
					<dim>129</dim>
					<dim>16</dim>
				</port>
			</output>
		</layer>
		<layer id="94" name="Constant_646" type="Const" version="opset1">
			<data element_type="f32" shape="1" offset="264316" size="4" />
			<output>
				<port id="0" precision="FP32">
					<dim>1</dim>
				</port>
			</output>
		</layer>
		<layer id="95" name="LeakyRelu_34" type="PReLU" version="opset1">
			<input>
				<port id="0" precision="FP32">
					<dim>1</dim>
					<dim>2</dim>
					<dim>129</dim>
					<dim>16</dim>
				</port>
				<port id="1" precision="FP32">
					<dim>1</dim>
				</port>
			</input>
			<output>
				<port id="2" precision="FP32" names="375">
					<dim>1</dim>
					<dim>2</dim>
					<dim>129</dim>
					<dim>16</dim>
				</port>
			</output>
		</layer>
		<layer id="96" name="Concat_35" type="Concat" version="opset1">
			<data axis="3" />
			<input>
				<port id="0" precision="FP32">
					<dim>1</dim>
					<dim>2</dim>
					<dim>129</dim>
					<dim>2</dim>
				</port>
				<port id="1" precision="FP32">
					<dim>1</dim>
					<dim>2</dim>
					<dim>129</dim>
					<dim>16</dim>
				</port>
			</input>
			<output>
				<port id="2" precision="FP32" names="376">
					<dim>1</dim>
					<dim>2</dim>
					<dim>129</dim>
					<dim>18</dim>
				</port>
			</output>
		</layer>
		<layer id="97" name="blocks_down.0.bd.0.conv.weight" type="Const" version="opset1">
			<data element_type="f32" shape="16, 2, 3, 3" offset="264320" size="1152" />
			<output>
				<port id="0" precision="FP32" names="blocks_down.0.bd.0.conv.weight">
					<dim>16</dim>
					<dim>2</dim>
					<dim>3</dim>
					<dim>3</dim>
				</port>
			</output>
		</layer>
		<layer id="98" name="Conv_62/WithoutBiases" type="Convolution" version="opset1">
			<data strides="1, 1" dilations="1, 1" pads_begin="1, 0" pads_end="1, 0" auto_pad="explicit" />
			<input>
				<port id="0" precision="FP32">
					<dim>1</dim>
					<dim>2</dim>
					<dim>129</dim>
					<dim>18</dim>
				</port>
				<port id="1" precision="FP32">
					<dim>16</dim>
					<dim>2</dim>
					<dim>3</dim>
					<dim>3</dim>
				</port>
			</input>
			<output>
				<port id="2" precision="FP32">
					<dim>1</dim>
					<dim>16</dim>
					<dim>129</dim>
					<dim>16</dim>
				</port>
			</output>
		</layer>
		<layer id="99" name="Reshape_719" type="Const" version="opset1">
			<data element_type="f32" shape="1, 16, 1, 1" offset="265472" size="64" />
			<output>
				<port id="0" precision="FP32">
					<dim>1</dim>
					<dim>16</dim>
					<dim>1</dim>
					<dim>1</dim>
				</port>
			</output>
		</layer>
		<layer id="100" name="Conv_62" type="Add" version="opset1">
			<data auto_broadcast="numpy" />
			<input>
				<port id="0" precision="FP32">
					<dim>1</dim>
					<dim>16</dim>
					<dim>129</dim>
					<dim>16</dim>
				</port>
				<port id="1" precision="FP32">
					<dim>1</dim>
					<dim>16</dim>
					<dim>1</dim>
					<dim>1</dim>
				</port>
			</input>
			<output>
				<port id="2" precision="FP32" names="414">
					<dim>1</dim>
					<dim>16</dim>
					<dim>129</dim>
					<dim>16</dim>
				</port>
			</output>
		</layer>
		<layer id="101" name="Concat_63" type="Concat" version="opset1">
			<data axis="1" />
			<input>
				<port id="0" precision="FP32">
					<dim>1</dim>
					<dim>2</dim>
					<dim>129</dim>
					<dim>16</dim>
				</port>
				<port id="1" precision="FP32">
					<dim>1</dim>
					<dim>16</dim>
					<dim>129</dim>
					<dim>16</dim>
				</port>
			</input>
			<output>
				<port id="2" precision="FP32" names="415">
					<dim>1</dim>
					<dim>18</dim>
					<dim>129</dim>
					<dim>16</dim>
				</port>
			</output>
		</layer>
		<layer id="102" name="Constant_142922" type="Const" version="opset1">
			<data element_type="f32" shape="1, 18, 1, 1" offset="265536" size="72" />
			<output>
				<port id="0" precision="FP32">
					<dim>1</dim>
					<dim>18</dim>
					<dim>1</dim>
					<dim>1</dim>
				</port>
			</output>
		</layer>
		<layer id="103" name="Multiply_145143" type="Multiply" version="opset1">
			<data auto_broadcast="numpy" />
			<input>
				<port id="0" precision="FP32">
					<dim>1</dim>
					<dim>18</dim>
					<dim>129</dim>
					<dim>16</dim>
				</port>
				<port id="1" precision="FP32">
					<dim>1</dim>
					<dim>18</dim>
					<dim>1</dim>
					<dim>1</dim>
				</port>
			</input>
			<output>
				<port id="2" precision="FP32">
					<dim>1</dim>
					<dim>18</dim>
					<dim>129</dim>
					<dim>16</dim>
				</port>
			</output>
		</layer>
		<layer id="104" name="Constant_145148" type="Const" version="opset1">
			<data element_type="f32" shape="1, 18, 1, 1" offset="265608" size="72" />
			<output>
				<port id="0" precision="FP32">
					<dim>1</dim>
					<dim>18</dim>
					<dim>1</dim>
					<dim>1</dim>
				</port>
			</output>
		</layer>
		<layer id="105" name="BatchNormalization_64" type="Add" version="opset1">
			<data auto_broadcast="numpy" />
			<input>
				<port id="0" precision="FP32">
					<dim>1</dim>
					<dim>18</dim>
					<dim>129</dim>
					<dim>16</dim>
				</port>
				<port id="1" precision="FP32">
					<dim>1</dim>
					<dim>18</dim>
					<dim>1</dim>
					<dim>1</dim>
				</port>
			</input>
			<output>
				<port id="2" precision="FP32" names="416">
					<dim>1</dim>
					<dim>18</dim>
					<dim>129</dim>
					<dim>16</dim>
				</port>
			</output>
		</layer>
		<layer id="106" name="Constant_725" type="Const" version="opset1">
			<data element_type="f32" shape="1" offset="264316" size="4" />
			<output>
				<port id="0" precision="FP32">
					<dim>1</dim>
				</port>
			</output>
		</layer>
		<layer id="107" name="LeakyRelu_65" type="PReLU" version="opset1">
			<input>
				<port id="0" precision="FP32">
					<dim>1</dim>
					<dim>18</dim>
					<dim>129</dim>
					<dim>16</dim>
				</port>
				<port id="1" precision="FP32">
					<dim>1</dim>
				</port>
			</input>
			<output>
				<port id="2" precision="FP32" names="417">
					<dim>1</dim>
					<dim>18</dim>
					<dim>129</dim>
					<dim>16</dim>
				</port>
			</output>
		</layer>
		<layer id="108" name="Concat_66" type="Concat" version="opset1">
			<data axis="3" />
			<input>
				<port id="0" precision="FP32">
					<dim>1</dim>
					<dim>18</dim>
					<dim>129</dim>
					<dim>2</dim>
				</port>
				<port id="1" precision="FP32">
					<dim>1</dim>
					<dim>18</dim>
					<dim>129</dim>
					<dim>16</dim>
				</port>
			</input>
			<output>
				<port id="2" precision="FP32" names="418">
					<dim>1</dim>
					<dim>18</dim>
					<dim>129</dim>
					<dim>18</dim>
				</port>
			</output>
		</layer>
		<layer id="109" name="blocks_down.0.bd.1.conv.weight" type="Const" version="opset1">
			<data element_type="f32" shape="16, 18, 3, 3" offset="265680" size="10368" />
			<output>
				<port id="0" precision="FP32" names="blocks_down.0.bd.1.conv.weight">
					<dim>16</dim>
					<dim>18</dim>
					<dim>3</dim>
					<dim>3</dim>
				</port>
			</output>
		</layer>
		<layer id="110" name="Conv_93/WithoutBiases" type="Convolution" version="opset1">
			<data strides="1, 1" dilations="1, 1" pads_begin="1, 0" pads_end="1, 0" auto_pad="explicit" />
			<input>
				<port id="0" precision="FP32">
					<dim>1</dim>
					<dim>18</dim>
					<dim>129</dim>
					<dim>18</dim>
				</port>
				<port id="1" precision="FP32">
					<dim>16</dim>
					<dim>18</dim>
					<dim>3</dim>
					<dim>3</dim>
				</port>
			</input>
			<output>
				<port id="2" precision="FP32">
					<dim>1</dim>
					<dim>16</dim>
					<dim>129</dim>
					<dim>16</dim>
				</port>
			</output>
		</layer>
		<layer id="111" name="Reshape_798" type="Const" version="opset1">
			<data element_type="f32" shape="1, 16, 1, 1" offset="276048" size="64" />
			<output>
				<port id="0" precision="FP32">
					<dim>1</dim>
					<dim>16</dim>
					<dim>1</dim>
					<dim>1</dim>
				</port>
			</output>
		</layer>
		<layer id="112" name="Conv_93" type="Add" version="opset1">
			<data auto_broadcast="numpy" />
			<input>
				<port id="0" precision="FP32">
					<dim>1</dim>
					<dim>16</dim>
					<dim>129</dim>
					<dim>16</dim>
				</port>
				<port id="1" precision="FP32">
					<dim>1</dim>
					<dim>16</dim>
					<dim>1</dim>
					<dim>1</dim>
				</port>
			</input>
			<output>
				<port id="2" precision="FP32" names="456">
					<dim>1</dim>
					<dim>16</dim>
					<dim>129</dim>
					<dim>16</dim>
				</port>
			</output>
		</layer>
		<layer id="113" name="Concat_94" type="Concat" version="opset1">
			<data axis="1" />
			<input>
				<port id="0" precision="FP32">
					<dim>1</dim>
					<dim>18</dim>
					<dim>129</dim>
					<dim>16</dim>
				</port>
				<port id="1" precision="FP32">
					<dim>1</dim>
					<dim>16</dim>
					<dim>129</dim>
					<dim>16</dim>
				</port>
			</input>
			<output>
				<port id="2" precision="FP32" names="457">
					<dim>1</dim>
					<dim>34</dim>
					<dim>129</dim>
					<dim>16</dim>
				</port>
			</output>
		</layer>
		<layer id="114" name="Constant_142988" type="Const" version="opset1">
			<data element_type="f32" shape="1, 34, 1, 1" offset="276112" size="136" />
			<output>
				<port id="0" precision="FP32">
					<dim>1</dim>
					<dim>34</dim>
					<dim>1</dim>
					<dim>1</dim>
				</port>
			</output>
		</layer>
		<layer id="115" name="Multiply_145150" type="Multiply" version="opset1">
			<data auto_broadcast="numpy" />
			<input>
				<port id="0" precision="FP32">
					<dim>1</dim>
					<dim>34</dim>
					<dim>129</dim>
					<dim>16</dim>
				</port>
				<port id="1" precision="FP32">
					<dim>1</dim>
					<dim>34</dim>
					<dim>1</dim>
					<dim>1</dim>
				</port>
			</input>
			<output>
				<port id="2" precision="FP32">
					<dim>1</dim>
					<dim>34</dim>
					<dim>129</dim>
					<dim>16</dim>
				</port>
			</output>
		</layer>
		<layer id="116" name="Constant_145155" type="Const" version="opset1">
			<data element_type="f32" shape="1, 34, 1, 1" offset="276248" size="136" />
			<output>
				<port id="0" precision="FP32">
					<dim>1</dim>
					<dim>34</dim>
					<dim>1</dim>
					<dim>1</dim>
				</port>
			</output>
		</layer>
		<layer id="117" name="BatchNormalization_95" type="Add" version="opset1">
			<data auto_broadcast="numpy" />
			<input>
				<port id="0" precision="FP32">
					<dim>1</dim>
					<dim>34</dim>
					<dim>129</dim>
					<dim>16</dim>
				</port>
				<port id="1" precision="FP32">
					<dim>1</dim>
					<dim>34</dim>
					<dim>1</dim>
					<dim>1</dim>
				</port>
			</input>
			<output>
				<port id="2" precision="FP32" names="458">
					<dim>1</dim>
					<dim>34</dim>
					<dim>129</dim>
					<dim>16</dim>
				</port>
			</output>
		</layer>
		<layer id="118" name="Constant_804" type="Const" version="opset1">
			<data element_type="f32" shape="1" offset="264316" size="4" />
			<output>
				<port id="0" precision="FP32">
					<dim>1</dim>
				</port>
			</output>
		</layer>
		<layer id="119" name="LeakyRelu_96" type="PReLU" version="opset1">
			<input>
				<port id="0" precision="FP32">
					<dim>1</dim>
					<dim>34</dim>
					<dim>129</dim>
					<dim>16</dim>
				</port>
				<port id="1" precision="FP32">
					<dim>1</dim>
				</port>
			</input>
			<output>
				<port id="2" precision="FP32" names="459">
					<dim>1</dim>
					<dim>34</dim>
					<dim>129</dim>
					<dim>16</dim>
				</port>
			</output>
		</layer>
		<layer id="120" name="Concat_97" type="Concat" version="opset1">
			<data axis="3" />
			<input>
				<port id="0" precision="FP32">
					<dim>1</dim>
					<dim>34</dim>
					<dim>129</dim>
					<dim>2</dim>
				</port>
				<port id="1" precision="FP32">
					<dim>1</dim>
					<dim>34</dim>
					<dim>129</dim>
					<dim>16</dim>
				</port>
			</input>
			<output>
				<port id="2" precision="FP32" names="460">
					<dim>1</dim>
					<dim>34</dim>
					<dim>129</dim>
					<dim>18</dim>
				</port>
			</output>
		</layer>
		<layer id="121" name="blocks_down.0.bd_out.conv.weight" type="Const" version="opset1">
			<data element_type="f32" shape="32, 34, 3, 3" offset="276384" size="39168" />
			<output>
				<port id="0" precision="FP32" names="blocks_down.0.bd_out.conv.weight">
					<dim>32</dim>
					<dim>34</dim>
					<dim>3</dim>
					<dim>3</dim>
				</port>
			</output>
		</layer>
		<layer id="122" name="Conv_124/WithoutBiases" type="Convolution" version="opset1">
			<data strides="1, 1" dilations="1, 1" pads_begin="1, 0" pads_end="1, 0" auto_pad="explicit" />
			<input>
				<port id="0" precision="FP32">
					<dim>1</dim>
					<dim>34</dim>
					<dim>129</dim>
					<dim>18</dim>
				</port>
				<port id="1" precision="FP32">
					<dim>32</dim>
					<dim>34</dim>
					<dim>3</dim>
					<dim>3</dim>
				</port>
			</input>
			<output>
				<port id="2" precision="FP32">
					<dim>1</dim>
					<dim>32</dim>
					<dim>129</dim>
					<dim>16</dim>
				</port>
			</output>
		</layer>
		<layer id="123" name="Reshape_877" type="Const" version="opset1">
			<data element_type="f32" shape="1, 32, 1, 1" offset="315552" size="128" />
			<output>
				<port id="0" precision="FP32">
					<dim>1</dim>
					<dim>32</dim>
					<dim>1</dim>
					<dim>1</dim>
				</port>
			</output>
		</layer>
		<layer id="124" name="Conv_124" type="Add" version="opset1">
			<data auto_broadcast="numpy" />
			<input>
				<port id="0" precision="FP32">
					<dim>1</dim>
					<dim>32</dim>
					<dim>129</dim>
					<dim>16</dim>
				</port>
				<port id="1" precision="FP32">
					<dim>1</dim>
					<dim>32</dim>
					<dim>1</dim>
					<dim>1</dim>
				</port>
			</input>
			<output>
				<port id="2" precision="FP32" names="498">
					<dim>1</dim>
					<dim>32</dim>
					<dim>129</dim>
					<dim>16</dim>
				</port>
			</output>
		</layer>
		<layer id="125" name="blocks_down.0.sa.linear_qkv.weight" type="Const" version="opset1">
			<data element_type="f32" shape="96, 32, 1, 1" offset="315680" size="12288" />
			<output>
				<port id="0" precision="FP32" names="blocks_down.0.sa.linear_qkv.weight">
					<dim>96</dim>
					<dim>32</dim>
					<dim>1</dim>
					<dim>1</dim>
				</port>
			</output>
		</layer>
		<layer id="126" name="Conv_134/WithoutBiases" type="Convolution" version="opset1">
			<data strides="1, 1" dilations="1, 1" pads_begin="0, 0" pads_end="0, 0" auto_pad="explicit" />
			<input>
				<port id="0" precision="FP32">
					<dim>1</dim>
					<dim>32</dim>
					<dim>129</dim>
					<dim>16</dim>
				</port>
				<port id="1" precision="FP32">
					<dim>96</dim>
					<dim>32</dim>
					<dim>1</dim>
					<dim>1</dim>
				</port>
			</input>
			<output>
				<port id="2" precision="FP32">
					<dim>1</dim>
					<dim>96</dim>
					<dim>129</dim>
					<dim>16</dim>
				</port>
			</output>
		</layer>
		<layer id="127" name="Reshape_904" type="Const" version="opset1">
			<data element_type="f32" shape="1, 96, 1, 1" offset="327968" size="384" />
			<output>
				<port id="0" precision="FP32">
					<dim>1</dim>
					<dim>96</dim>
					<dim>1</dim>
					<dim>1</dim>
				</port>
			</output>
		</layer>
		<layer id="128" name="Conv_134" type="Add" version="opset1">
			<data auto_broadcast="numpy" />
			<input>
				<port id="0" precision="FP32">
					<dim>1</dim>
					<dim>96</dim>
					<dim>129</dim>
					<dim>16</dim>
				</port>
				<port id="1" precision="FP32">
					<dim>1</dim>
					<dim>96</dim>
					<dim>1</dim>
					<dim>1</dim>
				</port>
			</input>
			<output>
				<port id="2" precision="FP32" names="508">
					<dim>1</dim>
					<dim>96</dim>
					<dim>129</dim>
					<dim>16</dim>
				</port>
			</output>
		</layer>
		<layer id="129" name="Constant_908" type="Const" version="opset1">
			<data element_type="i64" shape="4" offset="328352" size="32" />
			<output>
				<port id="0" precision="I64">
					<dim>4</dim>
				</port>
			</output>
		</layer>
		<layer id="130" name="Transpose_135" type="Transpose" version="opset1">
			<input>
				<port id="0" precision="FP32">
					<dim>1</dim>
					<dim>96</dim>
					<dim>129</dim>
					<dim>16</dim>
				</port>
				<port id="1" precision="I64">
					<dim>4</dim>
				</port>
			</input>
			<output>
				<port id="2" precision="FP32" names="509">
					<dim>1</dim>
					<dim>129</dim>
					<dim>96</dim>
					<dim>16</dim>
				</port>
			</output>
		</layer>
		<layer id="131" name="Constant_910" type="Const" version="opset1">
			<data element_type="i64" shape="" offset="8" size="8" />
			<output>
				<port id="0" precision="I64" />
			</output>
		</layer>
		<layer id="132" name="Constant_911" type="Const" version="opset1">
			<data element_type="i64" shape="3" offset="328384" size="24" />
			<output>
				<port id="0" precision="I64">
					<dim>3</dim>
				</port>
			</output>
		</layer>
		<layer id="133" name="Split_136" type="VariadicSplit" version="opset1">
			<input>
				<port id="0" precision="FP32">
					<dim>1</dim>
					<dim>129</dim>
					<dim>96</dim>
					<dim>16</dim>
				</port>
				<port id="1" precision="I64" />
				<port id="2" precision="I64">
					<dim>3</dim>
				</port>
			</input>
			<output>
				<port id="3" precision="FP32" names="510">
					<dim>1</dim>
					<dim>129</dim>
					<dim>32</dim>
					<dim>16</dim>
				</port>
				<port id="4" precision="FP32" names="511">
					<dim>1</dim>
					<dim>129</dim>
					<dim>32</dim>
					<dim>16</dim>
				</port>
				<port id="5" precision="FP32" names="512">
					<dim>1</dim>
					<dim>129</dim>
					<dim>32</dim>
					<dim>16</dim>
				</port>
			</output>
		</layer>
		<layer id="134" name="Shape_125" type="ShapeOf" version="opset3">
			<data output_type="i64" />
			<input>
				<port id="0" precision="FP32">
					<dim>1</dim>
					<dim>32</dim>
					<dim>129</dim>
					<dim>16</dim>
				</port>
			</input>
			<output>
				<port id="1" precision="I64" names="499,502,505">
					<dim>4</dim>
				</port>
			</output>
		</layer>
		<layer id="135" name="Constant_126" type="Const" version="opset1">
			<data element_type="i64" shape="" offset="264208" size="8" />
			<output>
				<port id="0" precision="I64" names="500" />
			</output>
		</layer>
		<layer id="136" name="Constant_883" type="Const" version="opset1">
			<data element_type="i64" shape="" offset="264208" size="8" />
			<output>
				<port id="0" precision="I64" />
			</output>
		</layer>
		<layer id="137" name="Gather_127" type="Gather" version="opset8">
			<data batch_dims="0" />
			<input>
				<port id="0" precision="I64">
					<dim>4</dim>
				</port>
				<port id="1" precision="I64" />
				<port id="2" precision="I64" />
			</input>
			<output>
				<port id="3" precision="I64" names="501" />
			</output>
		</layer>
		<layer id="138" name="Constant_132" type="Const" version="opset1">
			<data element_type="i64" shape="" offset="8" size="8" />
			<output>
				<port id="0" precision="I64" names="506" />
			</output>
		</layer>
		<layer id="139" name="Constant_891" type="Const" version="opset1">
			<data element_type="i64" shape="" offset="264208" size="8" />
			<output>
				<port id="0" precision="I64" />
			</output>
		</layer>
		<layer id="140" name="Gather_133" type="Gather" version="opset8">
			<data batch_dims="0" />
			<input>
				<port id="0" precision="I64">
					<dim>4</dim>
				</port>
				<port id="1" precision="I64" />
				<port id="2" precision="I64" />
			</input>
			<output>
				<port id="3" precision="I64" names="507" />
			</output>
		</layer>
		<layer id="141" name="Mul_167" type="Multiply" version="opset1">
			<data auto_broadcast="numpy" />
			<input>
				<port id="0" precision="I64" />
				<port id="1" precision="I64" />
			</input>
			<output>
				<port id="2" precision="I64" names="547" />
			</output>
		</layer>
		<layer id="142" name="Constant_970" type="Const" version="opset1">
			<data element_type="i64" shape="1" offset="264208" size="8" />
			<output>
				<port id="0" precision="I64">
					<dim>1</dim>
				</port>
			</output>
		</layer>
		<layer id="143" name="Unsqueeze_168" type="Unsqueeze" version="opset1">
			<input>
				<port id="0" precision="I64" />
				<port id="1" precision="I64">
					<dim>1</dim>
				</port>
			</input>
			<output>
				<port id="2" precision="I64" names="550">
					<dim>1</dim>
				</port>
			</output>
		</layer>
		<layer id="144" name="3195" type="Const" version="opset1">
			<data element_type="i64" shape="1" offset="0" size="8" />
			<output>
				<port id="0" precision="I64" names="3195">
					<dim>1</dim>
				</port>
			</output>
		</layer>
		<layer id="145" name="3196" type="Const" version="opset1">
			<data element_type="i64" shape="1" offset="328408" size="8" />
			<output>
				<port id="0" precision="I64" names="3196">
					<dim>1</dim>
				</port>
			</output>
		</layer>
		<layer id="146" name="Constant_81060" type="Const" version="opset1">
			<data element_type="i64" shape="1" offset="264208" size="8" />
			<output>
				<port id="0" precision="I64">
					<dim>1</dim>
				</port>
			</output>
		</layer>
		<layer id="147" name="Concat_170" type="Concat" version="opset1">
			<data axis="0" />
			<input>
				<port id="0" precision="I64">
					<dim>1</dim>
				</port>
				<port id="1" precision="I64">
					<dim>1</dim>
				</port>
				<port id="2" precision="I64">
					<dim>1</dim>
				</port>
				<port id="3" precision="I64">
					<dim>1</dim>
				</port>
			</input>
			<output>
				<port id="4" precision="I64">
					<dim>4</dim>
				</port>
			</output>
		</layer>
		<layer id="148" name="Reshape_171" type="Reshape" version="opset1">
			<data special_zero="true" />
			<input>
				<port id="0" precision="FP32">
					<dim>1</dim>
					<dim>129</dim>
					<dim>32</dim>
					<dim>16</dim>
				</port>
				<port id="1" precision="I64">
					<dim>4</dim>
				</port>
			</input>
			<output>
				<port id="2" precision="FP32" names="555">
					<dim>129</dim>
					<dim>1</dim>
					<dim>32</dim>
					<dim>16</dim>
				</port>
			</output>
		</layer>
		<layer id="149" name="Concat_137" type="Concat" version="opset1">
			<data axis="3" />
			<input>
				<port id="0" precision="FP32">
					<dim>1</dim>
					<dim>129</dim>
					<dim>32</dim>
					<dim>32</dim>
				</port>
				<port id="1" precision="FP32">
					<dim>1</dim>
					<dim>129</dim>
					<dim>32</dim>
					<dim>16</dim>
				</port>
			</input>
			<output>
				<port id="2" precision="FP32" names="513">
					<dim>1</dim>
					<dim>129</dim>
					<dim>32</dim>
					<dim>48</dim>
				</port>
			</output>
		</layer>
		<layer id="150" name="Mul_172" type="Multiply" version="opset1">
			<data auto_broadcast="numpy" />
			<input>
				<port id="0" precision="I64" />
				<port id="1" precision="I64" />
			</input>
			<output>
				<port id="2" precision="I64" names="556" />
			</output>
		</layer>
		<layer id="151" name="Constant_979" type="Const" version="opset1">
			<data element_type="i64" shape="1" offset="264208" size="8" />
			<output>
				<port id="0" precision="I64">
					<dim>1</dim>
				</port>
			</output>
		</layer>
		<layer id="152" name="Unsqueeze_173" type="Unsqueeze" version="opset1">
			<input>
				<port id="0" precision="I64" />
				<port id="1" precision="I64">
					<dim>1</dim>
				</port>
			</input>
			<output>
				<port id="2" precision="I64" names="559">
					<dim>1</dim>
				</port>
			</output>
		</layer>
		<layer id="153" name="3197" type="Const" version="opset1">
			<data element_type="i64" shape="1" offset="0" size="8" />
			<output>
				<port id="0" precision="I64" names="3197">
					<dim>1</dim>
				</port>
			</output>
		</layer>
		<layer id="154" name="3198" type="Const" version="opset1">
			<data element_type="i64" shape="1" offset="328408" size="8" />
			<output>
				<port id="0" precision="I64" names="3198">
					<dim>1</dim>
				</port>
			</output>
		</layer>
		<layer id="155" name="Constant_81125" type="Const" version="opset1">
			<data element_type="i64" shape="1" offset="264208" size="8" />
			<output>
				<port id="0" precision="I64">
					<dim>1</dim>
				</port>
			</output>
		</layer>
		<layer id="156" name="Concat_175" type="Concat" version="opset1">
			<data axis="0" />
			<input>
				<port id="0" precision="I64">
					<dim>1</dim>
				</port>
				<port id="1" precision="I64">
					<dim>1</dim>
				</port>
				<port id="2" precision="I64">
					<dim>1</dim>
				</port>
				<port id="3" precision="I64">
					<dim>1</dim>
				</port>
			</input>
			<output>
				<port id="4" precision="I64">
					<dim>4</dim>
				</port>
			</output>
		</layer>
		<layer id="157" name="Reshape_176" type="Reshape" version="opset1">
			<data special_zero="true" />
			<input>
				<port id="0" precision="FP32">
					<dim>1</dim>
					<dim>129</dim>
					<dim>32</dim>
					<dim>48</dim>
				</port>
				<port id="1" precision="I64">
					<dim>4</dim>
				</port>
			</input>
			<output>
				<port id="2" precision="FP32" names="564">
					<dim>129</dim>
					<dim>1</dim>
					<dim>32</dim>
					<dim>48</dim>
				</port>
			</output>
		</layer>
		<layer id="158" name="Constant_146356" type="Const" version="opset1">
			<data element_type="f32" shape="1, 1, 1, 1" offset="328416" size="4" />
			<output>
				<port id="0" precision="FP32">
					<dim>1</dim>
					<dim>1</dim>
					<dim>1</dim>
					<dim>1</dim>
				</port>
			</output>
		</layer>
		<layer id="159" name="Multiply_145381" type="Multiply" version="opset1">
			<data auto_broadcast="numpy" />
			<input>
				<port id="0" precision="FP32">
					<dim>129</dim>
					<dim>1</dim>
					<dim>32</dim>
					<dim>48</dim>
				</port>
				<port id="1" precision="FP32">
					<dim>1</dim>
					<dim>1</dim>
					<dim>1</dim>
					<dim>1</dim>
				</port>
			</input>
			<output>
				<port id="2" precision="FP32">
					<dim>129</dim>
					<dim>1</dim>
					<dim>32</dim>
					<dim>48</dim>
				</port>
			</output>
		</layer>
		<layer id="160" name="Div_188" type="MatMul" version="opset1">
			<data transpose_a="true" transpose_b="false" />
			<input>
				<port id="0" precision="FP32">
					<dim>129</dim>
					<dim>1</dim>
					<dim>32</dim>
					<dim>16</dim>
				</port>
				<port id="1" precision="FP32">
					<dim>129</dim>
					<dim>1</dim>
					<dim>32</dim>
					<dim>48</dim>
				</port>
			</input>
			<output>
				<port id="2" precision="FP32" names="580">
					<dim>129</dim>
					<dim>1</dim>
					<dim>16</dim>
					<dim>48</dim>
				</port>
			</output>
		</layer>
		<layer id="161" name="Constant_1011" type="Const" version="opset1">
			<data element_type="f32" shape="" offset="328420" size="4" />
			<output>
				<port id="0" precision="FP32" />
			</output>
		</layer>
		<layer id="162" name="Shape_161" type="ShapeOf" version="opset3">
			<data output_type="i64" />
			<input>
				<port id="0" precision="FP32">
					<dim>1</dim>
					<dim>129</dim>
					<dim>32</dim>
					<dim>16</dim>
				</port>
			</input>
			<output>
				<port id="1" precision="I64" names="541">
					<dim>4</dim>
				</port>
			</output>
		</layer>
		<layer id="163" name="Constant_162" type="Const" version="opset1">
			<data element_type="i64" shape="" offset="264248" size="8" />
			<output>
				<port id="0" precision="I64" names="542" />
			</output>
		</layer>
		<layer id="164" name="Constant_963" type="Const" version="opset1">
			<data element_type="i64" shape="" offset="264208" size="8" />
			<output>
				<port id="0" precision="I64" />
			</output>
		</layer>
		<layer id="165" name="Gather_163" type="Gather" version="opset8">
			<data batch_dims="0" />
			<input>
				<port id="0" precision="I64">
					<dim>4</dim>
				</port>
				<port id="1" precision="I64" />
				<port id="2" precision="I64" />
			</input>
			<output>
				<port id="3" precision="I64" names="543,582" />
			</output>
		</layer>
		<layer id="166" name="Constant_1007" type="Const" version="opset1">
			<data element_type="i64" shape="1" offset="264208" size="8" />
			<output>
				<port id="0" precision="I64">
					<dim>1</dim>
				</port>
			</output>
		</layer>
		<layer id="167" name="Unsqueeze_191" type="Unsqueeze" version="opset1">
			<input>
				<port id="0" precision="I64" />
				<port id="1" precision="I64">
					<dim>1</dim>
				</port>
			</input>
			<output>
				<port id="2" precision="I64" names="584">
					<dim>1</dim>
				</port>
			</output>
		</layer>
		<layer id="168" name="3201" type="Const" version="opset1">
			<data element_type="i64" shape="1" offset="328424" size="8" />
			<output>
				<port id="0" precision="I64" names="3201">
					<dim>1</dim>
				</port>
			</output>
		</layer>
		<layer id="169" name="Concat_192" type="Concat" version="opset1">
			<data axis="0" />
			<input>
				<port id="0" precision="I64">
					<dim>1</dim>
				</port>
				<port id="1" precision="I64">
					<dim>1</dim>
				</port>
			</input>
			<output>
				<port id="2" precision="I64" names="586">
					<dim>2</dim>
				</port>
			</output>
		</layer>
		<layer id="170" name="ConstantOfShape_193" type="Broadcast" version="opset3">
			<data mode="numpy" />
			<input>
				<port id="0" precision="FP32" />
				<port id="1" precision="I64">
					<dim>2</dim>
				</port>
			</input>
			<output>
				<port id="2" precision="FP32" names="587">
					<dim>16</dim>
					<dim>33</dim>
				</port>
			</output>
		</layer>
		<layer id="171" name="3203" type="Const" version="opset1">
			<data element_type="i64" shape="1" offset="264208" size="8" />
			<output>
				<port id="0" precision="I64" names="3203">
					<dim>1</dim>
				</port>
			</output>
		</layer>
		<layer id="172" name="Constant_1018" type="Const" version="opset1">
			<data element_type="i64" shape="1" offset="264208" size="8" />
			<output>
				<port id="0" precision="I64">
					<dim>1</dim>
				</port>
			</output>
		</layer>
		<layer id="173" name="Unsqueeze_196" type="Unsqueeze" version="opset1">
			<input>
				<port id="0" precision="I64" />
				<port id="1" precision="I64">
					<dim>1</dim>
				</port>
			</input>
			<output>
				<port id="2" precision="I64" names="593">
					<dim>1</dim>
				</port>
			</output>
		</layer>
		<layer id="174" name="Concat_197" type="Concat" version="opset1">
			<data axis="0" />
			<input>
				<port id="0" precision="I64">
					<dim>1</dim>
				</port>
				<port id="1" precision="I64">
					<dim>1</dim>
				</port>
			</input>
			<output>
				<port id="2" precision="I64" names="594,602">
					<dim>2</dim>
				</port>
			</output>
		</layer>
		<layer id="175" name="ConstantOfShape_203" type="Const" version="opset1">
			<data element_type="i64" shape="2" offset="328432" size="16" />
			<output>
				<port id="0" precision="I64" names="603">
					<dim>2</dim>
				</port>
			</output>
		</layer>
		<layer id="176" name="Concat_204" type="Concat" version="opset1">
			<data axis="0" />
			<input>
				<port id="0" precision="I64">
					<dim>2</dim>
				</port>
				<port id="1" precision="I64">
					<dim>2</dim>
				</port>
			</input>
			<output>
				<port id="2" precision="I64" names="604">
					<dim>4</dim>
				</port>
			</output>
		</layer>
		<layer id="177" name="Constant_205" type="Const" version="opset1">
			<data element_type="i64" shape="2" offset="328448" size="16" />
			<output>
				<port id="0" precision="I64" names="605">
					<dim>2</dim>
				</port>
			</output>
		</layer>
		<layer id="178" name="Reshape_206" type="Reshape" version="opset1">
			<data special_zero="true" />
			<input>
				<port id="0" precision="I64">
					<dim>4</dim>
				</port>
				<port id="1" precision="I64">
					<dim>2</dim>
				</port>
			</input>
			<output>
				<port id="2" precision="I64" names="606">
					<dim>2</dim>
					<dim>2</dim>
				</port>
			</output>
		</layer>
		<layer id="179" name="Constant_208" type="Const" version="opset1">
			<data element_type="i64" shape="1" offset="328464" size="8" />
			<output>
				<port id="0" precision="I64" names="608">
					<dim>1</dim>
				</port>
			</output>
		</layer>
		<layer id="180" name="Constant_209" type="Const" version="opset1">
			<data element_type="i64" shape="1" offset="328472" size="8" />
			<output>
				<port id="0" precision="I64" names="609">
					<dim>1</dim>
				</port>
			</output>
		</layer>
		<layer id="181" name="Constant_210" type="Const" version="opset1">
			<data element_type="i64" shape="1" offset="328464" size="8" />
			<output>
				<port id="0" precision="I64" names="610">
					<dim>1</dim>
				</port>
			</output>
		</layer>
		<layer id="182" name="Slice_211" type="StridedSlice" version="opset1">
			<data begin_mask="0" end_mask="0" new_axis_mask="" shrink_axis_mask="" ellipsis_mask="" />
			<input>
				<port id="0" precision="I64">
					<dim>2</dim>
					<dim>2</dim>
				</port>
				<port id="1" precision="I64">
					<dim>1</dim>
				</port>
				<port id="2" precision="I64">
					<dim>1</dim>
				</port>
				<port id="3" precision="I64">
					<dim>1</dim>
				</port>
			</input>
			<output>
				<port id="4" precision="I64" names="611">
					<dim>2</dim>
					<dim>2</dim>
				</port>
			</output>
		</layer>
		<layer id="183" name="Constant_1042" type="Const" version="opset1">
			<data element_type="i64" shape="2" offset="328480" size="16" />
			<output>
				<port id="0" precision="I64">
					<dim>2</dim>
				</port>
			</output>
		</layer>
		<layer id="184" name="Transpose_212" type="Transpose" version="opset1">
			<input>
				<port id="0" precision="I64">
					<dim>2</dim>
					<dim>2</dim>
				</port>
				<port id="1" precision="I64">
					<dim>2</dim>
				</port>
			</input>
			<output>
				<port id="2" precision="I64" names="612">
					<dim>2</dim>
					<dim>2</dim>
				</port>
			</output>
		</layer>
		<layer id="185" name="Constant_7249" type="Const" version="opset1">
			<data element_type="i64" shape="1" offset="328464" size="8" />
			<output>
				<port id="0" precision="I64">
					<dim>1</dim>
				</port>
			</output>
		</layer>
		<layer id="186" name="Reshape_214" type="Reshape" version="opset1">
			<data special_zero="true" />
			<input>
				<port id="0" precision="I64">
					<dim>2</dim>
					<dim>2</dim>
				</port>
				<port id="1" precision="I64">
					<dim>1</dim>
				</port>
			</input>
			<output>
				<port id="2" precision="I64" names="614,615">
					<dim>4</dim>
				</port>
			</output>
		</layer>
		<layer id="187" name="Constant_1050" type="Const" version="opset1">
			<data element_type="i64" shape="" offset="264208" size="8" />
			<output>
				<port id="0" precision="I64" />
			</output>
		</layer>
		<layer id="188" name="Split_1051" type="Split" version="opset1">
			<data num_splits="2" />
			<input>
				<port id="0" precision="I64">
					<dim>4</dim>
				</port>
				<port id="1" precision="I64" />
			</input>
			<output>
				<port id="2" precision="I64">
					<dim>2</dim>
				</port>
				<port id="3" precision="I64">
					<dim>2</dim>
				</port>
			</output>
		</layer>
		<layer id="189" name="Constant_216" type="Const" version="opset1">
			<data element_type="f32" shape="" offset="264264" size="4" />
			<output>
				<port id="0" precision="FP32" names="616" />
			</output>
		</layer>
		<layer id="190" name="Pad_217" type="Pad" version="opset1">
			<data pad_mode="constant" />
			<input>
				<port id="0" precision="FP32">
					<dim>16</dim>
					<dim>33</dim>
				</port>
				<port id="1" precision="I64">
					<dim>2</dim>
				</port>
				<port id="2" precision="I64">
					<dim>2</dim>
				</port>
				<port id="3" precision="FP32" />
			</input>
			<output>
				<port id="4" precision="FP32" names="617">
					<dim>16</dim>
					<dim>49</dim>
				</port>
			</output>
		</layer>
		<layer id="191" name="Constant_7250" type="Const" version="opset1">
			<data element_type="i64" shape="1" offset="328464" size="8" />
			<output>
				<port id="0" precision="I64">
					<dim>1</dim>
				</port>
			</output>
		</layer>
		<layer id="192" name="Reshape_219" type="Reshape" version="opset1">
			<data special_zero="true" />
			<input>
				<port id="0" precision="FP32">
					<dim>16</dim>
					<dim>49</dim>
				</port>
				<port id="1" precision="I64">
					<dim>1</dim>
				</port>
			</input>
			<output>
				<port id="2" precision="FP32" names="619">
					<dim>784</dim>
				</port>
			</output>
		</layer>
		<layer id="193" name="3205" type="Const" version="opset1">
			<data element_type="i64" shape="1" offset="264208" size="8" />
			<output>
				<port id="0" precision="I64" names="3205">
					<dim>1</dim>
				</port>
			</output>
		</layer>
		<layer id="194" name="Constant_220" type="Const" version="opset1">
			<data element_type="i64" shape="" offset="328424" size="8" />
			<output>
				<port id="0" precision="I64" names="620" />
			</output>
		</layer>
		<layer id="195" name="Add_221" type="Add" version="opset1">
			<data auto_broadcast="numpy" />
			<input>
				<port id="0" precision="I64" />
				<port id="1" precision="I64" />
			</input>
			<output>
				<port id="2" precision="I64" names="621" />
			</output>
		</layer>
		<layer id="196" name="Constant_222" type="Const" version="opset1">
			<data element_type="i64" shape="" offset="0" size="8" />
			<output>
				<port id="0" precision="I64" names="622" />
			</output>
		</layer>
		<layer id="197" name="Sub_223" type="Subtract" version="opset1">
			<data auto_broadcast="numpy" />
			<input>
				<port id="0" precision="I64" />
				<port id="1" precision="I64" />
			</input>
			<output>
				<port id="2" precision="I64" names="623" />
			</output>
		</layer>
		<layer id="198" name="Mul_224" type="Multiply" version="opset1">
			<data auto_broadcast="numpy" />
			<input>
				<port id="0" precision="I64" />
				<port id="1" precision="I64" />
			</input>
			<output>
				<port id="2" precision="I64" names="624" />
			</output>
		</layer>
		<layer id="199" name="Constant_1080" type="Const" version="opset1">
			<data element_type="i64" shape="1" offset="264208" size="8" />
			<output>
				<port id="0" precision="I64">
					<dim>1</dim>
				</port>
			</output>
		</layer>
		<layer id="200" name="Unsqueeze_225" type="Unsqueeze" version="opset1">
			<input>
				<port id="0" precision="I64" />
				<port id="1" precision="I64">
					<dim>1</dim>
				</port>
			</input>
			<output>
				<port id="2" precision="I64" names="628">
					<dim>1</dim>
				</port>
			</output>
		</layer>
		<layer id="201" name="Constant_226" type="Const" version="opset1">
			<data element_type="i64" shape="1" offset="0" size="8" />
			<output>
				<port id="0" precision="I64" names="630">
					<dim>1</dim>
				</port>
			</output>
		</layer>
		<layer id="202" name="Slice_227" type="StridedSlice" version="opset1">
			<data begin_mask="0" end_mask="0" new_axis_mask="" shrink_axis_mask="" ellipsis_mask="" />
			<input>
				<port id="0" precision="FP32">
					<dim>784</dim>
				</port>
				<port id="1" precision="I64">
					<dim>1</dim>
				</port>
				<port id="2" precision="I64">
					<dim>1</dim>
				</port>
				<port id="3" precision="I64">
					<dim>1</dim>
				</port>
			</input>
			<output>
				<port id="4" precision="FP32" names="631">
					<dim>768</dim>
				</port>
			</output>
		</layer>
		<layer id="203" name="Constant_1090" type="Const" version="opset1">
			<data element_type="i64" shape="1" offset="264208" size="8" />
			<output>
				<port id="0" precision="I64">
					<dim>1</dim>
				</port>
			</output>
		</layer>
		<layer id="204" name="Unsqueeze_232" type="Unsqueeze" version="opset1">
			<input>
				<port id="0" precision="I64" />
				<port id="1" precision="I64">
					<dim>1</dim>
				</port>
			</input>
			<output>
				<port id="2" precision="I64" names="636">
					<dim>1</dim>
				</port>
			</output>
		</layer>
		<layer id="205" name="Constant_228" type="Const" version="opset1">
			<data element_type="i64" shape="" offset="328424" size="8" />
			<output>
				<port id="0" precision="I64" names="632" />
			</output>
		</layer>
		<layer id="206" name="Add_229" type="Add" version="opset1">
			<data auto_broadcast="numpy" />
			<input>
				<port id="0" precision="I64" />
				<port id="1" precision="I64" />
			</input>
			<output>
				<port id="2" precision="I64" names="633" />
			</output>
		</layer>
		<layer id="207" name="Constant_230" type="Const" version="opset1">
			<data element_type="i64" shape="" offset="0" size="8" />
			<output>
				<port id="0" precision="I64" names="634" />
			</output>
		</layer>
		<layer id="208" name="Sub_231" type="Subtract" version="opset1">
			<data auto_broadcast="numpy" />
			<input>
				<port id="0" precision="I64" />
				<port id="1" precision="I64" />
			</input>
			<output>
				<port id="2" precision="I64" names="635" />
			</output>
		</layer>
		<layer id="209" name="Constant_1092" type="Const" version="opset1">
			<data element_type="i64" shape="1" offset="264208" size="8" />
			<output>
				<port id="0" precision="I64">
					<dim>1</dim>
				</port>
			</output>
		</layer>
		<layer id="210" name="Unsqueeze_233" type="Unsqueeze" version="opset1">
			<input>
				<port id="0" precision="I64" />
				<port id="1" precision="I64">
					<dim>1</dim>
				</port>
			</input>
			<output>
				<port id="2" precision="I64" names="637">
					<dim>1</dim>
				</port>
			</output>
		</layer>
		<layer id="211" name="Concat_234" type="Concat" version="opset1">
			<data axis="0" />
			<input>
				<port id="0" precision="I64">
					<dim>1</dim>
				</port>
				<port id="1" precision="I64">
					<dim>1</dim>
				</port>
			</input>
			<output>
				<port id="2" precision="I64" names="638">
					<dim>2</dim>
				</port>
			</output>
		</layer>
		<layer id="212" name="Reshape_235" type="Reshape" version="opset1">
			<data special_zero="true" />
			<input>
				<port id="0" precision="FP32">
					<dim>768</dim>
				</port>
				<port id="1" precision="I64">
					<dim>2</dim>
				</port>
			</input>
			<output>
				<port id="2" precision="FP32" names="639">
					<dim>16</dim>
					<dim>48</dim>
				</port>
			</output>
		</layer>
		<layer id="213" name="Constant_103884" type="Const" version="opset1">
			<data element_type="i64" shape="2" offset="328432" size="16" />
			<output>
				<port id="0" precision="I64">
					<dim>2</dim>
				</port>
			</output>
		</layer>
		<layer id="214" name="Constant_103885" type="Const" version="opset1">
			<data element_type="i64" shape="2" offset="328432" size="16" />
			<output>
				<port id="0" precision="I64">
					<dim>2</dim>
				</port>
			</output>
		</layer>
		<layer id="215" name="Constant_103881" type="Const" version="opset1">
			<data element_type="i64" shape="1" offset="0" size="8" />
			<output>
				<port id="0" precision="I64">
					<dim>1</dim>
				</port>
			</output>
		</layer>
		<layer id="216" name="Constant_184" type="Const" version="opset1">
			<data element_type="i64" shape="" offset="328408" size="8" />
			<output>
				<port id="0" precision="I64" names="576" />
			</output>
		</layer>
		<layer id="217" name="Add_185" type="Add" version="opset1">
			<data auto_broadcast="numpy" />
			<input>
				<port id="0" precision="I64" />
				<port id="1" precision="I64" />
			</input>
			<output>
				<port id="2" precision="I64" names="577,641" />
			</output>
		</layer>
		<layer id="218" name="Constant_1100" type="Const" version="opset1">
			<data element_type="i64" shape="1" offset="264208" size="8" />
			<output>
				<port id="0" precision="I64">
					<dim>1</dim>
				</port>
			</output>
		</layer>
		<layer id="219" name="Unsqueeze_238" type="Unsqueeze" version="opset1">
			<input>
				<port id="0" precision="I64" />
				<port id="1" precision="I64">
					<dim>1</dim>
				</port>
			</input>
			<output>
				<port id="2" precision="I64" names="645">
					<dim>1</dim>
				</port>
			</output>
		</layer>
		<layer id="220" name="Constant_103880" type="Const" version="opset1">
			<data element_type="i32" shape="1" offset="264264" size="4" />
			<output>
				<port id="0" precision="I32">
					<dim>1</dim>
				</port>
			</output>
		</layer>
		<layer id="221" name="ScatterUpdate_103886" type="ScatterUpdate" version="opset3">
			<input>
				<port id="0" precision="I64">
					<dim>2</dim>
				</port>
				<port id="1" precision="I64">
					<dim>1</dim>
				</port>
				<port id="2" precision="I64">
					<dim>1</dim>
				</port>
				<port id="3" precision="I32">
					<dim>1</dim>
				</port>
			</input>
			<output>
				<port id="4" precision="I64">
					<dim>2</dim>
				</port>
			</output>
		</layer>
		<layer id="222" name="Constant_103889" type="Const" version="opset1">
			<data element_type="i64" shape="2" offset="328496" size="16" />
			<output>
				<port id="0" precision="I64">
					<dim>2</dim>
				</port>
			</output>
		</layer>
		<layer id="223" name="Slice_240" type="StridedSlice" version="opset1">
			<data begin_mask="1, 0" end_mask="1, 0" new_axis_mask="" shrink_axis_mask="" ellipsis_mask="" />
			<input>
				<port id="0" precision="FP32">
					<dim>16</dim>
					<dim>48</dim>
				</port>
				<port id="1" precision="I64">
					<dim>2</dim>
				</port>
				<port id="2" precision="I64">
					<dim>2</dim>
				</port>
				<port id="3" precision="I64">
					<dim>2</dim>
				</port>
			</input>
			<output>
				<port id="4" precision="FP32" names="648">
					<dim>16</dim>
					<dim>48</dim>
				</port>
			</output>
		</layer>
		<layer id="224" name="Constant_1106" type="Const" version="opset1">
			<data element_type="i64" shape="1" offset="264208" size="8" />
			<output>
				<port id="0" precision="I64">
					<dim>1</dim>
				</port>
			</output>
		</layer>
		<layer id="225" name="Unsqueeze_241" type="Unsqueeze" version="opset1">
			<input>
				<port id="0" precision="FP32">
					<dim>16</dim>
					<dim>48</dim>
				</port>
				<port id="1" precision="I64">
					<dim>1</dim>
				</port>
			</input>
			<output>
				<port id="2" precision="FP32" names="649">
					<dim>1</dim>
					<dim>16</dim>
					<dim>48</dim>
				</port>
			</output>
		</layer>
		<layer id="226" name="Constant_1108" type="Const" version="opset1">
			<data element_type="i64" shape="1" offset="264208" size="8" />
			<output>
				<port id="0" precision="I64">
					<dim>1</dim>
				</port>
			</output>
		</layer>
		<layer id="227" name="Unsqueeze_242" type="Unsqueeze" version="opset1">
			<input>
				<port id="0" precision="FP32">
					<dim>1</dim>
					<dim>16</dim>
					<dim>48</dim>
				</port>
				<port id="1" precision="I64">
					<dim>1</dim>
				</port>
			</input>
			<output>
				<port id="2" precision="FP32" names="650">
					<dim>1</dim>
					<dim>1</dim>
					<dim>16</dim>
					<dim>48</dim>
				</port>
			</output>
		</layer>
		<layer id="228" name="Mul_243" type="Multiply" version="opset1">
			<data auto_broadcast="numpy" />
			<input>
				<port id="0" precision="FP32">
					<dim>129</dim>
					<dim>1</dim>
					<dim>16</dim>
					<dim>48</dim>
				</port>
				<port id="1" precision="FP32">
					<dim>1</dim>
					<dim>1</dim>
					<dim>16</dim>
					<dim>48</dim>
				</port>
			</input>
			<output>
				<port id="2" precision="FP32" names="651">
					<dim>129</dim>
					<dim>1</dim>
					<dim>16</dim>
					<dim>48</dim>
				</port>
			</output>
		</layer>
		<layer id="229" name="Constant_146357" type="Const" version="opset1">
			<data element_type="f32" shape="1, 1, 1, 1" offset="328420" size="4" />
			<output>
				<port id="0" precision="FP32">
					<dim>1</dim>
					<dim>1</dim>
					<dim>1</dim>
					<dim>1</dim>
				</port>
			</output>
		</layer>
		<layer id="230" name="Sub_245" type="Subtract" version="opset1">
			<data auto_broadcast="numpy" />
			<input>
				<port id="0" precision="FP32">
					<dim>1</dim>
					<dim>1</dim>
					<dim>1</dim>
					<dim>1</dim>
				</port>
				<port id="1" precision="FP32">
					<dim>1</dim>
					<dim>1</dim>
					<dim>16</dim>
					<dim>48</dim>
				</port>
			</input>
			<output>
				<port id="2" precision="FP32" names="653">
					<dim>1</dim>
					<dim>1</dim>
					<dim>16</dim>
					<dim>48</dim>
				</port>
			</output>
		</layer>
		<layer id="231" name="Constant_146358" type="Const" version="opset1">
			<data element_type="f32" shape="1, 1, 1, 1" offset="328512" size="4" />
			<output>
				<port id="0" precision="FP32">
					<dim>1</dim>
					<dim>1</dim>
					<dim>1</dim>
					<dim>1</dim>
				</port>
			</output>
		</layer>
		<layer id="232" name="Mul_247" type="Multiply" version="opset1">
			<data auto_broadcast="numpy" />
			<input>
				<port id="0" precision="FP32">
					<dim>1</dim>
					<dim>1</dim>
					<dim>16</dim>
					<dim>48</dim>
				</port>
				<port id="1" precision="FP32">
					<dim>1</dim>
					<dim>1</dim>
					<dim>1</dim>
					<dim>1</dim>
				</port>
			</input>
			<output>
				<port id="2" precision="FP32" names="655">
					<dim>1</dim>
					<dim>1</dim>
					<dim>16</dim>
					<dim>48</dim>
				</port>
			</output>
		</layer>
		<layer id="233" name="Add_248" type="Add" version="opset1">
			<data auto_broadcast="numpy" />
			<input>
				<port id="0" precision="FP32">
					<dim>129</dim>
					<dim>1</dim>
					<dim>16</dim>
					<dim>48</dim>
				</port>
				<port id="1" precision="FP32">
					<dim>1</dim>
					<dim>1</dim>
					<dim>16</dim>
					<dim>48</dim>
				</port>
			</input>
			<output>
				<port id="2" precision="FP32" names="656">
					<dim>129</dim>
					<dim>1</dim>
					<dim>16</dim>
					<dim>48</dim>
				</port>
			</output>
		</layer>
		<layer id="234" name="Softmax_249" type="SoftMax" version="opset8">
			<data axis="3" />
			<input>
				<port id="0" precision="FP32">
					<dim>129</dim>
					<dim>1</dim>
					<dim>16</dim>
					<dim>48</dim>
				</port>
			</input>
			<output>
				<port id="1" precision="FP32" names="657">
					<dim>129</dim>
					<dim>1</dim>
					<dim>16</dim>
					<dim>48</dim>
				</port>
			</output>
		</layer>
		<layer id="235" name="Concat_149" type="Concat" version="opset1">
			<data axis="3" />
			<input>
				<port id="0" precision="FP32">
					<dim>1</dim>
					<dim>129</dim>
					<dim>32</dim>
					<dim>32</dim>
				</port>
				<port id="1" precision="FP32">
					<dim>1</dim>
					<dim>129</dim>
					<dim>32</dim>
					<dim>16</dim>
				</port>
			</input>
			<output>
				<port id="2" precision="FP32" names="527">
					<dim>1</dim>
					<dim>129</dim>
					<dim>32</dim>
					<dim>48</dim>
				</port>
			</output>
		</layer>
		<layer id="236" name="Mul_177" type="Multiply" version="opset1">
			<data auto_broadcast="numpy" />
			<input>
				<port id="0" precision="I64" />
				<port id="1" precision="I64" />
			</input>
			<output>
				<port id="2" precision="I64" names="565" />
			</output>
		</layer>
		<layer id="237" name="Constant_988" type="Const" version="opset1">
			<data element_type="i64" shape="1" offset="264208" size="8" />
			<output>
				<port id="0" precision="I64">
					<dim>1</dim>
				</port>
			</output>
		</layer>
		<layer id="238" name="Unsqueeze_178" type="Unsqueeze" version="opset1">
			<input>
				<port id="0" precision="I64" />
				<port id="1" precision="I64">
					<dim>1</dim>
				</port>
			</input>
			<output>
				<port id="2" precision="I64" names="568">
					<dim>1</dim>
				</port>
			</output>
		</layer>
		<layer id="239" name="3199" type="Const" version="opset1">
			<data element_type="i64" shape="1" offset="0" size="8" />
			<output>
				<port id="0" precision="I64" names="3199">
					<dim>1</dim>
				</port>
			</output>
		</layer>
		<layer id="240" name="3200" type="Const" version="opset1">
			<data element_type="i64" shape="1" offset="328408" size="8" />
			<output>
				<port id="0" precision="I64" names="3200">
					<dim>1</dim>
				</port>
			</output>
		</layer>
		<layer id="241" name="Shape_164" type="ShapeOf" version="opset3">
			<data output_type="i64" />
			<input>
				<port id="0" precision="FP32">
					<dim>1</dim>
					<dim>129</dim>
					<dim>32</dim>
					<dim>48</dim>
				</port>
			</input>
			<output>
				<port id="1" precision="I64" names="514,544">
					<dim>4</dim>
				</port>
			</output>
		</layer>
		<layer id="242" name="Constant_58892" type="Const" version="opset1">
			<data element_type="i64" shape="1" offset="264248" size="8" />
			<output>
				<port id="0" precision="I64">
					<dim>1</dim>
				</port>
			</output>
		</layer>
		<layer id="243" name="Constant_967" type="Const" version="opset1">
			<data element_type="i64" shape="" offset="264208" size="8" />
			<output>
				<port id="0" precision="I64" />
			</output>
		</layer>
		<layer id="244" name="Gather_166" type="Gather" version="opset8">
			<data batch_dims="0" />
			<input>
				<port id="0" precision="I64">
					<dim>4</dim>
				</port>
				<port id="1" precision="I64">
					<dim>1</dim>
				</port>
				<port id="2" precision="I64" />
			</input>
			<output>
				<port id="3" precision="I64" names="571">
					<dim>1</dim>
				</port>
			</output>
		</layer>
		<layer id="245" name="Concat_180" type="Concat" version="opset1">
			<data axis="0" />
			<input>
				<port id="0" precision="I64">
					<dim>1</dim>
				</port>
				<port id="1" precision="I64">
					<dim>1</dim>
				</port>
				<port id="2" precision="I64">
					<dim>1</dim>
				</port>
				<port id="3" precision="I64">
					<dim>1</dim>
				</port>
			</input>
			<output>
				<port id="4" precision="I64" names="572">
					<dim>4</dim>
				</port>
			</output>
		</layer>
		<layer id="246" name="Reshape_181" type="Reshape" version="opset1">
			<data special_zero="true" />
			<input>
				<port id="0" precision="FP32">
					<dim>1</dim>
					<dim>129</dim>
					<dim>32</dim>
					<dim>48</dim>
				</port>
				<port id="1" precision="I64">
					<dim>4</dim>
				</port>
			</input>
			<output>
				<port id="2" precision="FP32" names="573">
					<dim>129</dim>
					<dim>1</dim>
					<dim>32</dim>
					<dim>48</dim>
				</port>
			</output>
		</layer>
		<layer id="247" name="MatMul_250" type="MatMul" version="opset1">
			<data transpose_a="false" transpose_b="true" />
			<input>
				<port id="0" precision="FP32">
					<dim>129</dim>
					<dim>1</dim>
					<dim>16</dim>
					<dim>48</dim>
				</port>
				<port id="1" precision="FP32">
					<dim>129</dim>
					<dim>1</dim>
					<dim>32</dim>
					<dim>48</dim>
				</port>
			</input>
			<output>
				<port id="2" precision="FP32" names="658">
					<dim>129</dim>
					<dim>1</dim>
					<dim>16</dim>
					<dim>32</dim>
				</port>
			</output>
		</layer>
		<layer id="248" name="Constant_1118" type="Const" version="opset1">
			<data element_type="i64" shape="4" offset="328516" size="32" />
			<output>
				<port id="0" precision="I64">
					<dim>4</dim>
				</port>
			</output>
		</layer>
		<layer id="249" name="Transpose_251" type="Transpose" version="opset1">
			<input>
				<port id="0" precision="FP32">
					<dim>129</dim>
					<dim>1</dim>
					<dim>16</dim>
					<dim>32</dim>
				</port>
				<port id="1" precision="I64">
					<dim>4</dim>
				</port>
			</input>
			<output>
				<port id="2" precision="FP32" names="659">
					<dim>129</dim>
					<dim>1</dim>
					<dim>32</dim>
					<dim>16</dim>
				</port>
			</output>
		</layer>
		<layer id="250" name="Constant_59229" type="Const" version="opset1">
			<data element_type="i64" shape="3" offset="328548" size="24" />
			<output>
				<port id="0" precision="I64">
					<dim>3</dim>
				</port>
			</output>
		</layer>
		<layer id="251" name="Constant_59230" type="Const" version="opset1">
			<data element_type="i64" shape="" offset="264208" size="8" />
			<output>
				<port id="0" precision="I64" />
			</output>
		</layer>
		<layer id="252" name="Gather_59231" type="Gather" version="opset8">
			<data batch_dims="0" />
			<input>
				<port id="0" precision="I64">
					<dim>4</dim>
				</port>
				<port id="1" precision="I64">
					<dim>3</dim>
				</port>
				<port id="2" precision="I64" />
			</input>
			<output>
				<port id="3" precision="I64">
					<dim>3</dim>
				</port>
			</output>
		</layer>
		<layer id="253" name="Constant_58916" type="Const" version="opset1">
			<data element_type="i64" shape="1" offset="264248" size="8" />
			<output>
				<port id="0" precision="I64">
					<dim>1</dim>
				</port>
			</output>
		</layer>
		<layer id="254" name="Gather_1630" type="Gather" version="opset8">
			<data batch_dims="0" />
			<input>
				<port id="0" precision="I64">
					<dim>4</dim>
				</port>
				<port id="1" precision="I64">
					<dim>1</dim>
				</port>
				<port id="2" precision="I64" />
			</input>
			<output>
				<port id="3" precision="I64" names="663">
					<dim>1</dim>
				</port>
			</output>
		</layer>
		<layer id="255" name="Concat_256" type="Concat" version="opset1">
			<data axis="0" />
			<input>
				<port id="0" precision="I64">
					<dim>3</dim>
				</port>
				<port id="1" precision="I64">
					<dim>1</dim>
				</port>
			</input>
			<output>
				<port id="2" precision="I64" names="664">
					<dim>4</dim>
				</port>
			</output>
		</layer>
		<layer id="256" name="Reshape_257" type="Reshape" version="opset1">
			<data special_zero="true" />
			<input>
				<port id="0" precision="FP32">
					<dim>129</dim>
					<dim>1</dim>
					<dim>32</dim>
					<dim>16</dim>
				</port>
				<port id="1" precision="I64">
					<dim>4</dim>
				</port>
			</input>
			<output>
				<port id="2" precision="FP32" names="665">
					<dim>1</dim>
					<dim>129</dim>
					<dim>32</dim>
					<dim>16</dim>
				</port>
			</output>
		</layer>
		<layer id="257" name="Constant_1132" type="Const" version="opset1">
			<data element_type="i64" shape="4" offset="328352" size="32" />
			<output>
				<port id="0" precision="I64">
					<dim>4</dim>
				</port>
			</output>
		</layer>
		<layer id="258" name="Transpose_258" type="Transpose" version="opset1">
			<input>
				<port id="0" precision="FP32">
					<dim>1</dim>
					<dim>129</dim>
					<dim>32</dim>
					<dim>16</dim>
				</port>
				<port id="1" precision="I64">
					<dim>4</dim>
				</port>
			</input>
			<output>
				<port id="2" precision="FP32" names="666">
					<dim>1</dim>
					<dim>32</dim>
					<dim>129</dim>
					<dim>16</dim>
				</port>
			</output>
		</layer>
		<layer id="259" name="blocks_down.0.sa.conv_o.weight" type="Const" version="opset1">
			<data element_type="f32" shape="32, 32, 1, 1" offset="328572" size="4096" />
			<output>
				<port id="0" precision="FP32" names="blocks_down.0.sa.conv_o.weight">
					<dim>32</dim>
					<dim>32</dim>
					<dim>1</dim>
					<dim>1</dim>
				</port>
			</output>
		</layer>
		<layer id="260" name="Conv_259/WithoutBiases" type="Convolution" version="opset1">
			<data strides="1, 1" dilations="1, 1" pads_begin="0, 0" pads_end="0, 0" auto_pad="explicit" />
			<input>
				<port id="0" precision="FP32">
					<dim>1</dim>
					<dim>32</dim>
					<dim>129</dim>
					<dim>16</dim>
				</port>
				<port id="1" precision="FP32">
					<dim>32</dim>
					<dim>32</dim>
					<dim>1</dim>
					<dim>1</dim>
				</port>
			</input>
			<output>
				<port id="2" precision="FP32">
					<dim>1</dim>
					<dim>32</dim>
					<dim>129</dim>
					<dim>16</dim>
				</port>
			</output>
		</layer>
		<layer id="261" name="Reshape_1145" type="Const" version="opset1">
			<data element_type="f32" shape="1, 32, 1, 1" offset="332668" size="128" />
			<output>
				<port id="0" precision="FP32">
					<dim>1</dim>
					<dim>32</dim>
					<dim>1</dim>
					<dim>1</dim>
				</port>
			</output>
		</layer>
		<layer id="262" name="Conv_259" type="Add" version="opset1">
			<data auto_broadcast="numpy" />
			<input>
				<port id="0" precision="FP32">
					<dim>1</dim>
					<dim>32</dim>
					<dim>129</dim>
					<dim>16</dim>
				</port>
				<port id="1" precision="FP32">
					<dim>1</dim>
					<dim>32</dim>
					<dim>1</dim>
					<dim>1</dim>
				</port>
			</input>
			<output>
				<port id="2" precision="FP32" names="667">
					<dim>1</dim>
					<dim>32</dim>
					<dim>129</dim>
					<dim>16</dim>
				</port>
			</output>
		</layer>
		<layer id="263" name="Concat_260" type="Concat" version="opset1">
			<data axis="1" />
			<input>
				<port id="0" precision="FP32">
					<dim>1</dim>
					<dim>32</dim>
					<dim>129</dim>
					<dim>16</dim>
				</port>
				<port id="1" precision="FP32">
					<dim>1</dim>
					<dim>32</dim>
					<dim>129</dim>
					<dim>16</dim>
				</port>
			</input>
			<output>
				<port id="2" precision="FP32" names="668">
					<dim>1</dim>
					<dim>64</dim>
					<dim>129</dim>
					<dim>16</dim>
				</port>
			</output>
		</layer>
		<layer id="264" name="Constant_143058" type="Const" version="opset1">
			<data element_type="f32" shape="1, 64, 1, 1" offset="332796" size="256" />
			<output>
				<port id="0" precision="FP32">
					<dim>1</dim>
					<dim>64</dim>
					<dim>1</dim>
					<dim>1</dim>
				</port>
			</output>
		</layer>
		<layer id="265" name="Multiply_145157" type="Multiply" version="opset1">
			<data auto_broadcast="numpy" />
			<input>
				<port id="0" precision="FP32">
					<dim>1</dim>
					<dim>64</dim>
					<dim>129</dim>
					<dim>16</dim>
				</port>
				<port id="1" precision="FP32">
					<dim>1</dim>
					<dim>64</dim>
					<dim>1</dim>
					<dim>1</dim>
				</port>
			</input>
			<output>
				<port id="2" precision="FP32">
					<dim>1</dim>
					<dim>64</dim>
					<dim>129</dim>
					<dim>16</dim>
				</port>
			</output>
		</layer>
		<layer id="266" name="Constant_145162" type="Const" version="opset1">
			<data element_type="f32" shape="1, 64, 1, 1" offset="333052" size="256" />
			<output>
				<port id="0" precision="FP32">
					<dim>1</dim>
					<dim>64</dim>
					<dim>1</dim>
					<dim>1</dim>
				</port>
			</output>
		</layer>
		<layer id="267" name="BatchNormalization_261" type="Add" version="opset1">
			<data auto_broadcast="numpy" />
			<input>
				<port id="0" precision="FP32">
					<dim>1</dim>
					<dim>64</dim>
					<dim>129</dim>
					<dim>16</dim>
				</port>
				<port id="1" precision="FP32">
					<dim>1</dim>
					<dim>64</dim>
					<dim>1</dim>
					<dim>1</dim>
				</port>
			</input>
			<output>
				<port id="2" precision="FP32" names="669">
					<dim>1</dim>
					<dim>64</dim>
					<dim>129</dim>
					<dim>16</dim>
				</port>
			</output>
		</layer>
		<layer id="268" name="Constant_1151" type="Const" version="opset1">
			<data element_type="f32" shape="1" offset="264316" size="4" />
			<output>
				<port id="0" precision="FP32">
					<dim>1</dim>
				</port>
			</output>
		</layer>
		<layer id="269" name="LeakyRelu_262" type="PReLU" version="opset1">
			<input>
				<port id="0" precision="FP32">
					<dim>1</dim>
					<dim>64</dim>
					<dim>129</dim>
					<dim>16</dim>
				</port>
				<port id="1" precision="FP32">
					<dim>1</dim>
				</port>
			</input>
			<output>
				<port id="2" precision="FP32" names="670">
					<dim>1</dim>
					<dim>64</dim>
					<dim>129</dim>
					<dim>16</dim>
				</port>
			</output>
		</layer>
		<layer id="270" name="blocks_down.0.sa_out.conv.weight" type="Const" version="opset1">
			<data element_type="f32" shape="32, 64, 1, 1" offset="333308" size="8192" />
			<output>
				<port id="0" precision="FP32" names="blocks_down.0.sa_out.conv.weight">
					<dim>32</dim>
					<dim>64</dim>
					<dim>1</dim>
					<dim>1</dim>
				</port>
			</output>
		</layer>
		<layer id="271" name="Conv_263/WithoutBiases" type="Convolution" version="opset1">
			<data strides="1, 1" dilations="1, 1" pads_begin="0, 0" pads_end="0, 0" auto_pad="explicit" />
			<input>
				<port id="0" precision="FP32">
					<dim>1</dim>
					<dim>64</dim>
					<dim>129</dim>
					<dim>16</dim>
				</port>
				<port id="1" precision="FP32">
					<dim>32</dim>
					<dim>64</dim>
					<dim>1</dim>
					<dim>1</dim>
				</port>
			</input>
			<output>
				<port id="2" precision="FP32">
					<dim>1</dim>
					<dim>32</dim>
					<dim>129</dim>
					<dim>16</dim>
				</port>
			</output>
		</layer>
		<layer id="272" name="Reshape_1164" type="Const" version="opset1">
			<data element_type="f32" shape="1, 32, 1, 1" offset="341500" size="128" />
			<output>
				<port id="0" precision="FP32">
					<dim>1</dim>
					<dim>32</dim>
					<dim>1</dim>
					<dim>1</dim>
				</port>
			</output>
		</layer>
		<layer id="273" name="Conv_263" type="Add" version="opset1">
			<data auto_broadcast="numpy" />
			<input>
				<port id="0" precision="FP32">
					<dim>1</dim>
					<dim>32</dim>
					<dim>129</dim>
					<dim>16</dim>
				</port>
				<port id="1" precision="FP32">
					<dim>1</dim>
					<dim>32</dim>
					<dim>1</dim>
					<dim>1</dim>
				</port>
			</input>
			<output>
				<port id="2" precision="FP32" names="671,673">
					<dim>1</dim>
					<dim>32</dim>
					<dim>129</dim>
					<dim>16</dim>
				</port>
			</output>
		</layer>
		<layer id="274" name="AveragePool_266" type="AvgPool" version="opset1">
			<data kernel="2, 2" strides="2, 2" pads_begin="0, 0" pads_end="0, 0" exclude-pad="true" auto_pad="explicit" rounding_type="floor" />
			<input>
				<port id="0" precision="FP32">
					<dim>1</dim>
					<dim>32</dim>
					<dim>129</dim>
					<dim>16</dim>
				</port>
			</input>
			<output>
				<port id="1" precision="FP32" names="674">
					<dim>1</dim>
					<dim>32</dim>
					<dim>64</dim>
					<dim>8</dim>
				</port>
			</output>
		</layer>
		<layer id="275" name="Constant_143124" type="Const" version="opset1">
			<data element_type="f32" shape="1, 32, 1, 1" offset="341628" size="128" />
			<output>
				<port id="0" precision="FP32">
					<dim>1</dim>
					<dim>32</dim>
					<dim>1</dim>
					<dim>1</dim>
				</port>
			</output>
		</layer>
		<layer id="276" name="Multiply_145164" type="Multiply" version="opset1">
			<data auto_broadcast="numpy" />
			<input>
				<port id="0" precision="FP32">
					<dim>1</dim>
					<dim>32</dim>
					<dim>64</dim>
					<dim>8</dim>
				</port>
				<port id="1" precision="FP32">
					<dim>1</dim>
					<dim>32</dim>
					<dim>1</dim>
					<dim>1</dim>
				</port>
			</input>
			<output>
				<port id="2" precision="FP32">
					<dim>1</dim>
					<dim>32</dim>
					<dim>64</dim>
					<dim>8</dim>
				</port>
			</output>
		</layer>
		<layer id="277" name="Constant_145169" type="Const" version="opset1">
			<data element_type="f32" shape="1, 32, 1, 1" offset="341756" size="128" />
			<output>
				<port id="0" precision="FP32">
					<dim>1</dim>
					<dim>32</dim>
					<dim>1</dim>
					<dim>1</dim>
				</port>
			</output>
		</layer>
		<layer id="278" name="BatchNormalization_267" type="Add" version="opset1">
			<data auto_broadcast="numpy" />
			<input>
				<port id="0" precision="FP32">
					<dim>1</dim>
					<dim>32</dim>
					<dim>64</dim>
					<dim>8</dim>
				</port>
				<port id="1" precision="FP32">
					<dim>1</dim>
					<dim>32</dim>
					<dim>1</dim>
					<dim>1</dim>
				</port>
			</input>
			<output>
				<port id="2" precision="FP32" names="675">
					<dim>1</dim>
					<dim>32</dim>
					<dim>64</dim>
					<dim>8</dim>
				</port>
			</output>
		</layer>
		<layer id="279" name="Constant_1175" type="Const" version="opset1">
			<data element_type="f32" shape="1" offset="264316" size="4" />
			<output>
				<port id="0" precision="FP32">
					<dim>1</dim>
				</port>
			</output>
		</layer>
		<layer id="280" name="LeakyRelu_268" type="PReLU" version="opset1">
			<input>
				<port id="0" precision="FP32">
					<dim>1</dim>
					<dim>32</dim>
					<dim>64</dim>
					<dim>8</dim>
				</port>
				<port id="1" precision="FP32">
					<dim>1</dim>
				</port>
			</input>
			<output>
				<port id="2" precision="FP32" names="676">
					<dim>1</dim>
					<dim>32</dim>
					<dim>64</dim>
					<dim>8</dim>
				</port>
			</output>
		</layer>
		<layer id="281" name="Concat_269" type="Concat" version="opset1">
			<data axis="3" />
			<input>
				<port id="0" precision="FP32">
					<dim>1</dim>
					<dim>32</dim>
					<dim>64</dim>
					<dim>2</dim>
				</port>
				<port id="1" precision="FP32">
					<dim>1</dim>
					<dim>32</dim>
					<dim>64</dim>
					<dim>8</dim>
				</port>
			</input>
			<output>
				<port id="2" precision="FP32" names="677">
					<dim>1</dim>
					<dim>32</dim>
					<dim>64</dim>
					<dim>10</dim>
				</port>
			</output>
		</layer>
		<layer id="282" name="blocks_down.1.bd.0.conv.weight" type="Const" version="opset1">
			<data element_type="f32" shape="16, 32, 3, 3" offset="341884" size="18432" />
			<output>
				<port id="0" precision="FP32" names="blocks_down.1.bd.0.conv.weight">
					<dim>16</dim>
					<dim>32</dim>
					<dim>3</dim>
					<dim>3</dim>
				</port>
			</output>
		</layer>
		<layer id="283" name="Conv_296/WithoutBiases" type="Convolution" version="opset1">
			<data strides="1, 1" dilations="1, 1" pads_begin="1, 0" pads_end="1, 0" auto_pad="explicit" />
			<input>
				<port id="0" precision="FP32">
					<dim>1</dim>
					<dim>32</dim>
					<dim>64</dim>
					<dim>10</dim>
				</port>
				<port id="1" precision="FP32">
					<dim>16</dim>
					<dim>32</dim>
					<dim>3</dim>
					<dim>3</dim>
				</port>
			</input>
			<output>
				<port id="2" precision="FP32">
					<dim>1</dim>
					<dim>16</dim>
					<dim>64</dim>
					<dim>8</dim>
				</port>
			</output>
		</layer>
		<layer id="284" name="Reshape_1248" type="Const" version="opset1">
			<data element_type="f32" shape="1, 16, 1, 1" offset="360316" size="64" />
			<output>
				<port id="0" precision="FP32">
					<dim>1</dim>
					<dim>16</dim>
					<dim>1</dim>
					<dim>1</dim>
				</port>
			</output>
		</layer>
		<layer id="285" name="Conv_296" type="Add" version="opset1">
			<data auto_broadcast="numpy" />
			<input>
				<port id="0" precision="FP32">
					<dim>1</dim>
					<dim>16</dim>
					<dim>64</dim>
					<dim>8</dim>
				</port>
				<port id="1" precision="FP32">
					<dim>1</dim>
					<dim>16</dim>
					<dim>1</dim>
					<dim>1</dim>
				</port>
			</input>
			<output>
				<port id="2" precision="FP32" names="715">
					<dim>1</dim>
					<dim>16</dim>
					<dim>64</dim>
					<dim>8</dim>
				</port>
			</output>
		</layer>
		<layer id="286" name="Concat_297" type="Concat" version="opset1">
			<data axis="1" />
			<input>
				<port id="0" precision="FP32">
					<dim>1</dim>
					<dim>32</dim>
					<dim>64</dim>
					<dim>8</dim>
				</port>
				<port id="1" precision="FP32">
					<dim>1</dim>
					<dim>16</dim>
					<dim>64</dim>
					<dim>8</dim>
				</port>
			</input>
			<output>
				<port id="2" precision="FP32" names="716">
					<dim>1</dim>
					<dim>48</dim>
					<dim>64</dim>
					<dim>8</dim>
				</port>
			</output>
		</layer>
		<layer id="287" name="Constant_143190" type="Const" version="opset1">
			<data element_type="f32" shape="1, 48, 1, 1" offset="360380" size="192" />
			<output>
				<port id="0" precision="FP32">
					<dim>1</dim>
					<dim>48</dim>
					<dim>1</dim>
					<dim>1</dim>
				</port>
			</output>
		</layer>
		<layer id="288" name="Multiply_145171" type="Multiply" version="opset1">
			<data auto_broadcast="numpy" />
			<input>
				<port id="0" precision="FP32">
					<dim>1</dim>
					<dim>48</dim>
					<dim>64</dim>
					<dim>8</dim>
				</port>
				<port id="1" precision="FP32">
					<dim>1</dim>
					<dim>48</dim>
					<dim>1</dim>
					<dim>1</dim>
				</port>
			</input>
			<output>
				<port id="2" precision="FP32">
					<dim>1</dim>
					<dim>48</dim>
					<dim>64</dim>
					<dim>8</dim>
				</port>
			</output>
		</layer>
		<layer id="289" name="Constant_145176" type="Const" version="opset1">
			<data element_type="f32" shape="1, 48, 1, 1" offset="360572" size="192" />
			<output>
				<port id="0" precision="FP32">
					<dim>1</dim>
					<dim>48</dim>
					<dim>1</dim>
					<dim>1</dim>
				</port>
			</output>
		</layer>
		<layer id="290" name="BatchNormalization_298" type="Add" version="opset1">
			<data auto_broadcast="numpy" />
			<input>
				<port id="0" precision="FP32">
					<dim>1</dim>
					<dim>48</dim>
					<dim>64</dim>
					<dim>8</dim>
				</port>
				<port id="1" precision="FP32">
					<dim>1</dim>
					<dim>48</dim>
					<dim>1</dim>
					<dim>1</dim>
				</port>
			</input>
			<output>
				<port id="2" precision="FP32" names="717">
					<dim>1</dim>
					<dim>48</dim>
					<dim>64</dim>
					<dim>8</dim>
				</port>
			</output>
		</layer>
		<layer id="291" name="Constant_1254" type="Const" version="opset1">
			<data element_type="f32" shape="1" offset="264316" size="4" />
			<output>
				<port id="0" precision="FP32">
					<dim>1</dim>
				</port>
			</output>
		</layer>
		<layer id="292" name="LeakyRelu_299" type="PReLU" version="opset1">
			<input>
				<port id="0" precision="FP32">
					<dim>1</dim>
					<dim>48</dim>
					<dim>64</dim>
					<dim>8</dim>
				</port>
				<port id="1" precision="FP32">
					<dim>1</dim>
				</port>
			</input>
			<output>
				<port id="2" precision="FP32" names="718">
					<dim>1</dim>
					<dim>48</dim>
					<dim>64</dim>
					<dim>8</dim>
				</port>
			</output>
		</layer>
		<layer id="293" name="Concat_300" type="Concat" version="opset1">
			<data axis="3" />
			<input>
				<port id="0" precision="FP32">
					<dim>1</dim>
					<dim>48</dim>
					<dim>64</dim>
					<dim>2</dim>
				</port>
				<port id="1" precision="FP32">
					<dim>1</dim>
					<dim>48</dim>
					<dim>64</dim>
					<dim>8</dim>
				</port>
			</input>
			<output>
				<port id="2" precision="FP32" names="719">
					<dim>1</dim>
					<dim>48</dim>
					<dim>64</dim>
					<dim>10</dim>
				</port>
			</output>
		</layer>
		<layer id="294" name="blocks_down.1.bd.1.conv.weight" type="Const" version="opset1">
			<data element_type="f32" shape="16, 48, 3, 3" offset="360764" size="27648" />
			<output>
				<port id="0" precision="FP32" names="blocks_down.1.bd.1.conv.weight">
					<dim>16</dim>
					<dim>48</dim>
					<dim>3</dim>
					<dim>3</dim>
				</port>
			</output>
		</layer>
		<layer id="295" name="Conv_327/WithoutBiases" type="Convolution" version="opset1">
			<data strides="1, 1" dilations="1, 1" pads_begin="1, 0" pads_end="1, 0" auto_pad="explicit" />
			<input>
				<port id="0" precision="FP32">
					<dim>1</dim>
					<dim>48</dim>
					<dim>64</dim>
					<dim>10</dim>
				</port>
				<port id="1" precision="FP32">
					<dim>16</dim>
					<dim>48</dim>
					<dim>3</dim>
					<dim>3</dim>
				</port>
			</input>
			<output>
				<port id="2" precision="FP32">
					<dim>1</dim>
					<dim>16</dim>
					<dim>64</dim>
					<dim>8</dim>
				</port>
			</output>
		</layer>
		<layer id="296" name="Reshape_1327" type="Const" version="opset1">
			<data element_type="f32" shape="1, 16, 1, 1" offset="388412" size="64" />
			<output>
				<port id="0" precision="FP32">
					<dim>1</dim>
					<dim>16</dim>
					<dim>1</dim>
					<dim>1</dim>
				</port>
			</output>
		</layer>
		<layer id="297" name="Conv_327" type="Add" version="opset1">
			<data auto_broadcast="numpy" />
			<input>
				<port id="0" precision="FP32">
					<dim>1</dim>
					<dim>16</dim>
					<dim>64</dim>
					<dim>8</dim>
				</port>
				<port id="1" precision="FP32">
					<dim>1</dim>
					<dim>16</dim>
					<dim>1</dim>
					<dim>1</dim>
				</port>
			</input>
			<output>
				<port id="2" precision="FP32" names="757">
					<dim>1</dim>
					<dim>16</dim>
					<dim>64</dim>
					<dim>8</dim>
				</port>
			</output>
		</layer>
		<layer id="298" name="Concat_328" type="Concat" version="opset1">
			<data axis="1" />
			<input>
				<port id="0" precision="FP32">
					<dim>1</dim>
					<dim>48</dim>
					<dim>64</dim>
					<dim>8</dim>
				</port>
				<port id="1" precision="FP32">
					<dim>1</dim>
					<dim>16</dim>
					<dim>64</dim>
					<dim>8</dim>
				</port>
			</input>
			<output>
				<port id="2" precision="FP32" names="758">
					<dim>1</dim>
					<dim>64</dim>
					<dim>64</dim>
					<dim>8</dim>
				</port>
			</output>
		</layer>
		<layer id="299" name="Constant_143256" type="Const" version="opset1">
			<data element_type="f32" shape="1, 64, 1, 1" offset="388476" size="256" />
			<output>
				<port id="0" precision="FP32">
					<dim>1</dim>
					<dim>64</dim>
					<dim>1</dim>
					<dim>1</dim>
				</port>
			</output>
		</layer>
		<layer id="300" name="Multiply_145178" type="Multiply" version="opset1">
			<data auto_broadcast="numpy" />
			<input>
				<port id="0" precision="FP32">
					<dim>1</dim>
					<dim>64</dim>
					<dim>64</dim>
					<dim>8</dim>
				</port>
				<port id="1" precision="FP32">
					<dim>1</dim>
					<dim>64</dim>
					<dim>1</dim>
					<dim>1</dim>
				</port>
			</input>
			<output>
				<port id="2" precision="FP32">
					<dim>1</dim>
					<dim>64</dim>
					<dim>64</dim>
					<dim>8</dim>
				</port>
			</output>
		</layer>
		<layer id="301" name="Constant_145183" type="Const" version="opset1">
			<data element_type="f32" shape="1, 64, 1, 1" offset="388732" size="256" />
			<output>
				<port id="0" precision="FP32">
					<dim>1</dim>
					<dim>64</dim>
					<dim>1</dim>
					<dim>1</dim>
				</port>
			</output>
		</layer>
		<layer id="302" name="BatchNormalization_329" type="Add" version="opset1">
			<data auto_broadcast="numpy" />
			<input>
				<port id="0" precision="FP32">
					<dim>1</dim>
					<dim>64</dim>
					<dim>64</dim>
					<dim>8</dim>
				</port>
				<port id="1" precision="FP32">
					<dim>1</dim>
					<dim>64</dim>
					<dim>1</dim>
					<dim>1</dim>
				</port>
			</input>
			<output>
				<port id="2" precision="FP32" names="759">
					<dim>1</dim>
					<dim>64</dim>
					<dim>64</dim>
					<dim>8</dim>
				</port>
			</output>
		</layer>
		<layer id="303" name="Constant_1333" type="Const" version="opset1">
			<data element_type="f32" shape="1" offset="264316" size="4" />
			<output>
				<port id="0" precision="FP32">
					<dim>1</dim>
				</port>
			</output>
		</layer>
		<layer id="304" name="LeakyRelu_330" type="PReLU" version="opset1">
			<input>
				<port id="0" precision="FP32">
					<dim>1</dim>
					<dim>64</dim>
					<dim>64</dim>
					<dim>8</dim>
				</port>
				<port id="1" precision="FP32">
					<dim>1</dim>
				</port>
			</input>
			<output>
				<port id="2" precision="FP32" names="760">
					<dim>1</dim>
					<dim>64</dim>
					<dim>64</dim>
					<dim>8</dim>
				</port>
			</output>
		</layer>
		<layer id="305" name="Concat_331" type="Concat" version="opset1">
			<data axis="3" />
			<input>
				<port id="0" precision="FP32">
					<dim>1</dim>
					<dim>64</dim>
					<dim>64</dim>
					<dim>2</dim>
				</port>
				<port id="1" precision="FP32">
					<dim>1</dim>
					<dim>64</dim>
					<dim>64</dim>
					<dim>8</dim>
				</port>
			</input>
			<output>
				<port id="2" precision="FP32" names="761">
					<dim>1</dim>
					<dim>64</dim>
					<dim>64</dim>
					<dim>10</dim>
				</port>
			</output>
		</layer>
		<layer id="306" name="blocks_down.1.bd_out.conv.weight" type="Const" version="opset1">
			<data element_type="f32" shape="64, 64, 3, 3" offset="388988" size="147456" />
			<output>
				<port id="0" precision="FP32" names="blocks_down.1.bd_out.conv.weight">
					<dim>64</dim>
					<dim>64</dim>
					<dim>3</dim>
					<dim>3</dim>
				</port>
			</output>
		</layer>
		<layer id="307" name="Conv_358/WithoutBiases" type="Convolution" version="opset1">
			<data strides="1, 1" dilations="1, 1" pads_begin="1, 0" pads_end="1, 0" auto_pad="explicit" />
			<input>
				<port id="0" precision="FP32">
					<dim>1</dim>
					<dim>64</dim>
					<dim>64</dim>
					<dim>10</dim>
				</port>
				<port id="1" precision="FP32">
					<dim>64</dim>
					<dim>64</dim>
					<dim>3</dim>
					<dim>3</dim>
				</port>
			</input>
			<output>
				<port id="2" precision="FP32">
					<dim>1</dim>
					<dim>64</dim>
					<dim>64</dim>
					<dim>8</dim>
				</port>
			</output>
		</layer>
		<layer id="308" name="Reshape_1406" type="Const" version="opset1">
			<data element_type="f32" shape="1, 64, 1, 1" offset="536444" size="256" />
			<output>
				<port id="0" precision="FP32">
					<dim>1</dim>
					<dim>64</dim>
					<dim>1</dim>
					<dim>1</dim>
				</port>
			</output>
		</layer>
		<layer id="309" name="Conv_358" type="Add" version="opset1">
			<data auto_broadcast="numpy" />
			<input>
				<port id="0" precision="FP32">
					<dim>1</dim>
					<dim>64</dim>
					<dim>64</dim>
					<dim>8</dim>
				</port>
				<port id="1" precision="FP32">
					<dim>1</dim>
					<dim>64</dim>
					<dim>1</dim>
					<dim>1</dim>
				</port>
			</input>
			<output>
				<port id="2" precision="FP32" names="799">
					<dim>1</dim>
					<dim>64</dim>
					<dim>64</dim>
					<dim>8</dim>
				</port>
			</output>
		</layer>
		<layer id="310" name="blocks_down.1.sa.linear_qkv.weight" type="Const" version="opset1">
			<data element_type="f32" shape="192, 64, 1, 1" offset="536700" size="49152" />
			<output>
				<port id="0" precision="FP32" names="blocks_down.1.sa.linear_qkv.weight">
					<dim>192</dim>
					<dim>64</dim>
					<dim>1</dim>
					<dim>1</dim>
				</port>
			</output>
		</layer>
		<layer id="311" name="Conv_368/WithoutBiases" type="Convolution" version="opset1">
			<data strides="1, 1" dilations="1, 1" pads_begin="0, 0" pads_end="0, 0" auto_pad="explicit" />
			<input>
				<port id="0" precision="FP32">
					<dim>1</dim>
					<dim>64</dim>
					<dim>64</dim>
					<dim>8</dim>
				</port>
				<port id="1" precision="FP32">
					<dim>192</dim>
					<dim>64</dim>
					<dim>1</dim>
					<dim>1</dim>
				</port>
			</input>
			<output>
				<port id="2" precision="FP32">
					<dim>1</dim>
					<dim>192</dim>
					<dim>64</dim>
					<dim>8</dim>
				</port>
			</output>
		</layer>
		<layer id="312" name="Reshape_1433" type="Const" version="opset1">
			<data element_type="f32" shape="1, 192, 1, 1" offset="585852" size="768" />
			<output>
				<port id="0" precision="FP32">
					<dim>1</dim>
					<dim>192</dim>
					<dim>1</dim>
					<dim>1</dim>
				</port>
			</output>
		</layer>
		<layer id="313" name="Conv_368" type="Add" version="opset1">
			<data auto_broadcast="numpy" />
			<input>
				<port id="0" precision="FP32">
					<dim>1</dim>
					<dim>192</dim>
					<dim>64</dim>
					<dim>8</dim>
				</port>
				<port id="1" precision="FP32">
					<dim>1</dim>
					<dim>192</dim>
					<dim>1</dim>
					<dim>1</dim>
				</port>
			</input>
			<output>
				<port id="2" precision="FP32" names="809">
					<dim>1</dim>
					<dim>192</dim>
					<dim>64</dim>
					<dim>8</dim>
				</port>
			</output>
		</layer>
		<layer id="314" name="Constant_1437" type="Const" version="opset1">
			<data element_type="i64" shape="4" offset="328352" size="32" />
			<output>
				<port id="0" precision="I64">
					<dim>4</dim>
				</port>
			</output>
		</layer>
		<layer id="315" name="Transpose_369" type="Transpose" version="opset1">
			<input>
				<port id="0" precision="FP32">
					<dim>1</dim>
					<dim>192</dim>
					<dim>64</dim>
					<dim>8</dim>
				</port>
				<port id="1" precision="I64">
					<dim>4</dim>
				</port>
			</input>
			<output>
				<port id="2" precision="FP32" names="810">
					<dim>1</dim>
					<dim>64</dim>
					<dim>192</dim>
					<dim>8</dim>
				</port>
			</output>
		</layer>
		<layer id="316" name="Constant_1439" type="Const" version="opset1">
			<data element_type="i64" shape="" offset="8" size="8" />
			<output>
				<port id="0" precision="I64" />
			</output>
		</layer>
		<layer id="317" name="Constant_1440" type="Const" version="opset1">
			<data element_type="i64" shape="3" offset="586620" size="24" />
			<output>
				<port id="0" precision="I64">
					<dim>3</dim>
				</port>
			</output>
		</layer>
		<layer id="318" name="Split_370" type="VariadicSplit" version="opset1">
			<input>
				<port id="0" precision="FP32">
					<dim>1</dim>
					<dim>64</dim>
					<dim>192</dim>
					<dim>8</dim>
				</port>
				<port id="1" precision="I64" />
				<port id="2" precision="I64">
					<dim>3</dim>
				</port>
			</input>
			<output>
				<port id="3" precision="FP32" names="811">
					<dim>1</dim>
					<dim>64</dim>
					<dim>64</dim>
					<dim>8</dim>
				</port>
				<port id="4" precision="FP32" names="812">
					<dim>1</dim>
					<dim>64</dim>
					<dim>64</dim>
					<dim>8</dim>
				</port>
				<port id="5" precision="FP32" names="813">
					<dim>1</dim>
					<dim>64</dim>
					<dim>64</dim>
					<dim>8</dim>
				</port>
			</output>
		</layer>
		<layer id="319" name="Shape_359" type="ShapeOf" version="opset3">
			<data output_type="i64" />
			<input>
				<port id="0" precision="FP32">
					<dim>1</dim>
					<dim>64</dim>
					<dim>64</dim>
					<dim>8</dim>
				</port>
			</input>
			<output>
				<port id="1" precision="I64" names="800,803,806">
					<dim>4</dim>
				</port>
			</output>
		</layer>
		<layer id="320" name="Constant_360" type="Const" version="opset1">
			<data element_type="i64" shape="" offset="264208" size="8" />
			<output>
				<port id="0" precision="I64" names="801" />
			</output>
		</layer>
		<layer id="321" name="Constant_1412" type="Const" version="opset1">
			<data element_type="i64" shape="" offset="264208" size="8" />
			<output>
				<port id="0" precision="I64" />
			</output>
		</layer>
		<layer id="322" name="Gather_361" type="Gather" version="opset8">
			<data batch_dims="0" />
			<input>
				<port id="0" precision="I64">
					<dim>4</dim>
				</port>
				<port id="1" precision="I64" />
				<port id="2" precision="I64" />
			</input>
			<output>
				<port id="3" precision="I64" names="802" />
			</output>
		</layer>
		<layer id="323" name="Constant_366" type="Const" version="opset1">
			<data element_type="i64" shape="" offset="8" size="8" />
			<output>
				<port id="0" precision="I64" names="807" />
			</output>
		</layer>
		<layer id="324" name="Constant_1420" type="Const" version="opset1">
			<data element_type="i64" shape="" offset="264208" size="8" />
			<output>
				<port id="0" precision="I64" />
			</output>
		</layer>
		<layer id="325" name="Gather_367" type="Gather" version="opset8">
			<data batch_dims="0" />
			<input>
				<port id="0" precision="I64">
					<dim>4</dim>
				</port>
				<port id="1" precision="I64" />
				<port id="2" precision="I64" />
			</input>
			<output>
				<port id="3" precision="I64" names="808" />
			</output>
		</layer>
		<layer id="326" name="Mul_401" type="Multiply" version="opset1">
			<data auto_broadcast="numpy" />
			<input>
				<port id="0" precision="I64" />
				<port id="1" precision="I64" />
			</input>
			<output>
				<port id="2" precision="I64" names="848" />
			</output>
		</layer>
		<layer id="327" name="Constant_1499" type="Const" version="opset1">
			<data element_type="i64" shape="1" offset="264208" size="8" />
			<output>
				<port id="0" precision="I64">
					<dim>1</dim>
				</port>
			</output>
		</layer>
		<layer id="328" name="Unsqueeze_402" type="Unsqueeze" version="opset1">
			<input>
				<port id="0" precision="I64" />
				<port id="1" precision="I64">
					<dim>1</dim>
				</port>
			</input>
			<output>
				<port id="2" precision="I64" names="851">
					<dim>1</dim>
				</port>
			</output>
		</layer>
		<layer id="329" name="3229" type="Const" version="opset1">
			<data element_type="i64" shape="1" offset="8" size="8" />
			<output>
				<port id="0" precision="I64" names="3229">
					<dim>1</dim>
				</port>
			</output>
		</layer>
		<layer id="330" name="3230" type="Const" version="opset1">
			<data element_type="i64" shape="1" offset="328408" size="8" />
			<output>
				<port id="0" precision="I64" names="3230">
					<dim>1</dim>
				</port>
			</output>
		</layer>
		<layer id="331" name="Constant_81190" type="Const" version="opset1">
			<data element_type="i64" shape="1" offset="264208" size="8" />
			<output>
				<port id="0" precision="I64">
					<dim>1</dim>
				</port>
			</output>
		</layer>
		<layer id="332" name="Concat_404" type="Concat" version="opset1">
			<data axis="0" />
			<input>
				<port id="0" precision="I64">
					<dim>1</dim>
				</port>
				<port id="1" precision="I64">
					<dim>1</dim>
				</port>
				<port id="2" precision="I64">
					<dim>1</dim>
				</port>
				<port id="3" precision="I64">
					<dim>1</dim>
				</port>
			</input>
			<output>
				<port id="4" precision="I64">
					<dim>4</dim>
				</port>
			</output>
		</layer>
		<layer id="333" name="Reshape_405" type="Reshape" version="opset1">
			<data special_zero="true" />
			<input>
				<port id="0" precision="FP32">
					<dim>1</dim>
					<dim>64</dim>
					<dim>64</dim>
					<dim>8</dim>
				</port>
				<port id="1" precision="I64">
					<dim>4</dim>
				</port>
			</input>
			<output>
				<port id="2" precision="FP32" names="856">
					<dim>64</dim>
					<dim>2</dim>
					<dim>32</dim>
					<dim>8</dim>
				</port>
			</output>
		</layer>
		<layer id="334" name="Concat_371" type="Concat" version="opset1">
			<data axis="3" />
			<input>
				<port id="0" precision="FP32">
					<dim>1</dim>
					<dim>64</dim>
					<dim>64</dim>
					<dim>22</dim>
				</port>
				<port id="1" precision="FP32">
					<dim>1</dim>
					<dim>64</dim>
					<dim>64</dim>
					<dim>8</dim>
				</port>
			</input>
			<output>
				<port id="2" precision="FP32" names="814">
					<dim>1</dim>
					<dim>64</dim>
					<dim>64</dim>
					<dim>30</dim>
				</port>
			</output>
		</layer>
		<layer id="335" name="Mul_406" type="Multiply" version="opset1">
			<data auto_broadcast="numpy" />
			<input>
				<port id="0" precision="I64" />
				<port id="1" precision="I64" />
			</input>
			<output>
				<port id="2" precision="I64" names="857" />
			</output>
		</layer>
		<layer id="336" name="Constant_1508" type="Const" version="opset1">
			<data element_type="i64" shape="1" offset="264208" size="8" />
			<output>
				<port id="0" precision="I64">
					<dim>1</dim>
				</port>
			</output>
		</layer>
		<layer id="337" name="Unsqueeze_407" type="Unsqueeze" version="opset1">
			<input>
				<port id="0" precision="I64" />
				<port id="1" precision="I64">
					<dim>1</dim>
				</port>
			</input>
			<output>
				<port id="2" precision="I64" names="860">
					<dim>1</dim>
				</port>
			</output>
		</layer>
		<layer id="338" name="3231" type="Const" version="opset1">
			<data element_type="i64" shape="1" offset="8" size="8" />
			<output>
				<port id="0" precision="I64" names="3231">
					<dim>1</dim>
				</port>
			</output>
		</layer>
		<layer id="339" name="3232" type="Const" version="opset1">
			<data element_type="i64" shape="1" offset="328408" size="8" />
			<output>
				<port id="0" precision="I64" names="3232">
					<dim>1</dim>
				</port>
			</output>
		</layer>
		<layer id="340" name="Constant_81255" type="Const" version="opset1">
			<data element_type="i64" shape="1" offset="264208" size="8" />
			<output>
				<port id="0" precision="I64">
					<dim>1</dim>
				</port>
			</output>
		</layer>
		<layer id="341" name="Concat_409" type="Concat" version="opset1">
			<data axis="0" />
			<input>
				<port id="0" precision="I64">
					<dim>1</dim>
				</port>
				<port id="1" precision="I64">
					<dim>1</dim>
				</port>
				<port id="2" precision="I64">
					<dim>1</dim>
				</port>
				<port id="3" precision="I64">
					<dim>1</dim>
				</port>
			</input>
			<output>
				<port id="4" precision="I64">
					<dim>4</dim>
				</port>
			</output>
		</layer>
		<layer id="342" name="Reshape_410" type="Reshape" version="opset1">
			<data special_zero="true" />
			<input>
				<port id="0" precision="FP32">
					<dim>1</dim>
					<dim>64</dim>
					<dim>64</dim>
					<dim>30</dim>
				</port>
				<port id="1" precision="I64">
					<dim>4</dim>
				</port>
			</input>
			<output>
				<port id="2" precision="FP32" names="865">
					<dim>64</dim>
					<dim>2</dim>
					<dim>32</dim>
					<dim>30</dim>
				</port>
			</output>
		</layer>
		<layer id="343" name="Constant_146359" type="Const" version="opset1">
			<data element_type="f32" shape="1, 1, 1, 1" offset="328416" size="4" />
			<output>
				<port id="0" precision="FP32">
					<dim>1</dim>
					<dim>1</dim>
					<dim>1</dim>
					<dim>1</dim>
				</port>
			</output>
		</layer>
		<layer id="344" name="Multiply_145383" type="Multiply" version="opset1">
			<data auto_broadcast="numpy" />
			<input>
				<port id="0" precision="FP32">
					<dim>64</dim>
					<dim>2</dim>
					<dim>32</dim>
					<dim>30</dim>
				</port>
				<port id="1" precision="FP32">
					<dim>1</dim>
					<dim>1</dim>
					<dim>1</dim>
					<dim>1</dim>
				</port>
			</input>
			<output>
				<port id="2" precision="FP32">
					<dim>64</dim>
					<dim>2</dim>
					<dim>32</dim>
					<dim>30</dim>
				</port>
			</output>
		</layer>
		<layer id="345" name="Div_422" type="MatMul" version="opset1">
			<data transpose_a="true" transpose_b="false" />
			<input>
				<port id="0" precision="FP32">
					<dim>64</dim>
					<dim>2</dim>
					<dim>32</dim>
					<dim>8</dim>
				</port>
				<port id="1" precision="FP32">
					<dim>64</dim>
					<dim>2</dim>
					<dim>32</dim>
					<dim>30</dim>
				</port>
			</input>
			<output>
				<port id="2" precision="FP32" names="881">
					<dim>64</dim>
					<dim>2</dim>
					<dim>8</dim>
					<dim>30</dim>
				</port>
			</output>
		</layer>
		<layer id="346" name="Constant_1540" type="Const" version="opset1">
			<data element_type="f32" shape="" offset="328420" size="4" />
			<output>
				<port id="0" precision="FP32" />
			</output>
		</layer>
		<layer id="347" name="Shape_395" type="ShapeOf" version="opset3">
			<data output_type="i64" />
			<input>
				<port id="0" precision="FP32">
					<dim>1</dim>
					<dim>64</dim>
					<dim>64</dim>
					<dim>8</dim>
				</port>
			</input>
			<output>
				<port id="1" precision="I64" names="842">
					<dim>4</dim>
				</port>
			</output>
		</layer>
		<layer id="348" name="Constant_396" type="Const" version="opset1">
			<data element_type="i64" shape="" offset="264248" size="8" />
			<output>
				<port id="0" precision="I64" names="843" />
			</output>
		</layer>
		<layer id="349" name="Constant_1492" type="Const" version="opset1">
			<data element_type="i64" shape="" offset="264208" size="8" />
			<output>
				<port id="0" precision="I64" />
			</output>
		</layer>
		<layer id="350" name="Gather_397" type="Gather" version="opset8">
			<data batch_dims="0" />
			<input>
				<port id="0" precision="I64">
					<dim>4</dim>
				</port>
				<port id="1" precision="I64" />
				<port id="2" precision="I64" />
			</input>
			<output>
				<port id="3" precision="I64" names="844,883" />
			</output>
		</layer>
		<layer id="351" name="Constant_1536" type="Const" version="opset1">
			<data element_type="i64" shape="1" offset="264208" size="8" />
			<output>
				<port id="0" precision="I64">
					<dim>1</dim>
				</port>
			</output>
		</layer>
		<layer id="352" name="Unsqueeze_425" type="Unsqueeze" version="opset1">
			<input>
				<port id="0" precision="I64" />
				<port id="1" precision="I64">
					<dim>1</dim>
				</port>
			</input>
			<output>
				<port id="2" precision="I64" names="885">
					<dim>1</dim>
				</port>
			</output>
		</layer>
		<layer id="353" name="3235" type="Const" version="opset1">
			<data element_type="i64" shape="1" offset="586644" size="8" />
			<output>
				<port id="0" precision="I64" names="3235">
					<dim>1</dim>
				</port>
			</output>
		</layer>
		<layer id="354" name="Concat_426" type="Concat" version="opset1">
			<data axis="0" />
			<input>
				<port id="0" precision="I64">
					<dim>1</dim>
				</port>
				<port id="1" precision="I64">
					<dim>1</dim>
				</port>
			</input>
			<output>
				<port id="2" precision="I64" names="887">
					<dim>2</dim>
				</port>
			</output>
		</layer>
		<layer id="355" name="ConstantOfShape_427" type="Broadcast" version="opset3">
			<data mode="numpy" />
			<input>
				<port id="0" precision="FP32" />
				<port id="1" precision="I64">
					<dim>2</dim>
				</port>
			</input>
			<output>
				<port id="2" precision="FP32" names="888">
					<dim>8</dim>
					<dim>23</dim>
				</port>
			</output>
		</layer>
		<layer id="356" name="3237" type="Const" version="opset1">
			<data element_type="i64" shape="1" offset="264208" size="8" />
			<output>
				<port id="0" precision="I64" names="3237">
					<dim>1</dim>
				</port>
			</output>
		</layer>
		<layer id="357" name="Constant_1547" type="Const" version="opset1">
			<data element_type="i64" shape="1" offset="264208" size="8" />
			<output>
				<port id="0" precision="I64">
					<dim>1</dim>
				</port>
			</output>
		</layer>
		<layer id="358" name="Unsqueeze_430" type="Unsqueeze" version="opset1">
			<input>
				<port id="0" precision="I64" />
				<port id="1" precision="I64">
					<dim>1</dim>
				</port>
			</input>
			<output>
				<port id="2" precision="I64" names="894">
					<dim>1</dim>
				</port>
			</output>
		</layer>
		<layer id="359" name="Concat_431" type="Concat" version="opset1">
			<data axis="0" />
			<input>
				<port id="0" precision="I64">
					<dim>1</dim>
				</port>
				<port id="1" precision="I64">
					<dim>1</dim>
				</port>
			</input>
			<output>
				<port id="2" precision="I64" names="895,903">
					<dim>2</dim>
				</port>
			</output>
		</layer>
		<layer id="360" name="ConstantOfShape_437" type="Const" version="opset1">
			<data element_type="i64" shape="2" offset="328432" size="16" />
			<output>
				<port id="0" precision="I64" names="904">
					<dim>2</dim>
				</port>
			</output>
		</layer>
		<layer id="361" name="Concat_438" type="Concat" version="opset1">
			<data axis="0" />
			<input>
				<port id="0" precision="I64">
					<dim>2</dim>
				</port>
				<port id="1" precision="I64">
					<dim>2</dim>
				</port>
			</input>
			<output>
				<port id="2" precision="I64" names="905">
					<dim>4</dim>
				</port>
			</output>
		</layer>
		<layer id="362" name="Constant_439" type="Const" version="opset1">
			<data element_type="i64" shape="2" offset="328448" size="16" />
			<output>
				<port id="0" precision="I64" names="906">
					<dim>2</dim>
				</port>
			</output>
		</layer>
		<layer id="363" name="Reshape_440" type="Reshape" version="opset1">
			<data special_zero="true" />
			<input>
				<port id="0" precision="I64">
					<dim>4</dim>
				</port>
				<port id="1" precision="I64">
					<dim>2</dim>
				</port>
			</input>
			<output>
				<port id="2" precision="I64" names="907">
					<dim>2</dim>
					<dim>2</dim>
				</port>
			</output>
		</layer>
		<layer id="364" name="Constant_442" type="Const" version="opset1">
			<data element_type="i64" shape="1" offset="328464" size="8" />
			<output>
				<port id="0" precision="I64" names="909">
					<dim>1</dim>
				</port>
			</output>
		</layer>
		<layer id="365" name="Constant_443" type="Const" version="opset1">
			<data element_type="i64" shape="1" offset="328472" size="8" />
			<output>
				<port id="0" precision="I64" names="910">
					<dim>1</dim>
				</port>
			</output>
		</layer>
		<layer id="366" name="Constant_444" type="Const" version="opset1">
			<data element_type="i64" shape="1" offset="328464" size="8" />
			<output>
				<port id="0" precision="I64" names="911">
					<dim>1</dim>
				</port>
			</output>
		</layer>
		<layer id="367" name="Slice_445" type="StridedSlice" version="opset1">
			<data begin_mask="0" end_mask="0" new_axis_mask="" shrink_axis_mask="" ellipsis_mask="" />
			<input>
				<port id="0" precision="I64">
					<dim>2</dim>
					<dim>2</dim>
				</port>
				<port id="1" precision="I64">
					<dim>1</dim>
				</port>
				<port id="2" precision="I64">
					<dim>1</dim>
				</port>
				<port id="3" precision="I64">
					<dim>1</dim>
				</port>
			</input>
			<output>
				<port id="4" precision="I64" names="912">
					<dim>2</dim>
					<dim>2</dim>
				</port>
			</output>
		</layer>
		<layer id="368" name="Constant_1571" type="Const" version="opset1">
			<data element_type="i64" shape="2" offset="328480" size="16" />
			<output>
				<port id="0" precision="I64">
					<dim>2</dim>
				</port>
			</output>
		</layer>
		<layer id="369" name="Transpose_446" type="Transpose" version="opset1">
			<input>
				<port id="0" precision="I64">
					<dim>2</dim>
					<dim>2</dim>
				</port>
				<port id="1" precision="I64">
					<dim>2</dim>
				</port>
			</input>
			<output>
				<port id="2" precision="I64" names="913">
					<dim>2</dim>
					<dim>2</dim>
				</port>
			</output>
		</layer>
		<layer id="370" name="Constant_7254" type="Const" version="opset1">
			<data element_type="i64" shape="1" offset="328464" size="8" />
			<output>
				<port id="0" precision="I64">
					<dim>1</dim>
				</port>
			</output>
		</layer>
		<layer id="371" name="Reshape_448" type="Reshape" version="opset1">
			<data special_zero="true" />
			<input>
				<port id="0" precision="I64">
					<dim>2</dim>
					<dim>2</dim>
				</port>
				<port id="1" precision="I64">
					<dim>1</dim>
				</port>
			</input>
			<output>
				<port id="2" precision="I64" names="915,916">
					<dim>4</dim>
				</port>
			</output>
		</layer>
		<layer id="372" name="Constant_1579" type="Const" version="opset1">
			<data element_type="i64" shape="" offset="264208" size="8" />
			<output>
				<port id="0" precision="I64" />
			</output>
		</layer>
		<layer id="373" name="Split_1580" type="Split" version="opset1">
			<data num_splits="2" />
			<input>
				<port id="0" precision="I64">
					<dim>4</dim>
				</port>
				<port id="1" precision="I64" />
			</input>
			<output>
				<port id="2" precision="I64">
					<dim>2</dim>
				</port>
				<port id="3" precision="I64">
					<dim>2</dim>
				</port>
			</output>
		</layer>
		<layer id="374" name="Constant_450" type="Const" version="opset1">
			<data element_type="f32" shape="" offset="264264" size="4" />
			<output>
				<port id="0" precision="FP32" names="917" />
			</output>
		</layer>
		<layer id="375" name="Pad_451" type="Pad" version="opset1">
			<data pad_mode="constant" />
			<input>
				<port id="0" precision="FP32">
					<dim>8</dim>
					<dim>23</dim>
				</port>
				<port id="1" precision="I64">
					<dim>2</dim>
				</port>
				<port id="2" precision="I64">
					<dim>2</dim>
				</port>
				<port id="3" precision="FP32" />
			</input>
			<output>
				<port id="4" precision="FP32" names="918">
					<dim>8</dim>
					<dim>31</dim>
				</port>
			</output>
		</layer>
		<layer id="376" name="Constant_7255" type="Const" version="opset1">
			<data element_type="i64" shape="1" offset="328464" size="8" />
			<output>
				<port id="0" precision="I64">
					<dim>1</dim>
				</port>
			</output>
		</layer>
		<layer id="377" name="Reshape_453" type="Reshape" version="opset1">
			<data special_zero="true" />
			<input>
				<port id="0" precision="FP32">
					<dim>8</dim>
					<dim>31</dim>
				</port>
				<port id="1" precision="I64">
					<dim>1</dim>
				</port>
			</input>
			<output>
				<port id="2" precision="FP32" names="920">
					<dim>248</dim>
				</port>
			</output>
		</layer>
		<layer id="378" name="3239" type="Const" version="opset1">
			<data element_type="i64" shape="1" offset="264208" size="8" />
			<output>
				<port id="0" precision="I64" names="3239">
					<dim>1</dim>
				</port>
			</output>
		</layer>
		<layer id="379" name="Constant_454" type="Const" version="opset1">
			<data element_type="i64" shape="" offset="586644" size="8" />
			<output>
				<port id="0" precision="I64" names="921" />
			</output>
		</layer>
		<layer id="380" name="Add_455" type="Add" version="opset1">
			<data auto_broadcast="numpy" />
			<input>
				<port id="0" precision="I64" />
				<port id="1" precision="I64" />
			</input>
			<output>
				<port id="2" precision="I64" names="922" />
			</output>
		</layer>
		<layer id="381" name="Constant_456" type="Const" version="opset1">
			<data element_type="i64" shape="" offset="0" size="8" />
			<output>
				<port id="0" precision="I64" names="923" />
			</output>
		</layer>
		<layer id="382" name="Sub_457" type="Subtract" version="opset1">
			<data auto_broadcast="numpy" />
			<input>
				<port id="0" precision="I64" />
				<port id="1" precision="I64" />
			</input>
			<output>
				<port id="2" precision="I64" names="924" />
			</output>
		</layer>
		<layer id="383" name="Mul_458" type="Multiply" version="opset1">
			<data auto_broadcast="numpy" />
			<input>
				<port id="0" precision="I64" />
				<port id="1" precision="I64" />
			</input>
			<output>
				<port id="2" precision="I64" names="925" />
			</output>
		</layer>
		<layer id="384" name="Constant_1609" type="Const" version="opset1">
			<data element_type="i64" shape="1" offset="264208" size="8" />
			<output>
				<port id="0" precision="I64">
					<dim>1</dim>
				</port>
			</output>
		</layer>
		<layer id="385" name="Unsqueeze_459" type="Unsqueeze" version="opset1">
			<input>
				<port id="0" precision="I64" />
				<port id="1" precision="I64">
					<dim>1</dim>
				</port>
			</input>
			<output>
				<port id="2" precision="I64" names="929">
					<dim>1</dim>
				</port>
			</output>
		</layer>
		<layer id="386" name="Constant_460" type="Const" version="opset1">
			<data element_type="i64" shape="1" offset="0" size="8" />
			<output>
				<port id="0" precision="I64" names="931">
					<dim>1</dim>
				</port>
			</output>
		</layer>
		<layer id="387" name="Slice_461" type="StridedSlice" version="opset1">
			<data begin_mask="0" end_mask="0" new_axis_mask="" shrink_axis_mask="" ellipsis_mask="" />
			<input>
				<port id="0" precision="FP32">
					<dim>248</dim>
				</port>
				<port id="1" precision="I64">
					<dim>1</dim>
				</port>
				<port id="2" precision="I64">
					<dim>1</dim>
				</port>
				<port id="3" precision="I64">
					<dim>1</dim>
				</port>
			</input>
			<output>
				<port id="4" precision="FP32" names="932">
					<dim>240</dim>
				</port>
			</output>
		</layer>
		<layer id="388" name="Constant_1619" type="Const" version="opset1">
			<data element_type="i64" shape="1" offset="264208" size="8" />
			<output>
				<port id="0" precision="I64">
					<dim>1</dim>
				</port>
			</output>
		</layer>
		<layer id="389" name="Unsqueeze_466" type="Unsqueeze" version="opset1">
			<input>
				<port id="0" precision="I64" />
				<port id="1" precision="I64">
					<dim>1</dim>
				</port>
			</input>
			<output>
				<port id="2" precision="I64" names="937">
					<dim>1</dim>
				</port>
			</output>
		</layer>
		<layer id="390" name="Constant_462" type="Const" version="opset1">
			<data element_type="i64" shape="" offset="586644" size="8" />
			<output>
				<port id="0" precision="I64" names="933" />
			</output>
		</layer>
		<layer id="391" name="Add_463" type="Add" version="opset1">
			<data auto_broadcast="numpy" />
			<input>
				<port id="0" precision="I64" />
				<port id="1" precision="I64" />
			</input>
			<output>
				<port id="2" precision="I64" names="934" />
			</output>
		</layer>
		<layer id="392" name="Constant_464" type="Const" version="opset1">
			<data element_type="i64" shape="" offset="0" size="8" />
			<output>
				<port id="0" precision="I64" names="935" />
			</output>
		</layer>
		<layer id="393" name="Sub_465" type="Subtract" version="opset1">
			<data auto_broadcast="numpy" />
			<input>
				<port id="0" precision="I64" />
				<port id="1" precision="I64" />
			</input>
			<output>
				<port id="2" precision="I64" names="936" />
			</output>
		</layer>
		<layer id="394" name="Constant_1621" type="Const" version="opset1">
			<data element_type="i64" shape="1" offset="264208" size="8" />
			<output>
				<port id="0" precision="I64">
					<dim>1</dim>
				</port>
			</output>
		</layer>
		<layer id="395" name="Unsqueeze_467" type="Unsqueeze" version="opset1">
			<input>
				<port id="0" precision="I64" />
				<port id="1" precision="I64">
					<dim>1</dim>
				</port>
			</input>
			<output>
				<port id="2" precision="I64" names="938">
					<dim>1</dim>
				</port>
			</output>
		</layer>
		<layer id="396" name="Concat_468" type="Concat" version="opset1">
			<data axis="0" />
			<input>
				<port id="0" precision="I64">
					<dim>1</dim>
				</port>
				<port id="1" precision="I64">
					<dim>1</dim>
				</port>
			</input>
			<output>
				<port id="2" precision="I64" names="939">
					<dim>2</dim>
				</port>
			</output>
		</layer>
		<layer id="397" name="Reshape_469" type="Reshape" version="opset1">
			<data special_zero="true" />
			<input>
				<port id="0" precision="FP32">
					<dim>240</dim>
				</port>
				<port id="1" precision="I64">
					<dim>2</dim>
				</port>
			</input>
			<output>
				<port id="2" precision="FP32" names="940">
					<dim>8</dim>
					<dim>30</dim>
				</port>
			</output>
		</layer>
		<layer id="398" name="Constant_104017" type="Const" version="opset1">
			<data element_type="i64" shape="2" offset="328432" size="16" />
			<output>
				<port id="0" precision="I64">
					<dim>2</dim>
				</port>
			</output>
		</layer>
		<layer id="399" name="Constant_104018" type="Const" version="opset1">
			<data element_type="i64" shape="2" offset="328432" size="16" />
			<output>
				<port id="0" precision="I64">
					<dim>2</dim>
				</port>
			</output>
		</layer>
		<layer id="400" name="Constant_104014" type="Const" version="opset1">
			<data element_type="i64" shape="1" offset="0" size="8" />
			<output>
				<port id="0" precision="I64">
					<dim>1</dim>
				</port>
			</output>
		</layer>
		<layer id="401" name="Constant_418" type="Const" version="opset1">
			<data element_type="i64" shape="" offset="586652" size="8" />
			<output>
				<port id="0" precision="I64" names="877" />
			</output>
		</layer>
		<layer id="402" name="Add_419" type="Add" version="opset1">
			<data auto_broadcast="numpy" />
			<input>
				<port id="0" precision="I64" />
				<port id="1" precision="I64" />
			</input>
			<output>
				<port id="2" precision="I64" names="878,942" />
			</output>
		</layer>
		<layer id="403" name="Constant_1629" type="Const" version="opset1">
			<data element_type="i64" shape="1" offset="264208" size="8" />
			<output>
				<port id="0" precision="I64">
					<dim>1</dim>
				</port>
			</output>
		</layer>
		<layer id="404" name="Unsqueeze_472" type="Unsqueeze" version="opset1">
			<input>
				<port id="0" precision="I64" />
				<port id="1" precision="I64">
					<dim>1</dim>
				</port>
			</input>
			<output>
				<port id="2" precision="I64" names="946">
					<dim>1</dim>
				</port>
			</output>
		</layer>
		<layer id="405" name="Constant_104013" type="Const" version="opset1">
			<data element_type="i32" shape="1" offset="264264" size="4" />
			<output>
				<port id="0" precision="I32">
					<dim>1</dim>
				</port>
			</output>
		</layer>
		<layer id="406" name="ScatterUpdate_104019" type="ScatterUpdate" version="opset3">
			<input>
				<port id="0" precision="I64">
					<dim>2</dim>
				</port>
				<port id="1" precision="I64">
					<dim>1</dim>
				</port>
				<port id="2" precision="I64">
					<dim>1</dim>
				</port>
				<port id="3" precision="I32">
					<dim>1</dim>
				</port>
			</input>
			<output>
				<port id="4" precision="I64">
					<dim>2</dim>
				</port>
			</output>
		</layer>
		<layer id="407" name="Constant_104022" type="Const" version="opset1">
			<data element_type="i64" shape="2" offset="328496" size="16" />
			<output>
				<port id="0" precision="I64">
					<dim>2</dim>
				</port>
			</output>
		</layer>
		<layer id="408" name="Slice_474" type="StridedSlice" version="opset1">
			<data begin_mask="1, 0" end_mask="1, 0" new_axis_mask="" shrink_axis_mask="" ellipsis_mask="" />
			<input>
				<port id="0" precision="FP32">
					<dim>8</dim>
					<dim>30</dim>
				</port>
				<port id="1" precision="I64">
					<dim>2</dim>
				</port>
				<port id="2" precision="I64">
					<dim>2</dim>
				</port>
				<port id="3" precision="I64">
					<dim>2</dim>
				</port>
			</input>
			<output>
				<port id="4" precision="FP32" names="949">
					<dim>8</dim>
					<dim>30</dim>
				</port>
			</output>
		</layer>
		<layer id="409" name="Constant_1635" type="Const" version="opset1">
			<data element_type="i64" shape="1" offset="264208" size="8" />
			<output>
				<port id="0" precision="I64">
					<dim>1</dim>
				</port>
			</output>
		</layer>
		<layer id="410" name="Unsqueeze_475" type="Unsqueeze" version="opset1">
			<input>
				<port id="0" precision="FP32">
					<dim>8</dim>
					<dim>30</dim>
				</port>
				<port id="1" precision="I64">
					<dim>1</dim>
				</port>
			</input>
			<output>
				<port id="2" precision="FP32" names="950">
					<dim>1</dim>
					<dim>8</dim>
					<dim>30</dim>
				</port>
			</output>
		</layer>
		<layer id="411" name="Constant_1637" type="Const" version="opset1">
			<data element_type="i64" shape="1" offset="264208" size="8" />
			<output>
				<port id="0" precision="I64">
					<dim>1</dim>
				</port>
			</output>
		</layer>
		<layer id="412" name="Unsqueeze_476" type="Unsqueeze" version="opset1">
			<input>
				<port id="0" precision="FP32">
					<dim>1</dim>
					<dim>8</dim>
					<dim>30</dim>
				</port>
				<port id="1" precision="I64">
					<dim>1</dim>
				</port>
			</input>
			<output>
				<port id="2" precision="FP32" names="951">
					<dim>1</dim>
					<dim>1</dim>
					<dim>8</dim>
					<dim>30</dim>
				</port>
			</output>
		</layer>
		<layer id="413" name="Mul_477" type="Multiply" version="opset1">
			<data auto_broadcast="numpy" />
			<input>
				<port id="0" precision="FP32">
					<dim>64</dim>
					<dim>2</dim>
					<dim>8</dim>
					<dim>30</dim>
				</port>
				<port id="1" precision="FP32">
					<dim>1</dim>
					<dim>1</dim>
					<dim>8</dim>
					<dim>30</dim>
				</port>
			</input>
			<output>
				<port id="2" precision="FP32" names="952">
					<dim>64</dim>
					<dim>2</dim>
					<dim>8</dim>
					<dim>30</dim>
				</port>
			</output>
		</layer>
		<layer id="414" name="Constant_146360" type="Const" version="opset1">
			<data element_type="f32" shape="1, 1, 1, 1" offset="328420" size="4" />
			<output>
				<port id="0" precision="FP32">
					<dim>1</dim>
					<dim>1</dim>
					<dim>1</dim>
					<dim>1</dim>
				</port>
			</output>
		</layer>
		<layer id="415" name="Sub_479" type="Subtract" version="opset1">
			<data auto_broadcast="numpy" />
			<input>
				<port id="0" precision="FP32">
					<dim>1</dim>
					<dim>1</dim>
					<dim>1</dim>
					<dim>1</dim>
				</port>
				<port id="1" precision="FP32">
					<dim>1</dim>
					<dim>1</dim>
					<dim>8</dim>
					<dim>30</dim>
				</port>
			</input>
			<output>
				<port id="2" precision="FP32" names="954">
					<dim>1</dim>
					<dim>1</dim>
					<dim>8</dim>
					<dim>30</dim>
				</port>
			</output>
		</layer>
		<layer id="416" name="Constant_146361" type="Const" version="opset1">
			<data element_type="f32" shape="1, 1, 1, 1" offset="328512" size="4" />
			<output>
				<port id="0" precision="FP32">
					<dim>1</dim>
					<dim>1</dim>
					<dim>1</dim>
					<dim>1</dim>
				</port>
			</output>
		</layer>
		<layer id="417" name="Mul_481" type="Multiply" version="opset1">
			<data auto_broadcast="numpy" />
			<input>
				<port id="0" precision="FP32">
					<dim>1</dim>
					<dim>1</dim>
					<dim>8</dim>
					<dim>30</dim>
				</port>
				<port id="1" precision="FP32">
					<dim>1</dim>
					<dim>1</dim>
					<dim>1</dim>
					<dim>1</dim>
				</port>
			</input>
			<output>
				<port id="2" precision="FP32" names="956">
					<dim>1</dim>
					<dim>1</dim>
					<dim>8</dim>
					<dim>30</dim>
				</port>
			</output>
		</layer>
		<layer id="418" name="Add_482" type="Add" version="opset1">
			<data auto_broadcast="numpy" />
			<input>
				<port id="0" precision="FP32">
					<dim>64</dim>
					<dim>2</dim>
					<dim>8</dim>
					<dim>30</dim>
				</port>
				<port id="1" precision="FP32">
					<dim>1</dim>
					<dim>1</dim>
					<dim>8</dim>
					<dim>30</dim>
				</port>
			</input>
			<output>
				<port id="2" precision="FP32" names="957">
					<dim>64</dim>
					<dim>2</dim>
					<dim>8</dim>
					<dim>30</dim>
				</port>
			</output>
		</layer>
		<layer id="419" name="Softmax_483" type="SoftMax" version="opset8">
			<data axis="3" />
			<input>
				<port id="0" precision="FP32">
					<dim>64</dim>
					<dim>2</dim>
					<dim>8</dim>
					<dim>30</dim>
				</port>
			</input>
			<output>
				<port id="1" precision="FP32" names="958">
					<dim>64</dim>
					<dim>2</dim>
					<dim>8</dim>
					<dim>30</dim>
				</port>
			</output>
		</layer>
		<layer id="420" name="Concat_383" type="Concat" version="opset1">
			<data axis="3" />
			<input>
				<port id="0" precision="FP32">
					<dim>1</dim>
					<dim>64</dim>
					<dim>64</dim>
					<dim>22</dim>
				</port>
				<port id="1" precision="FP32">
					<dim>1</dim>
					<dim>64</dim>
					<dim>64</dim>
					<dim>8</dim>
				</port>
			</input>
			<output>
				<port id="2" precision="FP32" names="828">
					<dim>1</dim>
					<dim>64</dim>
					<dim>64</dim>
…
		<edge from-layer="2020" from-port="0" to-layer="2023" to-port="0" />
		<edge from-layer="2021" from-port="0" to-layer="2022" to-port="1" />
		<edge from-layer="2022" from-port="2" to-layer="2023" to-port="2" />
		<edge from-layer="2023" from-port="4" to-layer="2025" to-port="2" />
		<edge from-layer="2024" from-port="0" to-layer="2025" to-port="3" />
		<edge from-layer="2025" from-port="4" to-layer="2026" to-port="0" />
		<edge from-layer="2027" from-port="0" to-layer="2038" to-port="0" />
		<edge from-layer="2028" from-port="0" to-layer="2042" to-port="1" />
		<edge from-layer="2028" from-port="0" to-layer="2038" to-port="1" />
		<edge from-layer="2029" from-port="1" to-layer="2032" to-port="0" />
		<edge from-layer="2030" from-port="0" to-layer="2032" to-port="1" />
		<edge from-layer="2031" from-port="0" to-layer="2032" to-port="2" />
		<edge from-layer="2032" from-port="3" to-layer="2034" to-port="0" />
		<edge from-layer="2033" from-port="0" to-layer="2034" to-port="1" />
		<edge from-layer="2034" from-port="2" to-layer="2036" to-port="0" />
		<edge from-layer="2035" from-port="0" to-layer="2036" to-port="1" />
		<edge from-layer="2036" from-port="2" to-layer="2038" to-port="2" />
		<edge from-layer="2036" from-port="2" to-layer="2041" to-port="0" />
		<edge from-layer="2037" from-port="0" to-layer="2038" to-port="3" />
		<edge from-layer="2037" from-port="0" to-layer="2042" to-port="3" />
		<edge from-layer="2038" from-port="4" to-layer="2044" to-port="1" />
		<edge from-layer="2039" from-port="0" to-layer="2042" to-port="0" />
		<edge from-layer="2040" from-port="0" to-layer="2041" to-port="1" />
		<edge from-layer="2041" from-port="2" to-layer="2042" to-port="2" />
		<edge from-layer="2042" from-port="4" to-layer="2044" to-port="2" />
		<edge from-layer="2043" from-port="0" to-layer="2044" to-port="3" />
		<edge from-layer="2044" from-port="4" to-layer="2045" to-port="0" />
		<edge from-layer="2046" from-port="0" to-layer="2057" to-port="0" />
		<edge from-layer="2047" from-port="0" to-layer="2057" to-port="1" />
		<edge from-layer="2047" from-port="0" to-layer="2061" to-port="1" />
		<edge from-layer="2048" from-port="1" to-layer="2051" to-port="0" />
		<edge from-layer="2049" from-port="0" to-layer="2051" to-port="1" />
		<edge from-layer="2050" from-port="0" to-layer="2051" to-port="2" />
		<edge from-layer="2051" from-port="3" to-layer="2053" to-port="0" />
		<edge from-layer="2052" from-port="0" to-layer="2053" to-port="1" />
		<edge from-layer="2053" from-port="2" to-layer="2055" to-port="0" />
		<edge from-layer="2054" from-port="0" to-layer="2055" to-port="1" />
		<edge from-layer="2055" from-port="2" to-layer="2060" to-port="0" />
		<edge from-layer="2055" from-port="2" to-layer="2057" to-port="2" />
		<edge from-layer="2056" from-port="0" to-layer="2061" to-port="3" />
		<edge from-layer="2056" from-port="0" to-layer="2057" to-port="3" />
		<edge from-layer="2057" from-port="4" to-layer="2063" to-port="1" />
		<edge from-layer="2058" from-port="0" to-layer="2061" to-port="0" />
		<edge from-layer="2059" from-port="0" to-layer="2060" to-port="1" />
		<edge from-layer="2060" from-port="2" to-layer="2061" to-port="2" />
		<edge from-layer="2061" from-port="4" to-layer="2063" to-port="2" />
		<edge from-layer="2062" from-port="0" to-layer="2063" to-port="3" />
		<edge from-layer="2063" from-port="4" to-layer="2064" to-port="0" />
		<edge from-layer="2065" from-port="0" to-layer="2076" to-port="0" />
		<edge from-layer="2066" from-port="0" to-layer="2076" to-port="1" />
		<edge from-layer="2066" from-port="0" to-layer="2080" to-port="1" />
		<edge from-layer="2067" from-port="1" to-layer="2070" to-port="0" />
		<edge from-layer="2068" from-port="0" to-layer="2070" to-port="1" />
		<edge from-layer="2069" from-port="0" to-layer="2070" to-port="2" />
		<edge from-layer="2070" from-port="3" to-layer="2072" to-port="0" />
		<edge from-layer="2071" from-port="0" to-layer="2072" to-port="1" />
		<edge from-layer="2072" from-port="2" to-layer="2074" to-port="0" />
		<edge from-layer="2073" from-port="0" to-layer="2074" to-port="1" />
		<edge from-layer="2074" from-port="2" to-layer="2079" to-port="0" />
		<edge from-layer="2074" from-port="2" to-layer="2076" to-port="2" />
		<edge from-layer="2075" from-port="0" to-layer="2076" to-port="3" />
		<edge from-layer="2075" from-port="0" to-layer="2080" to-port="3" />
		<edge from-layer="2076" from-port="4" to-layer="2082" to-port="1" />
		<edge from-layer="2077" from-port="0" to-layer="2080" to-port="0" />
		<edge from-layer="2078" from-port="0" to-layer="2079" to-port="1" />
		<edge from-layer="2079" from-port="2" to-layer="2080" to-port="2" />
		<edge from-layer="2080" from-port="4" to-layer="2082" to-port="2" />
		<edge from-layer="2081" from-port="0" to-layer="2082" to-port="3" />
		<edge from-layer="2082" from-port="4" to-layer="2083" to-port="0" />
		<edge from-layer="2084" from-port="0" to-layer="2095" to-port="0" />
		<edge from-layer="2085" from-port="0" to-layer="2095" to-port="1" />
		<edge from-layer="2085" from-port="0" to-layer="2099" to-port="1" />
		<edge from-layer="2086" from-port="1" to-layer="2089" to-port="0" />
		<edge from-layer="2087" from-port="0" to-layer="2089" to-port="1" />
		<edge from-layer="2088" from-port="0" to-layer="2089" to-port="2" />
		<edge from-layer="2089" from-port="3" to-layer="2091" to-port="0" />
		<edge from-layer="2090" from-port="0" to-layer="2091" to-port="1" />
		<edge from-layer="2091" from-port="2" to-layer="2093" to-port="0" />
		<edge from-layer="2092" from-port="0" to-layer="2093" to-port="1" />
		<edge from-layer="2093" from-port="2" to-layer="2095" to-port="2" />
		<edge from-layer="2093" from-port="2" to-layer="2098" to-port="0" />
		<edge from-layer="2094" from-port="0" to-layer="2095" to-port="3" />
		<edge from-layer="2094" from-port="0" to-layer="2099" to-port="3" />
		<edge from-layer="2095" from-port="4" to-layer="2101" to-port="1" />
		<edge from-layer="2096" from-port="0" to-layer="2099" to-port="0" />
		<edge from-layer="2097" from-port="0" to-layer="2098" to-port="1" />
		<edge from-layer="2098" from-port="2" to-layer="2099" to-port="2" />
		<edge from-layer="2099" from-port="4" to-layer="2101" to-port="2" />
		<edge from-layer="2100" from-port="0" to-layer="2101" to-port="3" />
		<edge from-layer="2101" from-port="4" to-layer="2102" to-port="0" />
		<edge from-layer="2103" from-port="0" to-layer="2114" to-port="0" />
		<edge from-layer="2104" from-port="0" to-layer="2118" to-port="1" />
		<edge from-layer="2104" from-port="0" to-layer="2114" to-port="1" />
		<edge from-layer="2105" from-port="1" to-layer="2108" to-port="0" />
		<edge from-layer="2106" from-port="0" to-layer="2108" to-port="1" />
		<edge from-layer="2107" from-port="0" to-layer="2108" to-port="2" />
		<edge from-layer="2108" from-port="3" to-layer="2110" to-port="0" />
		<edge from-layer="2109" from-port="0" to-layer="2110" to-port="1" />
		<edge from-layer="2110" from-port="2" to-layer="2112" to-port="0" />
		<edge from-layer="2111" from-port="0" to-layer="2112" to-port="1" />
		<edge from-layer="2112" from-port="2" to-layer="2114" to-port="2" />
		<edge from-layer="2112" from-port="2" to-layer="2117" to-port="0" />
		<edge from-layer="2113" from-port="0" to-layer="2118" to-port="3" />
		<edge from-layer="2113" from-port="0" to-layer="2114" to-port="3" />
		<edge from-layer="2114" from-port="4" to-layer="2120" to-port="1" />
		<edge from-layer="2115" from-port="0" to-layer="2118" to-port="0" />
		<edge from-layer="2116" from-port="0" to-layer="2117" to-port="1" />
		<edge from-layer="2117" from-port="2" to-layer="2118" to-port="2" />
		<edge from-layer="2118" from-port="4" to-layer="2120" to-port="2" />
		<edge from-layer="2119" from-port="0" to-layer="2120" to-port="3" />
		<edge from-layer="2120" from-port="4" to-layer="2121" to-port="0" />
		<edge from-layer="2122" from-port="0" to-layer="2132" to-port="0" />
		<edge from-layer="2123" from-port="0" to-layer="2132" to-port="1" />
		<edge from-layer="2123" from-port="0" to-layer="2136" to-port="1" />
		<edge from-layer="2124" from-port="0" to-layer="2126" to-port="1" />
		<edge from-layer="2125" from-port="0" to-layer="2126" to-port="2" />
		<edge from-layer="2126" from-port="3" to-layer="2128" to-port="0" />
		<edge from-layer="2127" from-port="0" to-layer="2128" to-port="1" />
		<edge from-layer="2128" from-port="2" to-layer="2130" to-port="0" />
		<edge from-layer="2129" from-port="0" to-layer="2130" to-port="1" />
		<edge from-layer="2130" from-port="2" to-layer="2135" to-port="0" />
		<edge from-layer="2130" from-port="2" to-layer="2132" to-port="2" />
		<edge from-layer="2131" from-port="0" to-layer="2132" to-port="3" />
		<edge from-layer="2131" from-port="0" to-layer="2136" to-port="3" />
		<edge from-layer="2132" from-port="4" to-layer="2138" to-port="1" />
		<edge from-layer="2133" from-port="0" to-layer="2136" to-port="0" />
		<edge from-layer="2134" from-port="0" to-layer="2135" to-port="1" />
		<edge from-layer="2135" from-port="2" to-layer="2136" to-port="2" />
		<edge from-layer="2136" from-port="4" to-layer="2138" to-port="2" />
		<edge from-layer="2137" from-port="0" to-layer="2138" to-port="3" />
		<edge from-layer="2138" from-port="4" to-layer="2139" to-port="0" />
		<edge from-layer="2140" from-port="0" to-layer="2151" to-port="0" />
		<edge from-layer="2141" from-port="0" to-layer="2151" to-port="1" />
		<edge from-layer="2141" from-port="0" to-layer="2155" to-port="1" />
		<edge from-layer="2142" from-port="1" to-layer="2145" to-port="0" />
		<edge from-layer="2143" from-port="0" to-layer="2145" to-port="1" />
		<edge from-layer="2144" from-port="0" to-layer="2145" to-port="2" />
		<edge from-layer="2145" from-port="3" to-layer="2147" to-port="0" />
		<edge from-layer="2146" from-port="0" to-layer="2147" to-port="1" />
		<edge from-layer="2147" from-port="2" to-layer="2149" to-port="0" />
		<edge from-layer="2148" from-port="0" to-layer="2149" to-port="1" />
		<edge from-layer="2149" from-port="2" to-layer="2151" to-port="2" />
		<edge from-layer="2149" from-port="2" to-layer="2154" to-port="0" />
		<edge from-layer="2150" from-port="0" to-layer="2151" to-port="3" />
		<edge from-layer="2150" from-port="0" to-layer="2155" to-port="3" />
		<edge from-layer="2151" from-port="4" to-layer="2157" to-port="1" />
		<edge from-layer="2152" from-port="0" to-layer="2155" to-port="0" />
		<edge from-layer="2153" from-port="0" to-layer="2154" to-port="1" />
		<edge from-layer="2154" from-port="2" to-layer="2155" to-port="2" />
		<edge from-layer="2155" from-port="4" to-layer="2157" to-port="2" />
		<edge from-layer="2156" from-port="0" to-layer="2157" to-port="3" />
		<edge from-layer="2157" from-port="4" to-layer="2158" to-port="0" />
		<edge from-layer="2159" from-port="0" to-layer="2170" to-port="0" />
		<edge from-layer="2160" from-port="0" to-layer="2174" to-port="1" />
		<edge from-layer="2160" from-port="0" to-layer="2170" to-port="1" />
		<edge from-layer="2161" from-port="1" to-layer="2164" to-port="0" />
		<edge from-layer="2162" from-port="0" to-layer="2164" to-port="1" />
		<edge from-layer="2163" from-port="0" to-layer="2164" to-port="2" />
		<edge from-layer="2164" from-port="3" to-layer="2166" to-port="0" />
		<edge from-layer="2165" from-port="0" to-layer="2166" to-port="1" />
		<edge from-layer="2166" from-port="2" to-layer="2168" to-port="0" />
		<edge from-layer="2167" from-port="0" to-layer="2168" to-port="1" />
		<edge from-layer="2168" from-port="2" to-layer="2173" to-port="0" />
		<edge from-layer="2168" from-port="2" to-layer="2170" to-port="2" />
		<edge from-layer="2169" from-port="0" to-layer="2170" to-port="3" />
		<edge from-layer="2169" from-port="0" to-layer="2174" to-port="3" />
		<edge from-layer="2170" from-port="4" to-layer="2176" to-port="1" />
		<edge from-layer="2171" from-port="0" to-layer="2174" to-port="0" />
		<edge from-layer="2172" from-port="0" to-layer="2173" to-port="1" />
		<edge from-layer="2173" from-port="2" to-layer="2174" to-port="2" />
		<edge from-layer="2174" from-port="4" to-layer="2176" to-port="2" />
		<edge from-layer="2175" from-port="0" to-layer="2176" to-port="3" />
		<edge from-layer="2176" from-port="4" to-layer="2177" to-port="0" />
		<edge from-layer="2178" from-port="0" to-layer="2189" to-port="0" />
		<edge from-layer="2179" from-port="0" to-layer="2189" to-port="1" />
		<edge from-layer="2179" from-port="0" to-layer="2193" to-port="1" />
		<edge from-layer="2180" from-port="1" to-layer="2183" to-port="0" />
		<edge from-layer="2181" from-port="0" to-layer="2183" to-port="1" />
		<edge from-layer="2182" from-port="0" to-layer="2183" to-port="2" />
		<edge from-layer="2183" from-port="3" to-layer="2185" to-port="0" />
		<edge from-layer="2184" from-port="0" to-layer="2185" to-port="1" />
		<edge from-layer="2185" from-port="2" to-layer="2187" to-port="0" />
		<edge from-layer="2186" from-port="0" to-layer="2187" to-port="1" />
		<edge from-layer="2187" from-port="2" to-layer="2189" to-port="2" />
		<edge from-layer="2187" from-port="2" to-layer="2192" to-port="0" />
		<edge from-layer="2188" from-port="0" to-layer="2189" to-port="3" />
		<edge from-layer="2188" from-port="0" to-layer="2193" to-port="3" />
		<edge from-layer="2189" from-port="4" to-layer="2195" to-port="1" />
		<edge from-layer="2190" from-port="0" to-layer="2193" to-port="0" />
		<edge from-layer="2191" from-port="0" to-layer="2192" to-port="1" />
		<edge from-layer="2192" from-port="2" to-layer="2193" to-port="2" />
		<edge from-layer="2193" from-port="4" to-layer="2195" to-port="2" />
		<edge from-layer="2194" from-port="0" to-layer="2195" to-port="3" />
		<edge from-layer="2195" from-port="4" to-layer="2196" to-port="0" />
		<edge from-layer="2197" from-port="0" to-layer="2208" to-port="0" />
		<edge from-layer="2198" from-port="0" to-layer="2212" to-port="1" />
		<edge from-layer="2198" from-port="0" to-layer="2208" to-port="1" />
		<edge from-layer="2199" from-port="1" to-layer="2202" to-port="0" />
		<edge from-layer="2200" from-port="0" to-layer="2202" to-port="1" />
		<edge from-layer="2201" from-port="0" to-layer="2202" to-port="2" />
		<edge from-layer="2202" from-port="3" to-layer="2204" to-port="0" />
		<edge from-layer="2203" from-port="0" to-layer="2204" to-port="1" />
		<edge from-layer="2204" from-port="2" to-layer="2206" to-port="0" />
		<edge from-layer="2205" from-port="0" to-layer="2206" to-port="1" />
		<edge from-layer="2206" from-port="2" to-layer="2211" to-port="0" />
		<edge from-layer="2206" from-port="2" to-layer="2208" to-port="2" />
		<edge from-layer="2207" from-port="0" to-layer="2212" to-port="3" />
		<edge from-layer="2207" from-port="0" to-layer="2208" to-port="3" />
		<edge from-layer="2208" from-port="4" to-layer="2214" to-port="1" />
		<edge from-layer="2209" from-port="0" to-layer="2212" to-port="0" />
		<edge from-layer="2210" from-port="0" to-layer="2211" to-port="1" />
		<edge from-layer="2211" from-port="2" to-layer="2212" to-port="2" />
		<edge from-layer="2212" from-port="4" to-layer="2214" to-port="2" />
		<edge from-layer="2213" from-port="0" to-layer="2214" to-port="3" />
		<edge from-layer="2214" from-port="4" to-layer="2215" to-port="0" />
		<edge from-layer="2216" from-port="0" to-layer="2226" to-port="0" />
		<edge from-layer="2217" from-port="0" to-layer="2226" to-port="1" />
		<edge from-layer="2217" from-port="0" to-layer="2230" to-port="1" />
		<edge from-layer="2218" from-port="0" to-layer="2220" to-port="1" />
		<edge from-layer="2219" from-port="0" to-layer="2220" to-port="2" />
		<edge from-layer="2220" from-port="3" to-layer="2222" to-port="0" />
		<edge from-layer="2221" from-port="0" to-layer="2222" to-port="1" />
		<edge from-layer="2222" from-port="2" to-layer="2224" to-port="0" />
		<edge from-layer="2223" from-port="0" to-layer="2224" to-port="1" />
		<edge from-layer="2224" from-port="2" to-layer="2229" to-port="0" />
		<edge from-layer="2224" from-port="2" to-layer="2226" to-port="2" />
		<edge from-layer="2225" from-port="0" to-layer="2230" to-port="3" />
		<edge from-layer="2225" from-port="0" to-layer="2226" to-port="3" />
		<edge from-layer="2226" from-port="4" to-layer="2232" to-port="1" />
		<edge from-layer="2227" from-port="0" to-layer="2230" to-port="0" />
		<edge from-layer="2228" from-port="0" to-layer="2229" to-port="1" />
		<edge from-layer="2229" from-port="2" to-layer="2230" to-port="2" />
		<edge from-layer="2230" from-port="4" to-layer="2232" to-port="2" />
		<edge from-layer="2231" from-port="0" to-layer="2232" to-port="3" />
		<edge from-layer="2232" from-port="4" to-layer="2233" to-port="0" />
		<edge from-layer="2234" from-port="0" to-layer="2245" to-port="0" />
		<edge from-layer="2235" from-port="0" to-layer="2249" to-port="1" />
		<edge from-layer="2235" from-port="0" to-layer="2245" to-port="1" />
		<edge from-layer="2236" from-port="1" to-layer="2239" to-port="0" />
		<edge from-layer="2237" from-port="0" to-layer="2239" to-port="1" />
		<edge from-layer="2238" from-port="0" to-layer="2239" to-port="2" />
		<edge from-layer="2239" from-port="3" to-layer="2241" to-port="0" />
		<edge from-layer="2240" from-port="0" to-layer="2241" to-port="1" />
		<edge from-layer="2241" from-port="2" to-layer="2243" to-port="0" />
		<edge from-layer="2242" from-port="0" to-layer="2243" to-port="1" />
		<edge from-layer="2243" from-port="2" to-layer="2245" to-port="2" />
		<edge from-layer="2243" from-port="2" to-layer="2248" to-port="0" />
		<edge from-layer="2244" from-port="0" to-layer="2249" to-port="3" />
		<edge from-layer="2244" from-port="0" to-layer="2245" to-port="3" />
		<edge from-layer="2245" from-port="4" to-layer="2251" to-port="1" />
		<edge from-layer="2246" from-port="0" to-layer="2249" to-port="0" />
		<edge from-layer="2247" from-port="0" to-layer="2248" to-port="1" />
		<edge from-layer="2248" from-port="2" to-layer="2249" to-port="2" />
		<edge from-layer="2249" from-port="4" to-layer="2251" to-port="2" />
		<edge from-layer="2250" from-port="0" to-layer="2251" to-port="3" />
		<edge from-layer="2251" from-port="4" to-layer="2252" to-port="0" />
		<edge from-layer="2253" from-port="0" to-layer="2264" to-port="0" />
		<edge from-layer="2254" from-port="0" to-layer="2268" to-port="1" />
		<edge from-layer="2254" from-port="0" to-layer="2264" to-port="1" />
		<edge from-layer="2255" from-port="1" to-layer="2258" to-port="0" />
		<edge from-layer="2256" from-port="0" to-layer="2258" to-port="1" />
		<edge from-layer="2257" from-port="0" to-layer="2258" to-port="2" />
		<edge from-layer="2258" from-port="3" to-layer="2260" to-port="0" />
		<edge from-layer="2259" from-port="0" to-layer="2260" to-port="1" />
		<edge from-layer="2260" from-port="2" to-layer="2262" to-port="0" />
		<edge from-layer="2261" from-port="0" to-layer="2262" to-port="1" />
		<edge from-layer="2262" from-port="2" to-layer="2264" to-port="2" />
		<edge from-layer="2262" from-port="2" to-layer="2267" to-port="0" />
		<edge from-layer="2263" from-port="0" to-layer="2264" to-port="3" />
		<edge from-layer="2263" from-port="0" to-layer="2268" to-port="3" />
		<edge from-layer="2264" from-port="4" to-layer="2270" to-port="1" />
		<edge from-layer="2265" from-port="0" to-layer="2268" to-port="0" />
		<edge from-layer="2266" from-port="0" to-layer="2267" to-port="1" />
		<edge from-layer="2267" from-port="2" to-layer="2268" to-port="2" />
		<edge from-layer="2268" from-port="4" to-layer="2270" to-port="2" />
		<edge from-layer="2269" from-port="0" to-layer="2270" to-port="3" />
		<edge from-layer="2270" from-port="4" to-layer="2271" to-port="0" />
		<edge from-layer="2272" from-port="0" to-layer="2283" to-port="0" />
		<edge from-layer="2273" from-port="0" to-layer="2283" to-port="1" />
		<edge from-layer="2273" from-port="0" to-layer="2287" to-port="1" />
		<edge from-layer="2274" from-port="1" to-layer="2277" to-port="0" />
		<edge from-layer="2275" from-port="0" to-layer="2277" to-port="1" />
		<edge from-layer="2276" from-port="0" to-layer="2277" to-port="2" />
		<edge from-layer="2277" from-port="3" to-layer="2279" to-port="0" />
		<edge from-layer="2278" from-port="0" to-layer="2279" to-port="1" />
		<edge from-layer="2279" from-port="2" to-layer="2281" to-port="0" />
		<edge from-layer="2280" from-port="0" to-layer="2281" to-port="1" />
		<edge from-layer="2281" from-port="2" to-layer="2283" to-port="2" />
		<edge from-layer="2281" from-port="2" to-layer="2286" to-port="0" />
		<edge from-layer="2282" from-port="0" to-layer="2283" to-port="3" />
		<edge from-layer="2282" from-port="0" to-layer="2287" to-port="3" />
		<edge from-layer="2283" from-port="4" to-layer="2289" to-port="1" />
		<edge from-layer="2284" from-port="0" to-layer="2287" to-port="0" />
		<edge from-layer="2285" from-port="0" to-layer="2286" to-port="1" />
		<edge from-layer="2286" from-port="2" to-layer="2287" to-port="2" />
		<edge from-layer="2287" from-port="4" to-layer="2289" to-port="2" />
		<edge from-layer="2288" from-port="0" to-layer="2289" to-port="3" />
		<edge from-layer="2289" from-port="4" to-layer="2290" to-port="0" />
		<edge from-layer="2291" from-port="0" to-layer="2302" to-port="0" />
		<edge from-layer="2292" from-port="0" to-layer="2306" to-port="1" />
		<edge from-layer="2292" from-port="0" to-layer="2302" to-port="1" />
		<edge from-layer="2293" from-port="1" to-layer="2296" to-port="0" />
		<edge from-layer="2294" from-port="0" to-layer="2296" to-port="1" />
		<edge from-layer="2295" from-port="0" to-layer="2296" to-port="2" />
		<edge from-layer="2296" from-port="3" to-layer="2298" to-port="0" />
		<edge from-layer="2297" from-port="0" to-layer="2298" to-port="1" />
		<edge from-layer="2298" from-port="2" to-layer="2300" to-port="0" />
		<edge from-layer="2299" from-port="0" to-layer="2300" to-port="1" />
		<edge from-layer="2300" from-port="2" to-layer="2302" to-port="2" />
		<edge from-layer="2300" from-port="2" to-layer="2305" to-port="0" />
		<edge from-layer="2301" from-port="0" to-layer="2302" to-port="3" />
		<edge from-layer="2301" from-port="0" to-layer="2306" to-port="3" />
		<edge from-layer="2302" from-port="4" to-layer="2308" to-port="1" />
		<edge from-layer="2303" from-port="0" to-layer="2306" to-port="0" />
		<edge from-layer="2304" from-port="0" to-layer="2305" to-port="1" />
		<edge from-layer="2305" from-port="2" to-layer="2306" to-port="2" />
		<edge from-layer="2306" from-port="4" to-layer="2308" to-port="2" />
		<edge from-layer="2307" from-port="0" to-layer="2308" to-port="3" />
		<edge from-layer="2308" from-port="4" to-layer="2309" to-port="0" />
		<edge from-layer="2310" from-port="0" to-layer="2320" to-port="0" />
		<edge from-layer="2311" from-port="0" to-layer="2324" to-port="1" />
		<edge from-layer="2311" from-port="0" to-layer="2320" to-port="1" />
		<edge from-layer="2312" from-port="0" to-layer="2314" to-port="1" />
		<edge from-layer="2313" from-port="0" to-layer="2314" to-port="2" />
		<edge from-layer="2314" from-port="3" to-layer="2316" to-port="0" />
		<edge from-layer="2315" from-port="0" to-layer="2316" to-port="1" />
		<edge from-layer="2316" from-port="2" to-layer="2318" to-port="0" />
		<edge from-layer="2317" from-port="0" to-layer="2318" to-port="1" />
		<edge from-layer="2318" from-port="2" to-layer="2323" to-port="0" />
		<edge from-layer="2318" from-port="2" to-layer="2320" to-port="2" />
		<edge from-layer="2319" from-port="0" to-layer="2324" to-port="3" />
		<edge from-layer="2319" from-port="0" to-layer="2320" to-port="3" />
		<edge from-layer="2320" from-port="4" to-layer="2326" to-port="1" />
		<edge from-layer="2321" from-port="0" to-layer="2324" to-port="0" />
		<edge from-layer="2322" from-port="0" to-layer="2323" to-port="1" />
		<edge from-layer="2323" from-port="2" to-layer="2324" to-port="2" />
		<edge from-layer="2324" from-port="4" to-layer="2326" to-port="2" />
		<edge from-layer="2325" from-port="0" to-layer="2326" to-port="3" />
		<edge from-layer="2326" from-port="4" to-layer="2327" to-port="0" />
		<edge from-layer="2328" from-port="0" to-layer="2339" to-port="0" />
		<edge from-layer="2329" from-port="0" to-layer="2343" to-port="1" />
		<edge from-layer="2329" from-port="0" to-layer="2339" to-port="1" />
		<edge from-layer="2330" from-port="1" to-layer="2333" to-port="0" />
		<edge from-layer="2331" from-port="0" to-layer="2333" to-port="1" />
		<edge from-layer="2332" from-port="0" to-layer="2333" to-port="2" />
		<edge from-layer="2333" from-port="3" to-layer="2335" to-port="0" />
		<edge from-layer="2334" from-port="0" to-layer="2335" to-port="1" />
		<edge from-layer="2335" from-port="2" to-layer="2337" to-port="0" />
		<edge from-layer="2336" from-port="0" to-layer="2337" to-port="1" />
		<edge from-layer="2337" from-port="2" to-layer="2339" to-port="2" />
		<edge from-layer="2337" from-port="2" to-layer="2342" to-port="0" />
		<edge from-layer="2338" from-port="0" to-layer="2339" to-port="3" />
		<edge from-layer="2338" from-port="0" to-layer="2343" to-port="3" />
		<edge from-layer="2339" from-port="4" to-layer="2345" to-port="1" />
		<edge from-layer="2340" from-port="0" to-layer="2343" to-port="0" />
		<edge from-layer="2341" from-port="0" to-layer="2342" to-port="1" />
		<edge from-layer="2342" from-port="2" to-layer="2343" to-port="2" />
		<edge from-layer="2343" from-port="4" to-layer="2345" to-port="2" />
		<edge from-layer="2344" from-port="0" to-layer="2345" to-port="3" />
		<edge from-layer="2345" from-port="4" to-layer="2346" to-port="0" />
		<edge from-layer="2347" from-port="0" to-layer="2358" to-port="0" />
		<edge from-layer="2348" from-port="0" to-layer="2362" to-port="1" />
		<edge from-layer="2348" from-port="0" to-layer="2358" to-port="1" />
		<edge from-layer="2349" from-port="1" to-layer="2352" to-port="0" />
		<edge from-layer="2350" from-port="0" to-layer="2352" to-port="1" />
		<edge from-layer="2351" from-port="0" to-layer="2352" to-port="2" />
		<edge from-layer="2352" from-port="3" to-layer="2354" to-port="0" />
		<edge from-layer="2353" from-port="0" to-layer="2354" to-port="1" />
		<edge from-layer="2354" from-port="2" to-layer="2356" to-port="0" />
		<edge from-layer="2355" from-port="0" to-layer="2356" to-port="1" />
		<edge from-layer="2356" from-port="2" to-layer="2358" to-port="2" />
		<edge from-layer="2356" from-port="2" to-layer="2361" to-port="0" />
		<edge from-layer="2357" from-port="0" to-layer="2358" to-port="3" />
		<edge from-layer="2357" from-port="0" to-layer="2362" to-port="3" />
		<edge from-layer="2358" from-port="4" to-layer="2364" to-port="1" />
		<edge from-layer="2359" from-port="0" to-layer="2362" to-port="0" />
		<edge from-layer="2360" from-port="0" to-layer="2361" to-port="1" />
		<edge from-layer="2361" from-port="2" to-layer="2362" to-port="2" />
		<edge from-layer="2362" from-port="4" to-layer="2364" to-port="2" />
		<edge from-layer="2363" from-port="0" to-layer="2364" to-port="3" />
		<edge from-layer="2364" from-port="4" to-layer="2365" to-port="0" />
		<edge from-layer="2366" from-port="0" to-layer="2377" to-port="0" />
		<edge from-layer="2367" from-port="0" to-layer="2381" to-port="1" />
		<edge from-layer="2367" from-port="0" to-layer="2377" to-port="1" />
		<edge from-layer="2368" from-port="1" to-layer="2371" to-port="0" />
		<edge from-layer="2369" from-port="0" to-layer="2371" to-port="1" />
		<edge from-layer="2370" from-port="0" to-layer="2371" to-port="2" />
		<edge from-layer="2371" from-port="3" to-layer="2373" to-port="0" />
		<edge from-layer="2372" from-port="0" to-layer="2373" to-port="1" />
		<edge from-layer="2373" from-port="2" to-layer="2375" to-port="0" />
		<edge from-layer="2374" from-port="0" to-layer="2375" to-port="1" />
		<edge from-layer="2375" from-port="2" to-layer="2377" to-port="2" />
		<edge from-layer="2375" from-port="2" to-layer="2380" to-port="0" />
		<edge from-layer="2376" from-port="0" to-layer="2381" to-port="3" />
		<edge from-layer="2376" from-port="0" to-layer="2377" to-port="3" />
		<edge from-layer="2377" from-port="4" to-layer="2383" to-port="1" />
		<edge from-layer="2378" from-port="0" to-layer="2381" to-port="0" />
		<edge from-layer="2379" from-port="0" to-layer="2380" to-port="1" />
		<edge from-layer="2380" from-port="2" to-layer="2381" to-port="2" />
		<edge from-layer="2381" from-port="4" to-layer="2383" to-port="2" />
		<edge from-layer="2382" from-port="0" to-layer="2383" to-port="3" />
		<edge from-layer="2383" from-port="4" to-layer="2384" to-port="0" />
		<edge from-layer="2385" from-port="0" to-layer="2396" to-port="0" />
		<edge from-layer="2386" from-port="0" to-layer="2396" to-port="1" />
		<edge from-layer="2386" from-port="0" to-layer="2400" to-port="1" />
		<edge from-layer="2387" from-port="1" to-layer="2390" to-port="0" />
		<edge from-layer="2388" from-port="0" to-layer="2390" to-port="1" />
		<edge from-layer="2389" from-port="0" to-layer="2390" to-port="2" />
		<edge from-layer="2390" from-port="3" to-layer="2392" to-port="0" />
		<edge from-layer="2391" from-port="0" to-layer="2392" to-port="1" />
		<edge from-layer="2392" from-port="2" to-layer="2394" to-port="0" />
		<edge from-layer="2393" from-port="0" to-layer="2394" to-port="1" />
		<edge from-layer="2394" from-port="2" to-layer="2399" to-port="0" />
		<edge from-layer="2394" from-port="2" to-layer="2396" to-port="2" />
		<edge from-layer="2395" from-port="0" to-layer="2400" to-port="3" />
		<edge from-layer="2395" from-port="0" to-layer="2396" to-port="3" />
		<edge from-layer="2396" from-port="4" to-layer="2402" to-port="1" />
		<edge from-layer="2397" from-port="0" to-layer="2400" to-port="0" />
		<edge from-layer="2398" from-port="0" to-layer="2399" to-port="1" />
		<edge from-layer="2399" from-port="2" to-layer="2400" to-port="2" />
		<edge from-layer="2400" from-port="4" to-layer="2402" to-port="2" />
		<edge from-layer="2401" from-port="0" to-layer="2402" to-port="3" />
		<edge from-layer="2402" from-port="4" to-layer="2403" to-port="0" />
		<edge from-layer="2404" from-port="0" to-layer="2414" to-port="0" />
		<edge from-layer="2405" from-port="0" to-layer="2414" to-port="1" />
		<edge from-layer="2405" from-port="0" to-layer="2418" to-port="1" />
		<edge from-layer="2406" from-port="0" to-layer="2408" to-port="1" />
		<edge from-layer="2407" from-port="0" to-layer="2408" to-port="2" />
		<edge from-layer="2408" from-port="3" to-layer="2410" to-port="0" />
		<edge from-layer="2409" from-port="0" to-layer="2410" to-port="1" />
		<edge from-layer="2410" from-port="2" to-layer="2412" to-port="0" />
		<edge from-layer="2411" from-port="0" to-layer="2412" to-port="1" />
		<edge from-layer="2412" from-port="2" to-layer="2414" to-port="2" />
		<edge from-layer="2412" from-port="2" to-layer="2417" to-port="0" />
		<edge from-layer="2413" from-port="0" to-layer="2414" to-port="3" />
		<edge from-layer="2413" from-port="0" to-layer="2418" to-port="3" />
		<edge from-layer="2414" from-port="4" to-layer="2420" to-port="1" />
		<edge from-layer="2415" from-port="0" to-layer="2418" to-port="0" />
		<edge from-layer="2416" from-port="0" to-layer="2417" to-port="1" />
		<edge from-layer="2417" from-port="2" to-layer="2418" to-port="2" />
		<edge from-layer="2418" from-port="4" to-layer="2420" to-port="2" />
		<edge from-layer="2419" from-port="0" to-layer="2420" to-port="3" />
		<edge from-layer="2420" from-port="4" to-layer="2421" to-port="0" />
		<edge from-layer="2422" from-port="0" to-layer="2433" to-port="0" />
		<edge from-layer="2423" from-port="0" to-layer="2437" to-port="1" />
		<edge from-layer="2423" from-port="0" to-layer="2433" to-port="1" />
		<edge from-layer="2424" from-port="1" to-layer="2427" to-port="0" />
		<edge from-layer="2425" from-port="0" to-layer="2427" to-port="1" />
		<edge from-layer="2426" from-port="0" to-layer="2427" to-port="2" />
		<edge from-layer="2427" from-port="3" to-layer="2429" to-port="0" />
		<edge from-layer="2428" from-port="0" to-layer="2429" to-port="1" />
		<edge from-layer="2429" from-port="2" to-layer="2431" to-port="0" />
		<edge from-layer="2430" from-port="0" to-layer="2431" to-port="1" />
		<edge from-layer="2431" from-port="2" to-layer="2436" to-port="0" />
		<edge from-layer="2431" from-port="2" to-layer="2433" to-port="2" />
		<edge from-layer="2432" from-port="0" to-layer="2437" to-port="3" />
		<edge from-layer="2432" from-port="0" to-layer="2433" to-port="3" />
		<edge from-layer="2433" from-port="4" to-layer="2439" to-port="1" />
		<edge from-layer="2434" from-port="0" to-layer="2437" to-port="0" />
		<edge from-layer="2435" from-port="0" to-layer="2436" to-port="1" />
		<edge from-layer="2436" from-port="2" to-layer="2437" to-port="2" />
		<edge from-layer="2437" from-port="4" to-layer="2439" to-port="2" />
		<edge from-layer="2438" from-port="0" to-layer="2439" to-port="3" />
		<edge from-layer="2439" from-port="4" to-layer="2440" to-port="0" />
		<edge from-layer="2441" from-port="0" to-layer="2452" to-port="0" />
		<edge from-layer="2442" from-port="0" to-layer="2456" to-port="1" />
		<edge from-layer="2442" from-port="0" to-layer="2452" to-port="1" />
		<edge from-layer="2443" from-port="1" to-layer="2446" to-port="0" />
		<edge from-layer="2444" from-port="0" to-layer="2446" to-port="1" />
		<edge from-layer="2445" from-port="0" to-layer="2446" to-port="2" />
		<edge from-layer="2446" from-port="3" to-layer="2448" to-port="0" />
		<edge from-layer="2447" from-port="0" to-layer="2448" to-port="1" />
		<edge from-layer="2448" from-port="2" to-layer="2450" to-port="0" />
		<edge from-layer="2449" from-port="0" to-layer="2450" to-port="1" />
		<edge from-layer="2450" from-port="2" to-layer="2452" to-port="2" />
		<edge from-layer="2450" from-port="2" to-layer="2455" to-port="0" />
		<edge from-layer="2451" from-port="0" to-layer="2452" to-port="3" />
		<edge from-layer="2451" from-port="0" to-layer="2456" to-port="3" />
		<edge from-layer="2452" from-port="4" to-layer="2458" to-port="1" />
		<edge from-layer="2453" from-port="0" to-layer="2456" to-port="0" />
		<edge from-layer="2454" from-port="0" to-layer="2455" to-port="1" />
		<edge from-layer="2455" from-port="2" to-layer="2456" to-port="2" />
		<edge from-layer="2456" from-port="4" to-layer="2458" to-port="2" />
		<edge from-layer="2457" from-port="0" to-layer="2458" to-port="3" />
		<edge from-layer="2458" from-port="4" to-layer="2459" to-port="0" />
		<edge from-layer="2460" from-port="0" to-layer="2471" to-port="0" />
		<edge from-layer="2461" from-port="0" to-layer="2471" to-port="1" />
		<edge from-layer="2461" from-port="0" to-layer="2475" to-port="1" />
		<edge from-layer="2462" from-port="1" to-layer="2465" to-port="0" />
		<edge from-layer="2463" from-port="0" to-layer="2465" to-port="1" />
		<edge from-layer="2464" from-port="0" to-layer="2465" to-port="2" />
		<edge from-layer="2465" from-port="3" to-layer="2467" to-port="0" />
		<edge from-layer="2466" from-port="0" to-layer="2467" to-port="1" />
		<edge from-layer="2467" from-port="2" to-layer="2469" to-port="0" />
		<edge from-layer="2468" from-port="0" to-layer="2469" to-port="1" />
		<edge from-layer="2469" from-port="2" to-layer="2471" to-port="2" />
		<edge from-layer="2469" from-port="2" to-layer="2474" to-port="0" />
		<edge from-layer="2470" from-port="0" to-layer="2475" to-port="3" />
		<edge from-layer="2470" from-port="0" to-layer="2471" to-port="3" />
		<edge from-layer="2471" from-port="4" to-layer="2477" to-port="1" />
		<edge from-layer="2472" from-port="0" to-layer="2475" to-port="0" />
		<edge from-layer="2473" from-port="0" to-layer="2474" to-port="1" />
		<edge from-layer="2474" from-port="2" to-layer="2475" to-port="2" />
		<edge from-layer="2475" from-port="4" to-layer="2477" to-port="2" />
		<edge from-layer="2476" from-port="0" to-layer="2477" to-port="3" />
		<edge from-layer="2477" from-port="4" to-layer="2478" to-port="0" />
		<edge from-layer="2479" from-port="0" to-layer="2490" to-port="0" />
		<edge from-layer="2480" from-port="0" to-layer="2490" to-port="1" />
		<edge from-layer="2480" from-port="0" to-layer="2494" to-port="1" />
		<edge from-layer="2481" from-port="1" to-layer="2484" to-port="0" />
		<edge from-layer="2482" from-port="0" to-layer="2484" to-port="1" />
		<edge from-layer="2483" from-port="0" to-layer="2484" to-port="2" />
		<edge from-layer="2484" from-port="3" to-layer="2486" to-port="0" />
		<edge from-layer="2485" from-port="0" to-layer="2486" to-port="1" />
		<edge from-layer="2486" from-port="2" to-layer="2488" to-port="0" />
		<edge from-layer="2487" from-port="0" to-layer="2488" to-port="1" />
		<edge from-layer="2488" from-port="2" to-layer="2490" to-port="2" />
		<edge from-layer="2488" from-port="2" to-layer="2493" to-port="0" />
		<edge from-layer="2489" from-port="0" to-layer="2494" to-port="3" />
		<edge from-layer="2489" from-port="0" to-layer="2490" to-port="3" />
		<edge from-layer="2490" from-port="4" to-layer="2496" to-port="1" />
		<edge from-layer="2491" from-port="0" to-layer="2494" to-port="0" />
		<edge from-layer="2492" from-port="0" to-layer="2493" to-port="1" />
		<edge from-layer="2493" from-port="2" to-layer="2494" to-port="2" />
		<edge from-layer="2494" from-port="4" to-layer="2496" to-port="2" />
		<edge from-layer="2495" from-port="0" to-layer="2496" to-port="3" />
		<edge from-layer="2496" from-port="4" to-layer="2497" to-port="0" />
		<edge from-layer="2498" from-port="0" to-layer="2508" to-port="0" />
		<edge from-layer="2499" from-port="0" to-layer="2512" to-port="1" />
		<edge from-layer="2499" from-port="0" to-layer="2508" to-port="1" />
		<edge from-layer="2500" from-port="0" to-layer="2502" to-port="1" />
		<edge from-layer="2501" from-port="0" to-layer="2502" to-port="2" />
		<edge from-layer="2502" from-port="3" to-layer="2504" to-port="0" />
		<edge from-layer="2503" from-port="0" to-layer="2504" to-port="1" />
		<edge from-layer="2504" from-port="2" to-layer="2506" to-port="0" />
		<edge from-layer="2505" from-port="0" to-layer="2506" to-port="1" />
		<edge from-layer="2506" from-port="2" to-layer="2511" to-port="0" />
		<edge from-layer="2506" from-port="2" to-layer="2508" to-port="2" />
		<edge from-layer="2507" from-port="0" to-layer="2508" to-port="3" />
		<edge from-layer="2507" from-port="0" to-layer="2512" to-port="3" />
		<edge from-layer="2508" from-port="4" to-layer="2514" to-port="1" />
		<edge from-layer="2509" from-port="0" to-layer="2512" to-port="0" />
		<edge from-layer="2510" from-port="0" to-layer="2511" to-port="1" />
		<edge from-layer="2511" from-port="2" to-layer="2512" to-port="2" />
		<edge from-layer="2512" from-port="4" to-layer="2514" to-port="2" />
		<edge from-layer="2513" from-port="0" to-layer="2514" to-port="3" />
		<edge from-layer="2514" from-port="4" to-layer="2515" to-port="0" />
		<edge from-layer="2516" from-port="0" to-layer="2527" to-port="0" />
		<edge from-layer="2517" from-port="0" to-layer="2527" to-port="1" />
		<edge from-layer="2517" from-port="0" to-layer="2531" to-port="1" />
		<edge from-layer="2518" from-port="1" to-layer="2521" to-port="0" />
		<edge from-layer="2519" from-port="0" to-layer="2521" to-port="1" />
		<edge from-layer="2520" from-port="0" to-layer="2521" to-port="2" />
		<edge from-layer="2521" from-port="3" to-layer="2523" to-port="0" />
		<edge from-layer="2522" from-port="0" to-layer="2523" to-port="1" />
		<edge from-layer="2523" from-port="2" to-layer="2525" to-port="0" />
		<edge from-layer="2524" from-port="0" to-layer="2525" to-port="1" />
		<edge from-layer="2525" from-port="2" to-layer="2530" to-port="0" />
		<edge from-layer="2525" from-port="2" to-layer="2527" to-port="2" />
		<edge from-layer="2526" from-port="0" to-layer="2531" to-port="3" />
		<edge from-layer="2526" from-port="0" to-layer="2527" to-port="3" />
		<edge from-layer="2527" from-port="4" to-layer="2533" to-port="1" />
		<edge from-layer="2528" from-port="0" to-layer="2531" to-port="0" />
		<edge from-layer="2529" from-port="0" to-layer="2530" to-port="1" />
		<edge from-layer="2530" from-port="2" to-layer="2531" to-port="2" />
		<edge from-layer="2531" from-port="4" to-layer="2533" to-port="2" />
		<edge from-layer="2532" from-port="0" to-layer="2533" to-port="3" />
		<edge from-layer="2533" from-port="4" to-layer="2534" to-port="0" />
		<edge from-layer="2535" from-port="0" to-layer="2546" to-port="0" />
		<edge from-layer="2536" from-port="0" to-layer="2546" to-port="1" />
		<edge from-layer="2536" from-port="0" to-layer="2550" to-port="1" />
		<edge from-layer="2537" from-port="1" to-layer="2540" to-port="0" />
		<edge from-layer="2538" from-port="0" to-layer="2540" to-port="1" />
		<edge from-layer="2539" from-port="0" to-layer="2540" to-port="2" />
		<edge from-layer="2540" from-port="3" to-layer="2542" to-port="0" />
		<edge from-layer="2541" from-port="0" to-layer="2542" to-port="1" />
		<edge from-layer="2542" from-port="2" to-layer="2544" to-port="0" />
		<edge from-layer="2543" from-port="0" to-layer="2544" to-port="1" />
		<edge from-layer="2544" from-port="2" to-layer="2546" to-port="2" />
		<edge from-layer="2544" from-port="2" to-layer="2549" to-port="0" />
		<edge from-layer="2545" from-port="0" to-layer="2550" to-port="3" />
		<edge from-layer="2545" from-port="0" to-layer="2546" to-port="3" />
		<edge from-layer="2546" from-port="4" to-layer="2552" to-port="1" />
		<edge from-layer="2547" from-port="0" to-layer="2550" to-port="0" />
		<edge from-layer="2548" from-port="0" to-layer="2549" to-port="1" />
		<edge from-layer="2549" from-port="2" to-layer="2550" to-port="2" />
		<edge from-layer="2550" from-port="4" to-layer="2552" to-port="2" />
		<edge from-layer="2551" from-port="0" to-layer="2552" to-port="3" />
		<edge from-layer="2552" from-port="4" to-layer="2553" to-port="0" />
		<edge from-layer="2554" from-port="0" to-layer="2565" to-port="0" />
		<edge from-layer="2555" from-port="0" to-layer="2565" to-port="1" />
		<edge from-layer="2555" from-port="0" to-layer="2569" to-port="1" />
		<edge from-layer="2556" from-port="1" to-layer="2559" to-port="0" />
		<edge from-layer="2557" from-port="0" to-layer="2559" to-port="1" />
		<edge from-layer="2558" from-port="0" to-layer="2559" to-port="2" />
		<edge from-layer="2559" from-port="3" to-layer="2561" to-port="0" />
		<edge from-layer="2560" from-port="0" to-layer="2561" to-port="1" />
		<edge from-layer="2561" from-port="2" to-layer="2563" to-port="0" />
		<edge from-layer="2562" from-port="0" to-layer="2563" to-port="1" />
		<edge from-layer="2563" from-port="2" to-layer="2568" to-port="0" />
		<edge from-layer="2563" from-port="2" to-layer="2565" to-port="2" />
		<edge from-layer="2564" from-port="0" to-layer="2565" to-port="3" />
		<edge from-layer="2564" from-port="0" to-layer="2569" to-port="3" />
		<edge from-layer="2565" from-port="4" to-layer="2571" to-port="1" />
		<edge from-layer="2566" from-port="0" to-layer="2569" to-port="0" />
		<edge from-layer="2567" from-port="0" to-layer="2568" to-port="1" />
		<edge from-layer="2568" from-port="2" to-layer="2569" to-port="2" />
		<edge from-layer="2569" from-port="4" to-layer="2571" to-port="2" />
		<edge from-layer="2570" from-port="0" to-layer="2571" to-port="3" />
		<edge from-layer="2571" from-port="4" to-layer="2572" to-port="0" />
		<edge from-layer="2573" from-port="0" to-layer="2584" to-port="0" />
		<edge from-layer="2574" from-port="0" to-layer="2588" to-port="1" />
		<edge from-layer="2574" from-port="0" to-layer="2584" to-port="1" />
		<edge from-layer="2575" from-port="1" to-layer="2578" to-port="0" />
		<edge from-layer="2576" from-port="0" to-layer="2578" to-port="1" />
		<edge from-layer="2577" from-port="0" to-layer="2578" to-port="2" />
		<edge from-layer="2578" from-port="3" to-layer="2580" to-port="0" />
		<edge from-layer="2579" from-port="0" to-layer="2580" to-port="1" />
		<edge from-layer="2580" from-port="2" to-layer="2582" to-port="0" />
		<edge from-layer="2581" from-port="0" to-layer="2582" to-port="1" />
		<edge from-layer="2582" from-port="2" to-layer="2584" to-port="2" />
		<edge from-layer="2582" from-port="2" to-layer="2587" to-port="0" />
		<edge from-layer="2583" from-port="0" to-layer="2584" to-port="3" />
		<edge from-layer="2583" from-port="0" to-layer="2588" to-port="3" />
		<edge from-layer="2584" from-port="4" to-layer="2590" to-port="1" />
		<edge from-layer="2585" from-port="0" to-layer="2588" to-port="0" />
		<edge from-layer="2586" from-port="0" to-layer="2587" to-port="1" />
		<edge from-layer="2587" from-port="2" to-layer="2588" to-port="2" />
		<edge from-layer="2588" from-port="4" to-layer="2590" to-port="2" />
		<edge from-layer="2589" from-port="0" to-layer="2590" to-port="3" />
		<edge from-layer="2590" from-port="4" to-layer="2591" to-port="0" />
		<edge from-layer="2592" from-port="0" to-layer="2602" to-port="0" />
		<edge from-layer="2593" from-port="0" to-layer="2595" to-port="1" />
		<edge from-layer="2594" from-port="0" to-layer="2595" to-port="2" />
		<edge from-layer="2595" from-port="3" to-layer="2597" to-port="0" />
		<edge from-layer="2596" from-port="0" to-layer="2597" to-port="1" />
		<edge from-layer="2597" from-port="2" to-layer="2599" to-port="0" />
		<edge from-layer="2598" from-port="0" to-layer="2599" to-port="1" />
		<edge from-layer="2599" from-port="2" to-layer="2602" to-port="1" />
		<edge from-layer="2600" from-port="0" to-layer="2602" to-port="2" />
		<edge from-layer="2601" from-port="0" to-layer="2602" to-port="3" />
		<edge from-layer="2602" from-port="4" to-layer="2603" to-port="1" />
		<edge from-layer="2603" from-port="2" to-layer="2604" to-port="0" />
		<edge from-layer="2604" from-port="2" to-layer="2607" to-port="0" />
		<edge from-layer="2605" from-port="0" to-layer="2607" to-port="1" />
		<edge from-layer="2606" from-port="0" to-layer="2607" to-port="2" />
		<edge from-layer="2607" from-port="3" to-layer="2610" to-port="0" />
		<edge from-layer="2608" from-port="0" to-layer="2610" to-port="1" />
		<edge from-layer="2609" from-port="0" to-layer="2610" to-port="2" />
		<edge from-layer="2610" from-port="3" to-layer="2614" to-port="0" />
		<edge from-layer="2611" from-port="0" to-layer="2614" to-port="1" />
		<edge from-layer="2612" from-port="0" to-layer="2614" to-port="2" />
		<edge from-layer="2613" from-port="0" to-layer="2614" to-port="3" />
		<edge from-layer="2614" from-port="4" to-layer="2615" to-port="0" />
	</edges>
	<rt_info>
		<MO_version value="custom_HEAD_f6ee6e92f846a8c665e4a7089c51481f9689a3b5" />
		<Runtime_version value="2023.0.0-10521-f6ee6e92f84-HEAD" />
		<conversion_parameters>
			<compress_to_fp16 value="False" />
			<framework value="onnx" />
			<input value="input,inp_state_000,inp_state_001,inp_state_002,inp_state_003,inp_state_004,inp_state_005,inp_state_006,inp_state_007,inp_state_008,inp_state_009,inp_state_010,inp_state_011,inp_state_012,inp_state_013,inp_state_014,inp_state_015,inp_state_016,inp_state_017,inp_state_018,inp_state_019,inp_state_020,inp_state_021,inp_state_022,inp_state_023,inp_state_024,inp_state_025,inp_state_026,inp_state_027,inp_state_028,inp_state_029,inp_state_030,inp_state_031,inp_state_032,inp_state_033,inp_state_034,inp_state_035,inp_state_036,inp_state_037,inp_state_038,inp_state_039,inp_state_040,inp_state_041,inp_state_042,inp_state_043,inp_state_044,inp_state_045,inp_state_046,inp_state_047,inp_state_048,inp_state_049" />
			<input_model value="DIR/model.onnx" />
			<input_shape value="[1,2048],[1,128],[1,2,129,2],[1,18,129,2],[1,34,129,2],[1,129,32,32],[1,129,32,32],[1,32,64,2],[1,48,64,2],[1,64,64,2],[1,64,64,22],[1,64,64,22],[1,64,32,2],[1,96,32,2],[1,128,32,2],[1,32,128,16],[1,32,128,16],[1,128,16,2],[1,192,16,2],[1,256,16,2],[1,16,256,11],[1,16,256,11],[1,256,8,2],[1,384,8,2],[1,512,8,2],[1,8,256,8],[1,8,256,8],[1,512,16,2],[1,256,16,2],[1,384,16,2],[1,512,16,2],[1,16,128,11],[1,16,128,11],[1,256,32,2],[1,128,32,2],[1,192,32,2],[1,256,32,2],[1,32,64,16],[1,32,64,16],[1,128,64,2],[1,64,64,2],[1,96,64,2],[1,128,64,2],[1,64,32,22],[1,64,32,22],[1,64,129,2],[1,32,129,2],[1,48,129,2],[1,64,129,2],[1,2,129,4],[1,2,129,1]" />
			<layout value="input(nc),inp_state_000(nc),inp_state_001(nchw),inp_state_002(nchw),inp_state_003(nchw),inp_state_004(nchw),inp_state_005(nchw),inp_state_006(nchw),inp_state_007(nchw),inp_state_008(nchw),inp_state_009(nchw),inp_state_010(nchw),inp_state_011(nchw),inp_state_012(nchw),inp_state_013(nchw),inp_state_014(nchw),inp_state_015(nchw),inp_state_016(nchw),inp_state_017(nchw),inp_state_018(nchw),inp_state_019(nchw),inp_state_020(nchw),inp_state_021(nchw),inp_state_022(nchw),inp_state_023(nchw),inp_state_024(nchw),inp_state_025(nchw),inp_state_026(nchw),inp_state_027(nchw),inp_state_028(nchw),inp_state_029(nchw),inp_state_030(nchw),inp_state_031(nchw),inp_state_032(nchw),inp_state_033(nchw),inp_state_034(nchw),inp_state_035(nchw),inp_state_036(nchw),inp_state_037(nchw),inp_state_038(nchw),inp_state_039(nchw),inp_state_040(nchw),inp_state_041(nchw),inp_state_042(nchw),inp_state_043(nchw),inp_state_044(nchw),inp_state_045(nchw),inp_state_046(nchw),inp_state_047(nchw),inp_state_048(nchw),inp_state_049(nchw)" />
			<model_name value="noise-suppression-poconetlike-0001" />
			<output value="output,out_state_000,out_state_001,out_state_002,out_state_003,out_state_004,out_state_005,out_state_006,out_state_007,out_state_008,out_state_009,out_state_010,out_state_011,out_state_012,out_state_013,out_state_014,out_state_015,out_state_016,out_state_017,out_state_018,out_state_019,out_state_020,out_state_021,out_state_022,out_state_023,out_state_024,out_state_025,out_state_026,out_state_027,out_state_028,out_state_029,out_state_030,out_state_031,out_state_032,out_state_033,out_state_034,out_state_035,out_state_036,out_state_037,out_state_038,out_state_039,out_state_040,out_state_041,out_state_042,out_state_043,out_state_044,out_state_045,out_state_046,out_state_047,out_state_048,out_state_049" />
			<output_dir value="DIR" />
		</conversion_parameters>
		<legacy_frontend value="False" />
	</rt_info>
</net>
